src/falldetector/falldetector/checkpoints/fall_detection_model.pt (torch, 60671 bytes, 14 tensors)

fc1.weight f4 [128, 34]
-0.055735126 0.0077334777 0.045564786 0.124165535 -0.033768103 -0.078898735 0.13216226 0.07658624
-0.013789459 -0.1455956 -0.12479638 0.0031993727 0.04170589 -0.010708553 -0.030443078 -0.037115715
0.14022306 0.047422606 -0.039064687 -0.018236507 0.07932712 0.10186219 0.12842171 0.11291956
-0.0013894086 0.042504244 -0.03185321 0.115474425 0.07965692 0.018046929 0.09535994 0.16608806
0.050732113 0.09846049 0.04330956 0.10888993 0.012977458 -0.035941496 -0.06710018 0.09555211
-0.15413737 -0.08005354 -0.09611812 0.072638415 0.08830648 0.06597966 0.1411558 0.05557356
-0.15878898 -0.09399853 0.006348517 0.1414347 0.031413138 -0.09863406 -0.110875435 0.08233732
0.063955896 -0.07531334 -0.03942902 -0.09458716 0.03377513 0.1257257 0.0145225935 -0.091599554
-0.03177016 0.033488676 0.069139555 0.11356617 -0.050627578 -0.007279993 0.08522749 0.14612108
-0.16715054 0.1224164 0.1499527 -0.12747139 0.09402265 -0.11904051 -0.031479593 0.05184063
0.11468492 0.080661304 -0.06637159 0.059457354 0.06580222 0.020035295 0.027292613 -0.07906638
-0.17091514 -0.030273123 -0.008555361 -0.00026059258 -0.07273484 -0.11032879 -0.12602173 -0.11039814
-0.099757284 0.08200053 0.16039912 0.061600763 -0.024661725 -0.12655312 0.061098263 -0.08310368
-0.13474275 0.009108179 -0.022486614 0.08919033 -0.06790094 0.079388306 0.09232701 -0.1591975
0.07546176 -0.13448158 -0.047539517 0.022829974 -0.122740895 0.08640005 0.008939991 0.039864905
-0.08736023 -0.007386294 0.14365941 -0.1325264 0.056607135 0.11732066 -0.098445415 -0.034958687
-0.10039632 0.060192153 -0.03937459 -0.054541033 -0.09502261 0.031110527 0.049148615 0.12190485
-0.09252639 -0.12351021 -0.16828585 -0.08575833 -0.13200296 -0.059237633 0.10656132 0.11197434
0.0114879375 -0.061552424 0.04948803 -0.10477727 -0.013704639 -0.17402966 0.15137766 -0.11801412
0.009421943 -0.005665764 0.1591094 0.033972092 -0.084244765 -0.020478923 0.025339408 0.018428057
-0.08196356 0.016686425 0.12851395 -0.05199872 0.1281693 0.09556142 -0.074240476 -0.1785
0.11704762 -0.06513594 -0.12586007 0.08114703 0.05892904 -0.0127429245 0.050997738 0.124296784
-0.117547914 0.15783992 -0.05620259 -0.060016032 0.004887911 -0.13542774 0.14593188 -0.040286373
0.067905545 0.13878451 0.004342877 -0.17672355 -0.07051227 0.12291664 0.13897656 0.13314661
0.14312913 -0.007921499 -0.058103055 -0.019027004 0.13695492 0.010557019 0.013386678 0.01318093
-0.16452399 0.057361774 -0.11646887 -0.17583917 0.086867094 -0.047132086 -0.006884207 0.029553108
0.071218506 -0.123332016 -0.04743507 -0.114496276 0.01949702 -0.13102773 -0.050509024 -0.10132186
-0.011165267 -0.011901162 -0.07907213 0.06258203 0.110394925 -0.031062765 -0.004787053 0.12529418
0.17465517 -0.13001367 -0.0057398556 0.05437457 -0.026695961 0.062676914 -0.100624084 0.07264275
-0.16266735 -0.017712602 -0.0016124632 0.13070524 0.044406142 0.057255417 0.15978722 -0.10302945
-0.12771612 -0.13489738 -0.05345499 -0.09825717 -0.12813136 -0.11546917 -0.11341576 -0.16529451
-0.10043612 -0.1568856 0.065746956 0.061192416 -0.08001404 -0.11190813 0.0416642 -0.116451845
00000000: 844a 64bd 1d69 fd3b 24a2 3a3d 804a fe3d
00000010: 6c50 0abd a995 a1bd 8b55 073e 3fd9 9c3d
00000020: 2fed 61bc 0317 15be 3f95 ffbd 91ac 513b
00000030: ccd3 2a3d ed72 2fbc c363 f9bc a606 18bd
00000040: a296 0f3e 353e 423d 4b02 20bd ba64 95bc
00000050: 4276 a23d 209d d03d fb80 033e 5f42 e73d
00000060: d11c b6ba ee18 2e3d 8378 02bd db7d ec3d
00000070: 2b23 a33d 27d7 933c 124c c33d fd12 2a3e
00000080: 7acc 4f3d a7a5 c93d 5d65 313d af01 df3d
00000090: 679f 543c 6437 13bd d26b 89bd d3b0 c33d
000000a0: 30d6 1dbe 1cf3 a3bd 94d9 c4bd 73c3 943d
000000b0: 07da b43d 5820 873d 258b 103e 1aa1 633d
000000c0: 9499 22be 4d82 c0bd 3807 d03b 42d4 103e
000000d0: 10ab 003d a700 cabd a912 e3bd 78a0 a83d
000000e0: 4ffb 823d e13d 9abd 5380 21bd eab6 c1bd
000000f0: ca57 0a3d 3dbe 003e 2cf0 6d3c 8c98 bbbd
00000100: 6d21 02bd 6c2b 093d 0a99 8d3d 6195 e83d
00000110: dd5e 4fbd 028d eebb c08b ae3d c4a0 153e
00000120: 8329 2bbe 73b5 fa3d 338d 193e dc87 02be
00000130: f28e c03d 83cb f3bd bff0 00bd d756 543d
00000140: eddf ea3d c131 a53d d4ed 87bd 8e89 733d
00000150: 50c3 863d 0f21 a43c c294 df3c 8eed a1bd
00000160: 6104 2fbe 57ff f7bc c92b 0cbc 25a0 88b9
00000170: 01f6 94bd 10f4 e1bd d70b 01be 6c18 e2bd
00000180: 8c4d ccbd e5ef a73d ab3f 243e 1551 7c3d
00000190: 6307 cabc 2497 01be 2c42 7a3d 4332 aabd
000001a0: 01fa 09be 793a 153c d935 b8bc 6ba9 b63d
000001b0: a60f 8bbd 5696 a23d f215 bd3d ab04 23be
000001c0: b28b 9a3d 8ab5 09be ccb8 42bd ed05 bb3c
000001d0: 945f fbbd 82f2 b03d 0a79 123c 6249 233d
000001e0: ece9 b2bd ba08 f2bb 741b 133e 00b5 07be
000001f0: e2dc 673d d045 f03d c09d c9bd d730 0fbd
00000200: 969c cdbd 0c8c 763d 4047 21bd 6b66 5fbd
00000210: 379b c2bd 81db fe3c 0f50 493d 40a9 f93d
00000220: 7a7e bdbd ecf2 fcbd 2053 2cbe 10a2 afbd
00000230: c92b 07be 29a3 72bd d23c da3d ce52 e53d
00000240: e737 3c3c 651e 7cbd f6b3 4a3d 7795 d6bd
00000250: 6c89 60bc d534 32be bf02 1b3e 63b1 f1bd
00000260: 7e5e 1a3c e0a7 b9bb 93ed 223e 5226 0b3d
00000270: 8588 acbd 6ac3 a7bc 9794 cf3c 70f6 963c
00000280: 83dc a7bd f8b1 883c 2999 033e 9cfc 54bd
00000290: d03e 033e b5b5 c33d 640b 98bd b4c8 36be
000002a0: aab6 ef3d fe65 85bd 76e1 00be 6a30 a63d
000002b0: 945f 713d b3c7 50bc 01e3 503d 508f fe3d
000002c0: f6bc f0bd caa0 213e b034 66bd 5fd3 75bd
000002d0: c52a a03b 92ad 0abe 2b6f 153e 5303 25bd
000002e0: 1012 8b3d 871d 0e3e b14e 8e3b 05f7 34be
000002f0: bd68 90bd b8bb fb3d df4f 0e3e 9657 083e
00000300: 7190 123e 2dc9 01bc 78fd 6dbd 85de 9bbc
00000310: e93d 0c3e 59f7 2c3c cc53 5b3c d4f4 573c
00000320: fa78 28be 2ef4 6a3d 3b87 eebd 2f0f 34be
00000330: 60e7 b13d 930d 41bd ea94 e1bb 5c19 f23c
00000340: 02db 913d 7f95 fcbd 474b 42bd 067d eabd
00000350: 37b8 9f3c 222c 06be 8de2 4ebd d681 cfbd
00000360: 86ee 36bc 17fd 42bc 92f0 a1bd 022b 803d
00000370: bc16 e23d 5777 febc b6dc 9cbb 1e4d 003e
00000380: ced8 323e 4e22 05be 6615 bcbb deb7 5e3d
00000390: 7db1 dabc c15c 803d 0014 cebd b9c5 943d
000003a0: 4592 26be 051a 91bc 4959 d3ba 98d7 053e
000003b0: 37e3 353d a884 6a3d 439f 233e 1b01 d3bd
000003c0: 04c8 02be 8a22 0abe 9ff3 5abd 0e3b c9bd
000003d0: de34 03be 1a7b ecbd 8646 e8bd f742 29be
000003e0: 74b1 cdbd 9ea6 20be 57a6 863d e6a4 7a3d
000003f0: 67de a3bd 1730 e5bd 15a8 2a3d 4e7e eebd

fc1.bias f4 [128]
0.016791796 0.005264472 -0.08452353 -0.05839989 0.07948208 0.048010178 0.15034038 -0.08729165
-0.004224382 0.15092573 -0.0030592543 0.06325495 0.12281214 0.07712941 -0.057414763 0.13872781
-0.11392144 0.11670447 -0.117959134 -0.14469476 -0.11431925 -0.11400745 -0.039111678 -0.09985605
-0.11908811 0.073041335 0.04203915 -0.106149316 0.11189791 0.10081485 -0.13464206 -0.15659456
-0.15699677 0.15041608 -0.16129306 0.15885285 0.050088312 0.112942725 -0.100622036 -0.004022638
0.07182737 0.07619934 -0.099222675 -0.09470037 0.09191952 -0.050910283 0.13984 -0.1713871
-0.0034599504 0.17147589 -0.012818569 0.15203834 -0.10291305 0.076957464 -0.13744617 0.14313999
0.12876193 -0.05592981 0.016874561 -0.07090928 -0.13671176 -0.062125463 0.082522824 0.11485989
0.013973069 -0.07722493 -0.010812336 -0.16663003 0.113431655 -0.035403408 0.04467224 0.04931719
-0.02591792 0.040460043 -0.00420261 -0.077077955 0.07955814 -0.11126324 -0.11973228 -0.092557006
-0.16231193 0.10461853 0.056438897 0.12790102 0.123516195 -0.05589409 0.16743204 -0.0020867297
-0.1496625 -0.116468996 0.14193207 -0.060172312 -0.080189 -0.054209452 -0.01084146 0.0147381285
-0.04596883 0.027781703 0.113969296 -0.0075076655 0.114673324 0.1109161 -0.12777096 0.09084697
0.14213373 0.067133546 -0.046525344 -0.12944348 0.031728733 -0.13047165 0.11083496 0.07270671
0.06500141 0.054416113 -0.01915904 -0.15396668 -0.054439455 -0.02678027 0.046725698 0.15712024
-0.10392297 -0.12541938 -0.08457766 -0.13783193 -0.08799074 -0.11767034 0.06893792 -0.011182261
00000000: f38e 893c 9881 ac3b ac1a adbd b934 6fbd
00000010: 80c7 a23d 52a6 443d d4f2 193e f7c5 b2bd
00000020: af6c 8abb 468c 1a3e c57d 48bb d08b 813d
00000030: ee84 fb3d 06f6 9d3d be2b 6bbd aa0e 0e3e
00000040: a54f e9bd c102 ef3d 8f94 f1bd dd2a 14be
00000050: 3620 eabd bd7c e9bd 9133 20bd 5481 ccbd
00000060: 78e4 f3bd b296 953d 3e31 2c3d d064 d9bd
00000070: bb2a e53d 0478 ce3d 9cdf 09be 535a 20be
00000080: c3c3 20be ac06 1a3e 022a 25be 52aa 223e
00000090: 6729 4d3d 844e e73d ed12 cebd 55d0 83bb
000000a0: 3a1a 933d 660e 9c3d 4235 cbbd 45f2 c1bd
000000b0: 4d40 bc3d 4d87 50bd 3832 0f3e 1a80 2fbe
000000c0: 56c0 62bb 6097 2f3e fa04 52bc f0af 1b3e
000000d0: 14c4 d2bd e09b 9d3d b0be 0cbe 4a93 123e
000000e0: 2bda 033e a816 65bd 853c 8a3c e238 91bd
000000f0: 2bfe 0bbe 4577 7ebd ba01 a93d a93b eb3d
00000100: 4def 643c 1b28 9ebd 3926 31bc 10a1 2abe
00000110: db4e e83d 2a03 11bd 3dfa 363d d200 4a3d
00000120: d151 d4bc 6eb9 253d 0cb6 89bb 0cdb 9dbd
00000130: 61ef a23d fbdd e3bd 3336 f5bd 878e bdbd
00000140: 1935 26be 3d42 d63d 792c 673d 7cf8 023e
00000150: 0ff6 fc3d 34f1 64bd 4e73 2b3e 84c1 08bb
00000160: 2041 19be 4c87 eebd a456 113e 3e77 76bd
00000170: 213a a4bd bb0a 5ebd 61a0 31bc 3178 713c
00000180: d049 3cbd 7496 e33c bc68 e93d dd02 f6bb
00000190: d9d9 ea3d fb27 e33d 64d6 02be fa0d ba3d
000001a0: 818b 113e 507d 893d 5c91 3ebd d58c 04be
000001b0: fdf5 013d 5c9a 05be 71fd e23d 41e7 943d
000001c0: 761f 853d 6ee3 5e3d 6bf3 9cbc 71a9 1dbe
000001d0: e8fb 5ebd 4c62 dbbc 7263 3f3d 21e4 203e
000001e0: 91d5 d4bd f06d 00be 0d37 adbd d023 0dbe
000001f0: 7d34 b4bd 26fd f0bd 532f 8d3d cd35 37bc

bn1.weight f4 [128]
1.0039397 1.0017017 1.0135213 0.9987252 1.0111337 0.985669 0.9982701 0.99530554
0.9969463 0.98800105 1.0095857 1.0129606 0.9938911 0.99712396 0.9972009 1.008331
1.0088547 0.990208 0.9997315 1.0036112 0.9918884 0.9914218 1.0127879 0.9880816
0.9897071 0.98945844 0.9940809 0.99056405 0.9900907 1.0002347 1.0100384 1.0066359
1.0058519 0.99634695 1.0028135 1.0084256 0.99694127 0.98815423 1.0132335 0.98673385
1.0101322 0.9897017 1.0088764 0.9914431 1.0124491 0.993562 0.9894519 1.0030097
0.99375635 0.99747616 1.0141834 0.99259907 1.0016509 0.99294764 0.9954947 1.0046214
0.99606484 0.98795015 0.9905024 1.0032766 1.0043503 1.0064723 0.9901419 1.0051403
1.005138 1.0114415 0.99264467 0.98563 1.0098877 1.013668 1.003754 1.0091107
0.9856037 0.98765296 1.012855 1.0138296 0.99142784 1.0132126 1.0064551 1.008442
1.0010394 0.98669416 0.9937134 0.9887576 0.9904425 1.0109544 0.98753744 1.0118923
1.0100185 0.9933938 0.9882482 1.0077493 1.014086 1.0120623 0.99513894 1.0114475
0.994561 0.99886554 1.0011693 1.000094 0.98999417 1.0105708 0.9974243 0.988453
0.99269366 0.9920531 0.99976486 1.0081351 0.9951885 0.99744254 0.98699534 0.994571
1.013477 0.99428743 0.99893653 1.0116072 1.0123143 1.0094432 0.9879944 0.98516154
0.9902201 1.0053481 1.0015929 0.9903333 0.99571294 0.999579 0.993291 1.0006216
00000000: 1981 803f c337 803f 11bb 813f 74ac 7f3f
00000010: d46c 813f ce54 7c3f a18e 7f3f 58cc 7e3f
00000020: df37 7f3f a3ed 7c3f 1b3a 813f b1a8 813f
00000030: a66f 7e3f 8443 7f3f 8f48 7f3f fd10 813f
00000040: 2722 813f 467e 7d3f 67ee 7f3f 5576 803f
00000050: 66ec 7d3f d2cd 7d3f 09a3 813f eaf2 7c3f
00000060: 725d 7d3f 264d 7d3f 167c 7e3f 9b95 7d3f
00000070: 9676 7d3f b107 803f f048 813f 72d9 803f
00000080: c1bf 803f 9810 7f3f 315c 803f 1714 813f
00000090: 8b37 7f3f adf7 7c3f a3b1 813f 979a 7c3f
000000a0: 034c 813f 175d 7d3f dd22 813f 37cf 7d3f
000000b0: ef97 813f 145a 7e3f b84c 7d3f 9f62 803f
000000c0: d166 7e3f 995a 7f3f c3d0 813f f91a 7e3f
000000d0: 1936 803f d131 7e3f bed8 7e3f 6f97 803f
000000e0: 1bfe 7e3f 4dea 7c3f 9191 7d3f 5e6b 803f
000000f0: 8d8e 803f 16d4 803f f179 7d3f 70a8 803f
00000100: 5da8 803f ea76 813f f61d 7e3f 3f52 7c3f
00000110: 0044 813f dfbf 813f 037b 803f 8a2a 813f
00000120: 8650 7c3f d3d6 7c3f 3ca5 813f 2bc5 813f
00000130: 37ce 7d3f f3b0 813f 85d3 803f a114 813f
00000140: 0f22 803f fd97 7c3f 0064 7e3f 381f 7d3f
00000150: a48d 7d3f f466 813f 41cf 7c3f b085 813f
00000160: 4948 813f 0e4f 7e3f d6fd 7c3f eefd 803f
00000170: 92cd 813f 428b 813f 6dc1 7e3f 1d77 813f
00000180: 8d9b 7e3f a7b5 7f3f 5126 803f 1503 803f
00000190: 4270 7d3f 625a 813f 3357 7f3f 410b 7d3f
000001a0: 2c21 7e3f 31f7 7d3f 97f0 7f3f 920a 813f
000001b0: acc4 7e3f 6558 7f3f baab 7c3f 349c 7e3f
000001c0: 9db9 813f 9f89 7e3f 4eba 7f3f 587c 813f
000001d0: 8493 813f 6f35 813f 33ed 7c3f 8c33 7c3f
000001e0: 117f 7d3f 3faf 803f 3234 803f 7c86 7d3f
000001f0: 0be7 7e3f 69e4 7f3f 5248 7e3f 5e14 803f

bn1.bias f4 [128]
0.010949005 0.0026164898 0.01203242 0.0026194532 0.009051605 -0.01080052 0.00024038066 -0.0031830515
-0.011071655 -0.01285731 0.005777674 0.0130732525 -0.010120053 0.0077849394 -0.006011295 0.009042604
0.008857856 -0.0100810025 0.0029990445 0.006203188 -0.007551435 -0.008141324 0.008519483 -0.011678396
-0.009927983 -0.00909815 -0.00054174836 -0.009243924 -0.008354581 0.003518211 0.010684938 0.010911828
0.00036187645 -0.008068326 0.0051434673 0.005766238 -0.003066846 -0.008752335 0.013995918 -0.009836905
0.011606926 -0.009196562 0.009148811 -0.011914752 0.014453272 -0.0066677793 -0.007575579 -0.005940963
-0.004937636 -0.0030376362 0.01413561 -0.008252978 0.008778445 -0.008109036 -0.003875854 0.00022799967
-0.0058180913 -0.012347235 -0.008789439 0.0052164113 0.005618171 0.010059649 -0.012371801 0.007968492
0.011283155 0.012471837 -0.005375337 -0.013779919 0.0096365865 0.009748887 0.008903942 0.009094997
-0.014602393 -0.0108684115 0.012462484 0.01317454 -0.009168188 0.011757513 0.0081307925 0.010703541
0.0058282027 -0.014530407 -0.0070343553 -0.008502694 -0.010605628 0.010100998 -0.011840793 0.011758645
0.011396051 -0.0026016345 -0.011802035 0.0060818484 0.014289262 0.011748428 -0.006837205 0.009976138
-6.9962814e-05 -0.007348425 -0.0027940373 0.007171488 -0.008903004 0.010152071 0.009100208 -0.010991691
0.007183243 -0.007193726 0.0015983792 0.008329554 -0.0023845755 0.0022002868 -0.012736228 -0.0013974056
0.012874149 -0.002412504 0.011056442 0.011104087 0.012359244 0.01023368 -0.013314613 -0.011534242
-0.011846988 0.0055347662 0.0023661186 -0.009417016 -0.0012987127 -0.0038758896 -0.008479541 0.005836403
00000000: 7563 333c 6a79 2b3b a123 453c 22ab 2b3b
00000010: 2f4d 143c aaf4 30bc b10e 7c39 be9a 50bb
00000020: e365 35bc 77a7 52bc a452 bd3b 3231 563c
00000030: 94ce 25bc ce18 ff3b 66fa c4bb 6e27 143c
00000040: 8a20 113c ca2a 25bc 9e8b 443b 1d44 cb3b
00000050: 0772 f7bb 3063 05bc 4d95 0b3c be56 3fbc
00000060: fba8 22bc 6810 15bc 1e04 0eba d473 17bc
00000070: a7e1 08bc c991 663b e10f 2f3c 86c7 323c
00000080: 3cba bd39 0331 04bc 888a a83b b6f2 bc3b
00000090: 23fd 48bb f465 0fbc 234f 653c f82a 21bc
000000a0: fa2a 3e3c 2dad 16bc e5e4 153c 1836 43bc
000000b0: 6bcd 6c3c 637d dabb 903c f8bb 69ac c2bb
000000c0: e5cb a1bb 1413 47bb 0c99 673c 8037 07bc
000000d0: 78d3 0f3c c3db 04bc 0a02 7ebb 3213 6f39
000000e0: b0a5 bebb 0f4c 4abc 9401 10bc 6eee aa3b
000000f0: a218 b83b 3ad1 243c 18b3 4abc 478e 023c
00000100: fbdc 383c ad56 4c3c 9823 b0bb 2bc5 61bc
00000110: c6e2 1d3c ccb9 1f3c d7e1 113c 2f03 153c
00000120: e03e 6fbc 6c11 32bc 722f 4c3c 07da 573c
00000130: 2b36 16bc 95a2 403c 0437 053c e85d 2f3c
00000140: 82fa be3b f210 6ebc 7380 e6bb e24e 0bbc
00000150: 3ac3 2dbc a87e 253c e3ff 41bc 55a7 403c
00000160: 81b6 3a3c 2f80 2abb 535d 41bc 3e4a c73b
00000170: 821d 6a3c 7b7c 403c a20a e0bb f572 233c
00000180: 00b9 92b8 0fcb f0bb 2b1c 37bb cdfe ea3b
00000190: e8dd 11bc df54 263c 0a19 153c 7e16 34bc
000001a0: 6961 eb3b 59b9 ebbb b580 d13a af78 083c
000001b0: 8a46 1cbb b032 103b 9dab 50bc 2729 b7ba
000001c0: 18ee 523c 1a1b 1ebb 1426 353c ebed 353c
000001d0: 6d7e 4a3c 2aab 273c 8925 5abc 1efa 3cbc
000001e0: df19 42bc fc5c b53b e210 1b3b d449 1abc
000001f0: 9139 aaba a302 7ebb c6ed 0abc 4c3f bf3b

bn1.running_mean f4 [128]
1541.1671 387.12286 -367.47296 -94.50779 -554.8697 165.67426 338.72195 -1013.3847
95.78137 133.21078 -1266.1195 407.89816 483.95795 -104.24067 -905.2165 304.665
-309.1126 1020.4736 669.8639 299.8226 -1426.456 848.6566 163.90056 -331.3127
-159.08984 18.49237 -210.83841 156.09995 315.28912 -342.16574 492.06915 506.29868
-2516.215 597.8202 -240.74567 -430.8662 134.29828 -243.30768 476.96512 -124.39674
379.05618 -265.39478 874.5003 -290.11703 1155.8322 -735.9156 -219.71341 242.25449
-223.16449 300.2876 -905.51434 -2010.5625 594.59326 174.0272 -458.0144 160.8652
229.1101 254.70387 10.653583 -1013.98804 848.0575 814.4429 60.90886 523.39246
209.75098 303.77298 -1668.0667 -317.8216 -1730.696 -417.67987 1856.8916 124.96592
370.17044 1221.8171 -1265.9023 -851.3508 787.41675 -506.98495 790.1236 737.3699
713.85175 481.26648 743.2372 -346.5234 645.5996 -1115.9984 -547.50397 -558.76526
167.25842 1591.0508 -336.256 -1084.6307 -2078.7783 -918.56903 -911.8202 -376.29974
571.7808 119.80066 -829.76984 986.14966 -992.6559 -1104.443 784.2251 -1167.0204
-254.22208 -109.824394 -380.45892 166.3422 134.38374 522.32666 1442.826 -244.32831
-1092.6133 1621.5513 -214.33281 -368.98138 215.88959 1181.6365 -793.2049 91.20197
884.6064 684.2812 203.50665 -1192.6262 -334.67862 -386.8252 567.714 432.16415
00000000: 59a5 c044 ba8f c143 8abc b7c3 fd03 bdc2
00000010: a9b7 0ac4 9cac 2543 695c a943 9f58 7dc4
00000020: 1090 bf42 f635 0543 d343 9ec4 f7f2 cb43
00000030: 9efa f143 397b d0c2 db4d 62c4 1f55 9843
00000040: 6a8e 9ac3 4f1e 7f44 4a77 2744 4be9 9543
00000050: 984e b2c4 062a 5444 8be6 2343 07a8 a5c3
00000060: 0017 1fc3 60f0 9341 a2d6 52c3 9619 1c43
00000070: 02a5 9d43 3715 abc3 da08 f643 3b26 fd43
00000080: 7143 1dc5 7e74 1544 e4be 70c3 e06e d7c3
00000090: 5c4c 0643 c44e 73c3 897b ee43 22cb f8c2
000000a0: 3187 bd43 88b2 84c3 05a0 5a44 fb0e 91c3
000000b0: a17a 9044 99fa 37c4 a2b6 5bc3 2641 7243
000000c0: 1c2a 5fc3 d024 9643 eb60 62c4 0052 fbc4
000000d0: f8a5 1444 f706 2e43 d801 e5c3 7edd 2043
000000e0: 301c 6543 31b4 7e43 1375 2a41 3c7f 7dc4
000000f0: ae03 5444 589c 4b44 aca2 7342 1ed9 0244
00000100: 40c0 5143 f1e2 9743 2282 d0c4 2ae9 9ec3
00000110: 4656 d8c4 06d7 d0c3 881c e844 8dee f942
00000120: d115 b943 26ba 9844 e03c 9ec4 74d6 54c4
00000130: acda 4444 137e fdc3 e987 4544 ac57 3844
00000140: 8376 3244 1ca2 f043 2ecf 3944 ff42 adc3
00000150: 6066 2144 f37f 8bc4 41e0 08c4 fab0 0bc4
00000160: 2842 2743 a0e1 c644 c520 a8c3 2f94 87c4
00000170: 74ec 01c5 6ba4 65c4 7ef4 63c4 5e26 bcc3
00000180: f9f1 0e44 f099 ef42 4571 4fc4 9489 7644
00000190: fa29 78c4 2d0e 8ac4 680e 4444 a7e0 91c4
000001a0: da38 7ec3 17a6 dbc2 be3a bec3 9a57 2643
000001b0: 3d62 0643 e894 0244 6f5a b444 0c54 74c3
000001c0: a093 88c4 a4b1 ca44 3355 56c3 9e7d b8c3
000001d0: bce3 5743 5eb4 9344 1d4d 46c4 6967 b642
000001e0: cf26 5d44 ff11 2b44 b481 4b43 0a14 95c4
000001f0: dd56 a7c3 a069 c1c3 b2ed 0d44 0315 d843

bn1.running_var f4 [128]
742241.9 109229.02 64880.207 31431.305 195986.27 36509.91 70137.45 334793.78
83955.56 26611.57 422048.12 187814.4 91659.65 207695.62 232038.86 79964.414
57831.1 341131.3 230416.44 42134.418 551325.5 230238.48 27604.064 69176.38
44278.363 105198.086 60126.523 91754.39 72782.2 124962.016 160827.98 135914.39
1.7454599e+06 97661.26 115421.375 108366.445 37231.57 89466.36 129262.99 42011.312
102912.73 99757.3 344008.6 44513.207 470079.0 184762.12 32934.13 71522.58
55508.54 57872.164 243769.73 1.094235e+06 141316.61 58963.59 103361.27 44023.125
54640.688 58727.477 66682.56 339061.44 194888.7 199349.8 17814.916 137577.77
65672.92 72458.51 803813.2 165323.95 907279.2 126180.76 966457.56 31348.809
86016.664 449500.28 431771.2 255011.89 204585.36 79434.805 211402.12 186068.58
209271.58 117601.23 276960.9 76592.36 133475.3 317449.97 145730.31 142364.14
62083.54 770929.56 84066.33 332018.94 1.2072006e+06 316088.8 314237.56 97874.01
223781.2 31355.605 308005.2 330938.34 280610.66 365630.16 221899.45 430261.47
47880.34 52884.12 85996.57 26594.398 48437.52 152053.98 517533.12 37722.23
483160.78 722170.94 81657.49 84561.016 55169.184 434285.78 212538.45 48837.27
207583.8 141667.58 142969.22 420448.6 73269.43 60868.355 142200.0 144110.98
00000000: 1e36 3549 8356 d547 3570 7d47 9c8e f546
00000010: 9164 3f48 e99d 0e47 bafc 8847 3979 a348
00000020: c8f9 a347 24e7 cf46 0414 ce48 9a69 3748
00000030: d305 b347 e8d3 4a48 b799 6248 352e 9c47
00000040: 1ae7 6147 6a91 a648 1c04 6148 6b96 2447
00000050: d899 0649 9fd7 6048 21a8 d746 311c 8747
00000060: 5df6 2c47 0b77 cd47 86de 6a47 3235 b347
00000070: 1a27 8e47 0211 f447 ff0e 1d48 99ba 0448
00000080: 9f11 d549 a1be be47 b06e e147 39a7 d347
00000090: 926f 1147 2ebd ae47 7f77 fc47 501b 2447
000000a0: 5d00 c947 a6d6 c247 13f9 a748 35e1 2d47
000000b0: e087 e548 886e 3448 21a6 0047 4ab1 8b47
000000c0: 8ad4 5847 2a10 6247 6f0e 6e48 d892 8549
000000d0: 2701 0a48 9753 6647 a3e0 c947 20f7 2b47
000000e0: b070 5547 7a67 6547 483d 8247 ae8e a548
000000f0: 2d52 3e48 73ad 4248 d52d 8b46 715a 0648
00000100: 7644 8047 4185 8d47 533e 4449 fd72 2148
00000110: f380 5d49 6172 f647 99f3 6b49 9ee9 f446
00000120: 5500 a847 897b db48 66d3 d248 f908 7948
00000130: 57ca 4748 6725 9b47 8872 4e48 25b5 3548
00000140: e55d 4c48 9db0 e547 1d3c 8748 2e98 9547
00000150: d358 0248 3f01 9b48 9450 0e48 0907 0b48
00000160: 8a83 7247 1937 3c49 2a31 a447 5e1e a248
00000170: 055d 9349 1a57 9a48 b26f 9948 0129 bf47
00000180: 4d89 5a48 36f7 f446 a664 9648 4b97 a148
00000190: 5504 8948 c587 b248 ddb2 5848 af16 d248
000001a0: 5708 3b47 1f94 4e47 49f6 a747 ccc4 cf46
000001b0: 8535 3d47 7f7d 1448 a4b3 fc48 3b5a 1347
000001c0: 19eb eb48 af4f 3049 bf7c 9f47 8228 a547
000001d0: 2f81 5747 b90d d448 9d8e 4f48 45c5 3e47
000001e0: f3b7 4a48 e558 0a48 4e9e 0b48 134c cd48
000001f0: b71a 8f47 5bc4 6d47 00de 0a48 bfbb 0c48

fc2.weight f4 [64, 128]
-0.028214231 0.08714245 -0.0660977 0.082619704 0.037255783 0.092153355 0.091223896 -0.082189314
-0.037105452 -0.09644054 0.013955791 -0.01756184 0.027210666 0.05954729 0.04482873 0.08233519
-0.07249304 -0.063404925 -0.050137267 0.04968523 0.029147903 -0.07452377 -0.08006154 0.03357513
-0.06828134 -0.078430824 0.077599026 -0.019115487 -0.07367007 0.06576063 0.05804651 0.07396442
-0.007611811 -0.033711158 0.04172614 0.07270166 -0.019913929 -0.030291818 0.017266482 -0.003058425
0.08466045 -0.04945379 -0.02351294 0.066861674 0.03774667 -0.05957295 0.056296974 0.029073542
-0.09573235 0.07979407 0.008989695 0.030810224 -0.042819563 0.07292772 0.05497562 -0.0076102465
0.044976424 0.04189834 0.0052980217 -0.023160646 0.024503678 -0.08212157 0.027636392 0.034426972
0.026789324 -0.062018525 -0.014326438 0.04317806 -0.06959932 0.06833983 0.006941034 -0.0064894757
0.08689945 0.016919702 0.0066916216 0.063822046 0.027310105 -0.07692737 -0.05294008 -0.07904419
0.011493814 -0.07686535 -0.013176472 0.0042544752 0.025411274 -0.028765088 0.042183287 -0.05690047
-0.059466742 -0.025129283 -0.025336655 -0.07885859 -0.008990479 0.043527313 0.043107715 -0.09059581
-0.009051658 -0.020762246 -0.027086878 0.07224685 0.020155251 -0.08993705 0.08482329 0.013009754
-0.061951198 0.0010988145 -0.0009156379 -0.02048368 -0.016314164 0.04345438 0.06483799 -0.04412928
-0.088927396 0.021980468 -0.03616011 0.0037559546 0.05930988 0.035341293 0.00892742 0.0548669
0.054652777 0.075722314 -0.04587066 0.025986023 0.007679642 -0.036947623 0.08182185 -0.056529444
-0.009275155 -0.0694638 -0.09122719 -0.04983649 -0.031673666 -0.03338852 0.04440138 0.023440432
-0.072679766 0.056932274 -0.023138706 0.04794817 -0.048668604 0.005647068 -0.03749119 -0.01296706
-0.07623286 -0.03655032 0.016197613 -0.020107342 0.040866014 -0.026765471 0.045480672 -0.019553397
-0.062277574 -0.022019237 -0.004140616 -0.077354826 -0.040541705 -0.06952302 -0.022950167 0.030132461
0.059491638 0.08667043 -0.083437085 -0.08792943 -0.039198335 -0.037633613 0.03735562 -0.05080139
0.033321653 -0.07733159 0.05576525 -0.08260299 -0.07257123 0.040928196 0.012279517 0.06688953
0.07957369 -0.0052178046 0.02554879 -0.004439329 -0.034862354 -0.03044912 0.059205364 -0.0628375
-0.0023857874 0.05051951 -0.048718847 -0.08143956 0.048546482 0.0007488008 0.005292429 0.07227365
0.08542272 -0.004784998 -0.091752484 -0.032639515 -0.034756627 -0.034059998 -0.02455731 0.052443996
-0.00048143114 -0.06822998 -0.05691844 0.033872176 -0.08052804 -0.016120479 0.07679052 3.9171315e-05
0.022273708 0.035535935 -0.01661887 -0.008353111 0.06130371 -0.070219114 0.030613655 0.03322547
0.06449758 -0.049271546 -0.016862925 -0.07225629 -0.053353723 -0.042655345 0.07735725 -0.07600641
0.053486716 -0.0941769 0.01316686 0.079304285 0.07011738 -0.05443457 -0.049424175 -0.019391388
0.024625214 0.059969537 0.0061484487 0.06572753 -0.03871684 -0.05259896 -0.043119498 -0.09109735
0.077451535 0.057932694 -0.030505491 0.044996526 0.0057323226 0.01771915 -0.04999036 0.081972696
0.06420179 -0.02417994 -0.054320615 0.016870951 -0.0039806003 -0.018835317 -0.07443097 0.0951788
00000000: 8821 e7bc be77 b23d 3b5e 87bd 8534 a93d
00000010: 8599 183d e6ba bc3d 98d3 ba3d df52 a8bd
00000020: e3fb 17bd 9e82 c5bd d4a6 643c d9dd 8fbc
00000030: e7e8 de3c dce7 733d 559e 373d 5a9f a83d
00000040: 3b77 94bd 71da 81bd bc5c 4dbd bd82 4b3d
00000050: 95c7 ee3c eb9f 98bd 4ef7 a3bd 1386 093d
00000060: 16d7 8bbd 57a0 a0bd 3dec 9e3d 1598 9cbc
00000070: 55e0 96bd 82ad 863d 2dc2 6d3d a87a 973d
00000080: 806c f9bb b614 0abd 07e9 2a3d 9ce4 943d
00000090: 8922 a3bc 8c26 f8bc 7072 8d3c db6f 48bb
000000a0: 7562 ad3d 0f90 4abd 369e c0bc c6ee 883d
000000b0: 419c 1a3d c402 74bd a897 663d a32b ee3c
000000c0: 530f c4bd 136b a33d 8449 133c b965 fc3c
000000d0: 9163 2fbd 215b 953d 1e2e 613d 605f f9bb
000000e0: 3339 383d 989d 2b3d 079b ad3b 65bb bdbc
000000f0: f0bb c83c 5b2f a8bd b765 e23c 4c03 0d3d
00000100: 4975 db3c 2307 7ebd 70b9 6abc 7adb 303d
00000110: 178a 8ebd c1f5 8b3d 9d71 e33b aba5 d4bb
00000120: 57f8 b13d 309b 8a3c 6445 db3b 22b5 823d
00000130: 71b9 df3c 198c 9dbd b3d7 58bd ece1 a1bd
00000140: 8d50 3c3c 956b 9dbd 21e2 57bc 2069 8b3b
00000150: 4e2b d03c c3a4 ebbc 62c8 2c3d 7810 69bd
00000160: 6693 73bd eddb cdbc d18e cfbc 9d80 a1bd
00000170: cd4c 13bc b249 323d b791 303d 4c8a b9bd
00000180: 684d 14bc 9615 aabc 4de5 ddbc 28f6 933d
00000190: a01c a53c eb30 b8bd d5b7 ad3d dd26 553c
000001a0: 8ac0 7dbd 1906 903a 6b07 70ba 64cd a7bc
000001b0: 48a5 85bc 38fd 313d c8c9 843d e7c0 34bd
000001c0: 911f b6bd 6210 b43c a01c 14bd 7626 763b
000001d0: ebee 723d 08c2 103d 5044 123c 1dbc 603d
000001e0: 97db 5f3d 4d14 9b3d e0e2 3bbd a4e0 d43c
000001f0: 82a5 fb3b 6456 17bd 3792 a73d 6b8b 67bd
00000200: d2f6 17bc 0943 8ebd 52d5 babd 5921 4cbd
00000210: 3fbc 01bd 67c2 08bd 39de 353d 2606 c03c
00000220: 21d9 94bd d131 693d 628d bdbc 4d65 443d
00000230: bb58 47bd 0a0b b93b 5d90 19bd cb73 54bc
00000240: f91f 9cbd cab5 15bd dbb0 843c 27b8 a4bc
00000250: 1f63 273d 4343 dbbc f149 3a3d 722e a0bc
00000260: c516 7fbd b061 b4bc 01ae 87bb 356c 9ebd
00000270: 0f0f 26bd 1662 8ebd fd01 bcbc 5ad8 f63c
00000280: 81ad 733d 4480 b13d 10e1 aabd 5814 b4bd
00000290: 6f8e 20bd b425 1abd 3502 193d 1e15 50bd
000002a0: 497c 083d 0660 9ebd 1a6a 643d c22b a9bd
000002b0: 3aa0 94bd 53a4 273d 0730 493c 61fd 883d
000002c0: 88f7 a23d 1efa aabb b24b d13c ca77 91bb
000002d0: d4cb 0ebd 6f70 f9bc 5381 723d f2b0 80bd
000002e0: df5a 1cbb 8ced 4e3d 6a8d 47bd c9c9 a6bd
000002f0: add8 463d 2c4b 443a 1d6c ad3b 3504 943d
00000300: 1bf2 ae3d 79cb 9cbb bae8 bbbd 03b1 05bd
00000310: f75c 0ebd 7f82 0bbd 692c c9bc 84cf 563d
00000320: 9868 fcb9 29bc 8bbd 4f23 69bd 8dbd 0a3d
00000330: e3eb a4bd 180f 84bc 5944 9d3d e14b 2438
00000340: 5a77 b63c 218e 113d 4c24 88bc 7ddb 08bc
00000350: 9919 7b3d 0acf 8fbd 7dc9 fa3c 6e17 083d
00000360: 4f17 843d f6d0 49bd 1e24 8abc 1bfb 93bd
00000370: 6f89 5abd 5fb7 2ebd 7a6d 9e3d 40a9 9bbd
00000380: e314 5b3d d2df c0bd d0b9 573c 496a a23d
00000390: b399 8f3d c9f6 5ebd 0171 4abd b0da 9ebc
000003a0: d1ba c93c 9ea2 753d ed78 c93b 289c 863d
000003b0: 8d95 1ebd 0272 57bd 129e 30bd 3f91 babd
000003c0: e99e 9e3d d54a 6d3d a7e6 f9bc 474e 383d
000003d0: 35d6 bb3b c027 913c b1c2 4cbd 4de1 a73d
000003e0: 3a7c 833d 0215 c6bc 4b7f 5ebd f334 8a3c
000003f0: b26f 82bb 864c 9abc 446f 98bd 1aed c23d

fc2.bias f4 [64]
0.081411816 -0.057923317 0.08510064 -0.05351791 -0.011668246 0.07672345 0.051229104 -0.03356036
-0.030443035 0.0068257838 -0.03666979 0.05192393 -0.026854308 -0.0014260144 -0.025288844 -0.008413313
0.030358033 0.04094564 0.0131543 0.07896961 0.049923956 -0.06848862 0.05111492 -0.002585555
0.04216091 -0.03355179 -0.0039401934 0.06047711 0.035554018 -0.0664677 -0.05879345 -0.015524245
-0.040163465 0.03908926 0.025986556 0.0843083 -0.059171878 -0.027298434 0.031365078 -0.04136751
-0.042214505 0.008522478 0.05077546 -0.07814575 -0.074890435 0.03477078 -0.01649736 0.08099074
0.052387737 0.03786238 -0.025171794 -0.07037308 -0.02408472 0.014695628 -0.03155948 -0.07253112
-0.059225466 0.03713816 0.08479914 0.017155113 0.029003652 0.061740354 0.07528681 -0.05123182
00000000: 3dbb a63d 0041 6dbd 3f49 ae3d 9935 5bbd
00000010: 2c2c 3fbc 2f21 9d3d 9cd5 513d 9776 09bd
00000020: ac63 f9bc d3aa df3b 1033 16bd 30ae 543d
00000030: 91fd dbbc 1ae9 baba 8d2a cfbc fed7 09bc
00000040: 69b1 f83c 9eb6 273d 2285 573c d2ba a13d
00000050: 107d 4c3d c343 8cbd e15d 513d 6a72 29bb
00000060: ebb0 2c3d 9a6d 09bd bd1c 81bb d9b6 773d
00000070: 17a1 113d 3820 88bd 67d1 70bd 6759 7ebc
00000080: 7282 24bd 0f1c 203d c2e1 d43c d4a9 ac3d
00000090: 365e 72bd f7a0 dfbc ab78 003d fa70 29bd
000000a0: 1ee9 2cbd dda1 0b3c eef9 4f3d e10a a0bd
000000b0: 2860 99bd ce6b 0e3d 7925 87bc 79de a53d
000000c0: 8694 563d 9515 1b3d 1435 cebc c31f 90bd
000000d0: 524d c5bc eec5 703c 8344 01bd 328b 94bd
000000e0: 6796 72bd 2f1e 183d 2cab ad3d e188 8c3c
000000f0: 1199 ed3c 74e3 7c3d f92f 9a3d 75d8 51bd

bn2.weight f4 [64]
1.0174092 1.0173781 1.0183768 1.0115663 0.98823506 0.9930574 0.991705 1.0032232
1.0174482 1.0175327 1.0170971 1.0167782 1.0172743 1.0159965 1.0176576 0.99601823
1.0176276 1.0171249 1.0169667 1.0025681 1.0129015 1.0173838 0.99888045 0.996808
1.0169965 1.007835 1.016896 1.0177355 1.01544 1.0173496 0.9844309 1.0179389
1.0066336 0.9873499 1.0180115 1.0187663 0.9879787 1.0154263 1.0151844 0.99027514
1.0167701 1.0174661 0.9872059 1.0159681 1.0187409 1.0168018 1.0003326 1.0176784
1.0176404 0.9950898 1.0185122 1.011778 1.0166074 1.0173271 1.0165354 0.9942951
0.99964565 1.0012325 1.0170708 1.0171674 1.0178596 1.018523 1.0096606 0.9873201
00000000: 773a 823f 7239 823f 2c5a 823f 017b 813f
00000010: f9fc 7c3f 0339 7e3f 61e0 7d3f 9e69 803f
00000020: be3b 823f 833e 823f 3d30 823f ca25 823f
00000030: 0b36 823f 2c0c 823f 9b42 823f 0dfb 7e3f
00000040: 9f41 823f 2631 823f f72b 823f 2754 803f
00000050: c2a6 813f a239 823f a1b6 7f3f cf2e 7f3f
00000060: f12c 823f bd00 813f a629 823f 2845 823f
00000070: f0f9 813f 8338 823f aa03 7c3f d24b 823f
00000080: 5fd9 803f f7c2 7c3f 334e 823f ef66 823f
00000090: 2cec 7c3f 7df9 813f 90f1 813f ac82 7d3f
000000a0: 8625 823f 543c 823f 87b9 7c3f 3e0b 823f
000000b0: 1a66 823f 9026 823f e60a 803f 4943 823f
000000c0: 0a42 823f 35be 7e3f 9c5e 823f f181 813f
000000d0: 3120 823f c637 823f d51d 823f 208a 7e3f
000000e0: c7e8 7f3f 6328 803f 602f 823f 8b32 823f
000000f0: 3949 823f f65e 823f 8f3c 813f 03c1 7c3f

bn2.bias f4 [64]
0.007040938 0.017861204 0.0123299 0.012890654 -0.012003682 -0.005477143 -0.009129718 0.005992581
0.017685642 0.015731929 0.017097922 0.016368631 0.008936142 0.013206175 0.018403996 0.0005704555
0.017739724 0.015471304 0.013234284 -0.0019395542 0.012697981 0.01710418 -0.0023455042 -0.0052877124
0.016402045 0.011040415 0.016438767 0.013835137 0.0144826 0.017486285 -0.015949415 0.017982358
0.0022927846 -0.011950409 0.017550888 0.018679827 -0.011418787 0.013814116 0.014394015 -0.010248037
0.013284653 0.017172407 -0.012546678 0.014858394 0.015438996 0.017005716 1.8188497e-05 0.018081691
0.014037244 -0.004373394 0.018091023 0.008555786 0.01612996 0.017389728 0.016561406 -0.0081493715
0.008340532 -0.0021427819 0.01706478 0.016589329 0.017864294 0.018517625 0.011350298 -0.012955537
00000000: abb7 e63b a951 923c 5903 4a3c 5233 533c
00000010: 17ab 44bc 9b79 b3bb d094 15bc 6a5d c43b
00000020: 7be1 903c 3fe0 803c f110 8c3c 8217 863c
00000030: e568 123c b65e 583c fac3 963c 9f8a 153a
00000040: e652 913c 5a7b 7d3c 9cd4 583c a438 feba
00000050: 310b 503c 111e 8c3c 08b7 19bb 8c44 adbb
00000060: 955d 863c dbe2 343c 98aa 863c c5ac 623c
00000070: 6d48 6d3c 663f 8f3c 59a8 82bc bd4f 933c
00000080: 8b42 163b a6cb 43bc e1c6 8f3c 7006 993c
00000090: dd15 3bbc 9a54 623c e0d4 6b3c 62e7 27bc
000000a0: e0a7 593c 26ad 8c3c 9590 4dbc 9f70 733c
000000b0: d8f3 7c3c 924f 8b3c 8093 9837 0e20 943c
000000c0: 78fc 653c b04e 8fbb a033 943c 912d 0c3c
000000d0: fa22 843c e774 8e3c c9ab 873c f184 05bc
000000e0: baa6 083c ea6d 0cbb 70cb 8b3c 58e6 873c
000000f0: 2458 923c 46b2 973c 9af6 393c 7643 54bc

bn2.running_mean f4 [64]
0.1807266 -0.33887202 0.11771059 -0.11759072 -0.41155648 0.35058904 0.22514942 0.18814613
0.021099022 0.36148936 -0.0061110975 -0.2641205 -0.2985884 -0.100090325 0.29862365 0.17233518
0.1330767 0.059401084 -0.09596207 -0.18532263 0.06344441 -0.26545072 -0.18767136 -0.13741776
-0.16162166 0.091918305 -0.14186478 0.15407671 0.25699878 -0.27375638 0.13790719 -0.51392174
-0.037486006 0.19654468 0.0035941359 -0.15044086 0.20609464 0.10240791 0.06252235 -0.21332985
-0.17132513 0.064645156 -0.21862406 0.04373587 0.004275156 -0.14666362 0.17012773 0.13650717
0.25771248 -0.2841267 -0.21974283 -0.18052487 -0.05911605 -0.2347529 0.044423718 0.1861248
-0.18806197 -0.071725905 0.1074049 -0.12766066 -0.026902355 0.024258168 0.11479366 -0.09103945
00000000: 6510 393e a280 adbe 4012 f13d 67d3 f0bd
00000010: 88b7 d2be 6880 b33e 928d 663e 61a9 403e
00000020: dbd7 ac3c 2215 b93e 9a3f c8bb cd3a 87be
00000030: 94e0 98be 28fc ccbd 33e5 983e a278 303e
00000040: 4245 083e 8d4e 733d c387 c4bd 37c5 3dbe
00000050: 25ef 813d 28e9 87be ec2c 40be 3eb7 0cbe
00000060: 2680 25be aa3f bc3d 0045 11be 49c6 1d3e
00000070: 5895 833e cc29 8cbe 8b37 0d3e 6090 03bf
00000080: ed8a 19bd 0243 493e 988b 6b3b 2b0d 1abe
00000090: 790a 533e 3dbb d13d b80b 803d 2473 5abe
000000a0: db6f 2fbe ae64 843d fcde 5fbe 6224 333d
000000b0: 9c16 8c3b fd2e 16be f735 2e3e 89c8 0b3e
000000c0: e4f2 833e 0e79 91be 4404 61be 83db 38be
000000d0: ac23 72bd 1063 70be a5f5 353d 8097 3e3e
000000e0: 5193 40be 08e5 92bd 1af7 db3d 7ab9 02be
000000f0: 5462 dcbc 11b9 c63c f018 eb3d e472 babd

bn2.running_var f4 [64]
0.33895427 0.3184686 0.2678919 0.29952356 0.32077733 0.20479992 0.42211884 0.28463614
0.3526315 0.6108277 0.26793525 0.27036956 0.3839927 0.5735054 0.36540508 0.30280748
0.3386732 0.49026456 0.4539603 0.32686773 0.19649884 0.3577714 0.21424074 0.3803146
0.18057363 0.4879605 0.3244717 0.40443894 0.64753133 0.21204709 0.29560903 0.33594826
0.2744816 0.22399412 0.23351415 0.3970897 0.24708728 0.5396504 0.6717462 0.2881971
0.4584679 0.25857288 0.30562022 0.4269838 0.20581815 0.37741527 0.28416005 0.2497307
0.35996202 0.33601174 0.2662702 0.26961938 0.26835993 0.20885119 0.22987768 0.33512047
0.36860046 0.42400482 0.20993853 0.20742138 0.18153219 0.39893857 0.32865292 0.25893232
00000000: 6a8b ad3e 510e a33e 2129 893e 275b 993e
00000010: ed3c a43e 12b7 513e f61f d83e d4bb 913e
00000020: 1e8c b43e 345f 1c3f cf2e 893e e16d 8a3e
00000030: b19a c43e 40d1 123f 6016 bb3e 9509 9b3e
00000040: 9366 ad3e f503 fb3e 7c6d e83e 355b a73e
00000050: fe36 493e d02d b73e ed61 5b3e 98b8 c23e
00000060: 4be8 383e f5d5 f93e 2821 a63e 9f12 cf3e
00000070: 9dc4 253f df22 593e 115a 973e 6901 ac3e
00000080: da88 8c3e b75e 653e 551e 6f3e 574f cb3e
00000090: 7304 7d3e 8726 0a3f 8ff7 2b3f 928e 933e
000000a0: 4ebc ea3e aa63 843e 417a 9c3e 9f9d da3e
000000b0: fec1 523e 933c c13e 6d7d 913e 68b9 7f3e
000000c0: f14c b83e bb09 ac3e 9154 883e 8d0b 8a3e
000000d0: 7966 893e 16dd 553e 0e65 6b3e e994 ab3e
000000e0: 33b9 bc3e 2917 d93e 20fa 563e 4566 543e
000000f0: 93e3 393e ad41 cc3e 3245 a83e c792 843e

fc3.weight f4 [2, 64]
0.12213335 0.13879716 0.04880477 0.048773147 -0.046427503 0.12349738 -0.101814434 0.028110284
0.023403121 0.051139515 0.13587384 0.08927959 -0.120519474 -0.023722658 0.13413541 0.05530855
0.106363446 0.048127636 -0.10449341 -0.047692746 0.08861701 0.11663224 -0.031158106 0.042994075
0.12138433 -0.12790106 0.08930401 0.021451514 -0.11573735 0.054553416 -0.09900581 0.12396017
0.023039242 -0.012176549 0.0058342735 -0.072423175 0.000172887 -0.043169953 -0.04067106 0.09746988
-0.12834316 0.10909625 -0.081002444 0.0052003255 0.09429581 0.1296251 0.07200895 0.0676913
0.108802065 -0.013485418 0.12778464 0.00063555886 0.1104071 0.018266378 0.09659433 -0.09929928
-0.0070626033 -0.06605225 -0.0060087726 -0.004384855 0.008908927 0.022670366 0.09591574 0.05954965
-0.12420776 -0.13368636 -0.03521198 0.005312042 -0.057204053 0.11143549 0.08309224 -0.100495115
-0.14026429 0.09502538 -0.11217103 -0.01236196 -0.042491656 0.035018194 0.03888891 -0.10864221
0.010109069 0.1015511 -0.0201369 0.02035701 0.057882052 -0.1217778 -0.05514745 0.10573304
0.029281152 -0.045534316 -0.09217126 0.116577245 -0.02153621 -0.059488412 0.04434259 0.047850177
0.1186851 0.009212558 -0.050414644 -0.11497496 0.0010174934 0.12788077 0.047936685 0.11342536
-0.038048062 -0.08518209 -0.0403091 0.06624456 0.03379888 -0.024349838 -0.054528248 -0.0047593955
-0.087163806 -0.034469765 0.078637294 -0.068228155 -0.018083762 -0.08709549 -0.11640635 0.00018963442
0.021313315 0.0008520369 -0.13255176 -0.09196732 -0.04888766 -0.02519942 -0.006272684 0.10887429
00000000: 0d21 fa3d d820 0e3e 83e7 473d 5ac6 473d
00000010: c42a 3ebd 32ec fc3d 1684 d0bd 8a47 e63c
00000020: e7b7 bf3c ab77 513d 8322 0b3e 38d8 b63d
00000030: ead2 f6bd 0556 c2bc cb5a 093e 388b 623d
00000040: 14d5 d93d 7c21 453d a400 d6bd 7859 43bd
00000050: d67c b53d e2dc ee3d 493f ffbc 8e1a 303d
00000060: 5998 f83d 7ff8 02be 05e5 b63d 16bb af3c
00000070: b407 edbd 6773 5f3d 8fc3 cabd d4de fd3d
00000080: cbbc bc3c 2680 47bc 6f2d bf3b 9a52 94bd
00000090: 0049 3539 fad2 30bd b396 26bd 4a9e c73d
000000a0: 646c 03be db6d df3d 9ce4 a5bd 7e67 aa3b
000000b0: 291e c13d 71bc 043e 6e79 933d bca1 8a3d
000000c0: 9ed3 de3d f1f1 5cbc fad9 023e a29b 263a
000000d0: 1e1d e23d 5fa3 953c 40d3 c53d 6c5d cbbd
000000e0: 696d e7bb 6746 87bd 3de5 c4bb d4ae 8fbb
000000f0: c0f6 113c 34b7 b93c 796f c43d 55ea 733d
00000100: a360 febd 14e5 08be 703a 10bd a310 ae3b
00000110: cc4e 6abd 4a38 e43d 442c aa3d 62d0 cdbd
00000120: 71a1 0fbe ab9c c23d edb9 e5bd d189 4abc
00000130: bb0b 2ebd 3d6f 0f3d fa49 1f3d cf7f debd
00000140: 82a0 253c 06fa cf3d 24f6 a4bc bfc3 a63c
00000150: bb15 6d3d a466 f9bd 4be2 61bd 908a d83d
00000160: 07df ef3c 3182 3abd 49c4 bcbd 0dc0 ee3d
00000170: b56c b0bc 1faa 73bd 93a0 353d 8cfe 433d
00000180: 2c11 f33d 45f0 163c 967f 4ebd fe77 ebbd
00000190: 6a5d 853a 2df3 023e 4259 443d 8e4b e83d
000001a0: 49d8 1bbd f373 aebd 281b 25bd 3aab 873d
000001b0: b270 0a3d 5079 c7bc 0359 5fbd b4f4 9bbb
000001c0: f082 b2bd 2b30 0dbd 970c a13d 34bb 8bbd
000001d0: 6624 94bc 1f5f b2bd 7466 eebd 9ad8 4639
000001e0: 4399 ae3c 3a5b 5f3a a6bb 07be 5d59 bcbd
000001f0: 6d3e 48bd 046f cebc 168b cdbb 7cf9 de3d

fc3.bias f4 [2]
0.0101205 -0.10111592
00000000: 74d0 253c dd15 cfbd
