src/falldetector/falldetector/checkpoints/fall_detection_model.pt (torch, 60415 bytes, 13 tensors)

fc1.weight f4 [128, 34]
0.023312733 0.08872068 -0.1189355 0.056272935 0.09497942 -0.07621884 0.08643794 0.03218665
-0.1707973 -0.1245432 -0.009241949 -0.1060336 0.017597843 -0.02886544 -0.01286432 -0.15874554
-0.054186314 0.02678027 -0.0260701 0.08171594 0.024397677 0.15539081 0.06481382 0.055541225
-0.12726262 0.16441867 0.076200806 0.119501844 -0.08026784 0.091981374 -0.021624183 -0.16790149
-0.066356085 0.07325911 -0.13826813 -0.15422435 -0.032752134 0.08070613 0.024061613 -0.13098244
0.12662157 -0.081349984 -0.10068732 0.08432174 -0.13359652 -0.063439086 -0.031243576 -0.08770354
0.032508973 -0.1430979 0.0028139942 -0.15362301 0.15412804 -0.11307865 0.03550692 -0.13637236
0.0126843555 -0.13104354 0.13025306 0.014307867 0.008465045 -0.117893755 -0.07640645 -0.12460538
-0.09366013 -0.1293333 0.08162814 0.1273188 -0.06571278 -0.10857261 -0.15759088 0.06551031
7.4858806e-05 -0.10111329 0.012919192 -0.057903323 -0.0066862865 -0.020819265 -0.1523748 0.1387311
-0.13303535 0.04628738 0.15365364 -0.15807964 0.010902272 -0.12719907 -0.09363371 -0.14172673
0.09252199 0.047538266 0.11206583 -0.12441515 -0.16469629 0.044653375 -0.016506117 0.04257832
-0.08275159 0.008929669 0.108517066 0.076098986 -0.084571496 -0.12344213 -0.0758253 0.15527023
-0.09773612 -0.14230865 -0.018952252 0.09057445 -0.054854073 0.13348694 0.11424903 -0.07997312
0.14484407 -0.049236085 -0.10036439 -0.035682995 -0.066047594 -0.098347835 -0.1408493 0.026875237
0.10802214 -0.08687792 0.12118009 0.13038687 0.16827911 -0.14014612 0.035714645 -0.08462985
0.04089065 -0.13714536 0.105649926 -0.061094955 -0.14704521 -0.14509957 0.06375396 0.12992296
0.020951508 -0.1266802 -0.10665673 -0.024851091 0.0009640163 -0.03948484 0.04802225 0.069178425
-0.117236726 -0.14886692 0.16558367 -0.09031884 0.042399734 0.023968488 0.07641222 0.05659446
0.048947047 -0.112020366 0.16628586 0.09309373 0.055785064 0.050676566 -0.101023 -0.032663777
0.16876005 0.007308998 0.056052893 -0.13829768 -0.11531374 -0.1472862 -0.10130326 -0.073277704
-0.06368133 -0.14088343 -0.16757435 0.057986625 0.054361127 -0.07682172 0.10093762 0.09877658
0.0720461 0.033093106 -0.17862204 0.14007379 0.15100183 -0.030717924 0.06697417 -0.023029767
-0.17648387 0.0042161653 0.039023686 -0.100690246 0.023134336 -0.0737268 -0.042305842 -0.0017415023
-0.08937132 0.08465384 -0.049950026 -2.3789471e-07 -0.17690964 -0.0002582947 -0.16063441 -0.008300589
0.018716354 0.029666483 0.0077615613 0.15791263 0.09079979 -0.012830017 0.032165352 0.06115921
0.090200454 -0.10866686 -0.021179343 -0.094346404 -0.08998971 0.15884249 0.13546027 -0.14425446
-0.061046146 -0.14267454 0.16558358 -0.051955204 0.109552324 0.088600405 0.15142873 0.12296384
-0.06871648 -0.12063389 -0.07166285 -0.043520007 -0.13512452 0.009427686 -0.1455145 0.024646534
-0.00079225394 0.043951865 0.1522102 0.06695347 0.056486424 0.11027355 -0.02648378 -0.1330821
0.029924834 0.12477088 -0.12922095 -0.064488895 -0.12105796 0.09632447 -0.055859875 -0.16992205
0.0390751 -0.14056039 -0.055832714 0.060508303 0.16024394 -0.021710917 0.06571687 -0.1040325
00000000: 58fa be3c 30b3 b53d 7594 f3bd 737e 663d
00000010: 9284 c23d a018 9cbd 6006 b13d 26d6 033d
00000020: 7de5 2ebe 8110 ffbd 8b6b 17bc 2528 d9bd
00000030: 5a29 903c 3777 ecbc dec4 52bc 318e 22be
00000040: 78f2 5dbd 4c62 db3c f690 d5bc b05a a73d
00000050: a3dd c73c c51e 1f3e 1cbd 843d 327f 633d
00000060: 2251 02be 5e5d 283e 2b0f 9c3d 62bd f43d
00000070: 7763 a4bd bb60 bc3d 3325 b1bc 5eee 2bbe
00000080: b3e5 87bd df08 963d 2996 0dbe fdec 1dbe
00000090: 1a27 06bd 4149 a53d dc1c c53c 4320 06be
000000a0: 16a9 013e d29a a6bd 2735 cebd e0b0 ac3d
000000b0: 87cd 08be 5aec 81bd 87f2 ffbc ea9d b3bd
000000c0: 2128 053d 4288 12be fd6a 383b 5a4f 1dbe
000000d0: bed3 1d3e c795 e7bd b46f 113d 32a5 0bbe
000000e0: 0bd2 4f3c 4730 06be 0f61 053e 8b6b 6a3c
000000f0: f9b0 0a3c 4872 f1bd fc7a 9cbd 1b31 ffbd
00000100: e2d0 bfbd f36f 04be a72c a73d dc5f 023e
00000110: 6c94 86bd 515b debd 815f 21be 452a 863d
00000120: 84fd 9c38 7c14 cfbd 05ab 533c 092c 6dbd
00000130: a318 dbbb 2a8d aabc 2408 1cbe 870f 0e3e
00000140: 6b3a 08be d697 3d3d 6157 1d3e a1df 21be
00000150: 719f 323c 7940 02be 08c3 bfbd d020 11be
00000160: 2b7c bd3d 7cb7 423d c582 e53d 5fcd febd
00000170: 25a6 28be 75e6 363d d637 87bc 9b66 2e3d
00000180: aa79 a9bd bf4d 123c 323e de3d c9d9 9b3d
00000190: d233 adbd 3acf fcbd 4b4a 9bbd 29ff 1e3e
000001a0: e029 c8bd 5cb9 11be c141 9bbc 197f b93d
000001b0: aaae 60bd cdb0 083e 65fb e93d f2c8 a3bd
000001c0: 0152 143e c7ab 49bd d88b cdbd 5528 12bd
000001d0: f643 87bd 976a c9bd cd3a 10be 7529 dc3c
000001e0: b63a dd3d 0ded b1bd 442d f83d 2384 053e
000001f0: 5c51 2c3e 7782 0fbe 8549 123d 6a52 adbd
00000200: f47c 273d d56f 0cbe fd5e d83d b43e 7abd
00000210: 0593 16be fb94 14be 7091 823d 860a 053e
00000220: 7fa2 ab3c 74b8 01be d86e dabd 8494 cbbc
00000230: 0ab6 7c3a dbba 21bd fbb2 443d 6bad 8d3d
00000240: cf19 f0bd 9270 18be c48e 293e 16f9 b8bd
00000250: 58ab 2d3d 9059 c43c 037e 9c3d 98cf 673d
00000260: b37c 483d ef6a e5bd d746 2a3e eda7 be3d
00000270: e17e 643d 3b92 4f3d 26e5 cebd 74ca 05bd
00000280: 6fcf 2c3e 5280 ef3b b897 653d e89d 0dbe
00000290: 9c29 ecbd 32d2 16be 1578 cfbd 9f12 96bd
000002a0: 5b6b 82bd bf43 10be 9c98 2bbe 6283 6d3d
000002b0: c6a9 5e3d b554 9dbd 62b8 ce3d 604b ca3d
000002c0: e88c 933d a38c 073d b2e8 36be 816f 0f3e
000002d0: 39a0 1a3e 28a4 fbbc c129 893d eca8 bcbc
000002e0: 30b8 34be c227 8a3b 4dd7 1f3d b036 cebd
000002f0: 3884 bd3c 14fe 96bd e448 2dbd 1f43 e4ba
00000300: 5008 b7bd fe5e ad3d 6698 4cbd 0070 7fb4
00000310: cd27 35be ba6b 87b9 597d 24be 32ff 07bc
00000320: 0a53 993c 2007 f33c b254 fe3b d9b3 213e
00000330: 3ef5 b93d fe34 52bc d1bf 033d 1482 7a3d
00000340: 04bb b83d bb8c debd 4d80 adbc b038 c1bd
00000350: 864c b8bd 9ba7 223e 19b6 0a3e 71b7 13be
00000360: 860b 7abd 4619 12be be8e 293e fbce 54bd
00000370: f85c e03d 2174 b53d 2210 1b3e 77d4 fb3d
00000380: 3abb 8cbd e70e f7bd f9c3 92bd 0942 32bd
00000390: 155e 0abe 9576 1a3c c101 15be 87e7 c93c
000003a0: 43af 4fba df06 343d fedc 1b3e e71e 893d
000003b0: 4f5e 673d 19d7 e13d 83f4 d8bc ad46 08be
000003c0: ed24 f53c e087 ff3d 7f52 04be c112 84bd
000003d0: 3ced f7bd c445 c53d 53cd 64bd 0c00 2ebe
000003e0: 360d 203d 10ef 0fbe d8b0 64bd 8ed7 773d
000003f0: fd16 243e 18db b1bc 9196 863d fe0e d5bd

fc1.bias f4 [128]
-0.006243357 -0.16294661 -0.08668152 0.10579342 0.03001264 0.085409194 -0.11541498 0.13460718
0.17063984 -0.047713887 0.13833407 -0.04226741 0.11413358 -0.06997657 0.09304628 -0.14651895
-0.12153514 0.036912277 -0.026131814 0.032132678 0.0076422435 -0.0802491 -0.034300808 0.04482084
-0.045577448 -0.065096565 -0.14878346 -0.07747903 0.09290818 0.0017124211 -0.0015854908 -0.050731424
-0.061769433 0.16520804 0.10015134 0.1532725 -0.14415401 0.13672484 -0.15331718 0.043649904
0.16439927 -0.0691506 0.015512274 0.09989654 0.023328567 0.13970451 0.058255516 -0.15263471
0.123343125 -0.06282425 0.067287765 0.14411423 0.16796127 0.11625974 0.14324827 -0.13867529
0.16444877 -0.06271938 0.14580852 -0.041931 -0.093618095 -0.0515251 -0.030141952 0.05660478
0.0673991 0.07901721 0.059321433 -0.059794232 -0.16563159 -0.07695457 0.095657416 -0.028933011
-0.05256452 -0.06365996 -0.10994706 -0.0047853934 -0.008002043 0.08647135 0.044735145 -0.16502969
0.08096737 -0.09857059 0.17027254 -0.09657018 0.05886164 0.049289 0.16126235 0.1674862
0.012653529 0.047205698 -0.13438112 -0.16984221 -0.15755638 0.09334159 -0.15593214 -0.16285908
0.1202667 0.0644954 0.082674794 0.13562076 -0.03743883 -0.10465787 0.061756242 -0.15939458
-0.02667691 -0.07094133 -0.14575045 0.06112522 0.00786727 0.029617475 0.060590502 -0.078888215
-0.052076805 -0.121584035 -0.08288835 0.15929817 -0.120584965 -0.09841576 -0.04121863 0.01826759
-0.16630697 -0.16446999 -0.120096534 0.037985906 0.05243972 0.11445315 0.05508808 0.03355641
00000000: 1395 ccbb 7adb 26be 1586 b1bd 38aa d83d
00000010: 11dd f53c 04eb ae3d b05e ecbd 77d6 093e
00000020: 36bc 2e3e a36f 43bd 72a7 0d3e 9720 2dbd
00000030: debe e93d e04f 8fbd 0c8f be3d 1009 16be
00000040: 6ae7 f8bd 5431 173d 6312 d6bc 8e9d 033d
00000050: c96b fa3b a459 a4bd 017f 0cbd 0f96 373d
00000060: 6baf 3abd 5951 85bd b15a 18be 53ad 9ebd
00000070: a546 be3d 5173 e03a 3ed0 cfba c1cb 4fbd
00000080: f201 7dbd 4c2c 293e 251c cd3d 77f3 1c3e
00000090: 1c9d 13be 9901 0c3e 2eff 1cbe 3eca 323d
000000a0: 4858 283e d49e 8dbd 3127 7e3c 8f96 cc3d
000000b0: 8d1b bf3c b30e 0f3e 569d 6e3d 464c 1cbe
000000c0: 529b fc3d 00aa 80bd 2bce 893d ae92 133e
000000d0: 0afe 2b3e 9619 ee3d adaf 123e e500 0ebe
000000e0: 4265 283e 0573 80bd d44e 153e d7bf 2bbd
000000f0: d8ba bfbd fc0b 53bd 41ec f6bc 6ada 673d
00000100: 8a08 8a3d c6d3 a13d 08fb 723d ccea 74bd
00000110: 549b 29be 5c9a 9dbd 09e8 c33d ec04 edbc
00000120: e54d 57bd 2760 82bd ed2b e1bd cace 9cbb
00000130: 001b 03bc e417 b13d 333c 373d 8bfd 28be
00000140: 38d2 a53d 61df c9bd ed5b 2e3e 96c6 c5bd
00000150: e718 713d 43e3 493d f521 253e 8181 2b3e
00000160: bf50 4f3c c35a 413d 349b 09be 1eeb 2dbe
00000170: 7656 21be e029 bf3d adac 1fbe 88c4 26be
00000180: 634e f63d 2a16 843d 6751 a93d 2be0 0a3e
00000190: 7559 19bd de56 d6bd 1df4 7c3d 5538 23be
000001a0: 8989 dabc b049 91bd 9b3f 15be 705e 7a3d
000001b0: b9e5 003c 59a0 f23c bf2d 783d 2590 a1bd
000001c0: 7d4e 55bd 0d01 f9bd 5ec1 a9bd 0f1f 233e
000001d0: 40f5 f6bd 348e c9bd ded4 28bd eaa5 953c
000001e0: 604c 2abe d26a 28be 2cf5 f5bd 1c97 1b3d
000001f0: 08cb 563d 6a66 ea3d 0aa4 613d 7272 093d

bn1.weight f4 [128]
0.99088615 1.0145613 1.0087132 0.9895117 0.9983937 1.0095091 0.99650395 0.9892372
0.9870311 1.0056652 0.9919835 0.99800867 0.99419737 0.9897411 0.99762166 0.9972868
1.007942 0.9939739 1.009859 1.0017993 0.9989218 1.0014302 0.99002844 1.0144929
1.0125382 1.010563 0.98806536 0.98810565 1.0123917 0.9909426 0.99075055 1.0090034
0.9978006 0.9920864 0.9865535 0.9937805 0.9947187 1.009068 1.010233 1.010533
1.0121101 0.98768634 0.9890392 1.0044408 0.9985671 1.007358 1.0098062 0.9906743
0.9913185 0.9892347 1.0089216 0.99066347 1.0013803 0.9892897 0.988832 1.011418
1.0044084 0.9978051 1.0062903 1.0077041 1.0100648 0.9955366 0.9947312 1.0041801
1.0034881 0.9897736 1.0055212 0.9923423 1.0022415 1.0104592 0.9907933 0.99008155
0.9867466 1.0099769 0.99058276 0.98907053 1.0050298 1.0075316 0.9905542 1.0071197
0.994763 0.99471426 0.99010533 0.9922191 0.9940664 1.014202 0.98851776 0.9928136
1.0007051 1.0116906 1.0098327 1.0080432 1.0036705 1.0088636 1.0046461 0.9907099
1.0000187 0.9971628 0.99338704 0.9912541 0.99233574 1.0000643 0.9995137 1.013222
0.99692583 0.9990875 1.0128161 1.0100499 1.0109439 0.9872091 1.0118281 1.002088
1.0056792 1.001012 1.009571 0.9890291 1.0114734 1.0112749 0.98726505 1.0038985
1.0068694 0.9870213 0.988718 1.012713 1.0085926 1.0097542 1.0083641 0.9861926
00000000: b7aa 7d3f 25dd 813f 841d 813f a450 7d3f
00000010: bb96 7f3f 9837 813f e21a 7f3f a63e 7d3f
00000020: 12ae 7c3f a3b9 803f a1f2 7d3f 7f7d 7f3f
00000030: b883 7e3f ac5f 7d3f 2264 7f3f 304e 7f3f
00000040: 3e04 813f 1375 7e3f 0f43 813f f63a 803f
00000050: 57b9 7f3f dd2e 803f 8172 7d3f e7da 813f
00000060: da9a 813f 215a 813f daf1 7c3f 7ef4 7c3f
00000070: 0d96 813f 6aae 7d3f d4a1 7d3f 0627 813f
00000080: dc6f 7f3f 60f9 7d3f c58e 7c3f 6668 7e3f
00000090: e2a5 7e3f 2429 813f 514f 813f 2559 813f
000000a0: d38c 813f 03d9 7c3f ac31 7d3f 8491 803f
000000b0: 18a2 7f3f 1bf1 803f 5441 813f d59c 7d3f
000000c0: 0dc7 7d3f 7c3e 7d3f 5824 813f 1f9c 7d3f
000000d0: 3b2d 803f 1742 7d3f 1824 7d3f 2576 813f
000000e0: 7490 803f 2870 7f3f 1fce 803f 73fc 803f
000000f0: ce49 813f 7ddb 7e3f b4a6 7e3f f988 803f
00000100: 4c72 803f cd61 7d3f ebb4 803f 250a 7e3f
00000110: 7349 803f ba56 813f a1a4 7d3f fc75 7d3f
00000120: 6d9b 7c3f ec46 813f d596 7d3f ba33 7d3f
00000130: d1a4 803f ccf6 803f f694 7d3f 4ce9 803f
00000140: caa8 7e3f 98a5 7e3f 8b77 7d3f 1202 7e3f
00000150: 237b 7e3f 5fd1 813f 800f 7d3f 0829 7e3f
00000160: 1b17 803f 147f 813f 3342 813f 8f07 813f
00000170: 4678 803f 7122 813f 3e98 803f 2a9f 7d3f
00000180: 9d00 803f 1046 7f3f 9d4e 7e3f d4c2 7d3f
00000190: b709 7e3f 1b02 803f 21e0 7f3f 42b1 813f
000001a0: 8836 7f3f 33c4 7f3f f5a3 813f 5149 813f
000001b0: 9c66 813f bcb9 7c3f 9583 813f 6b44 803f
000001c0: 19ba 803f 2921 803f 9f39 813f 0331 7d3f
000001d0: f677 813f 7571 813f 67bd 7c3f bf7f 803f
000001e0: 19e1 803f 6ead 7c3f 9f1c 7d3f 94a0 813f
000001f0: 9019 813f a03f 813f 1312 813f 1e77 7c3f

bn1.bias f4 [128]
-0.010415688 0.013935671 0.010730139 -0.010405139 0.000605023 0.009805602 -0.005703565 -0.011525964
-0.007873413 0.0063219727 -0.008742017 -0.0051630726 -0.0022651816 -0.010426529 -0.0034672346 0.00032129668
0.003230225 -0.006271081 0.012678584 0.006901912 -0.011658 -0.011723359 -0.0018249507 0.013983633
0.012759741 0.011967536 -0.0022032284 -0.0059228074 0.013259222 -0.0065079387 -0.009849276 0.009167537
-0.003733647 -0.009493812 -0.0104253115 -0.0022931017 0.0093312645 0.010847435 0.009485655 0.009251475
0.013808422 -0.012626448 -0.012118285 7.710896e-06 -0.0026101167 0.009046656 0.009682273 -0.014307005
-0.0077964785 -0.009284589 0.008693336 -0.011384349 0.00071340485 -0.01027773 -0.008207757 0.0042088116
0.006469304 -0.0035598 0.0114024 0.005173384 0.008783071 -0.009189749 0.004039238 0.008809834
-0.004207913 -0.010129142 0.008292722 -0.007152361 0.0028575917 0.010600486 -0.0065839454 -0.0102357725
-0.011870292 0.010684637 -0.009244136 -0.011406343 0.0046096127 0.009417971 -0.009241116 0.010425395
-0.010009326 -0.0071158945 0.0025306484 -0.0067585395 -0.004212373 0.013379672 -0.010251899 -0.008803678
0.009739141 0.011841706 0.011295124 0.007615992 0.008289607 0.011627905 0.0043016328 -0.009087629
0.013739669 0.006897914 -0.004650464 -0.008280971 -0.008759946 0.008656605 0.0013032357 0.012549361
0.0037189582 -0.0027287884 0.011148986 0.0040655867 0.012072003 -0.01292159 0.011941516 0.0022007148
0.011333429 0.012786085 0.012119357 -0.011464998 0.011333766 0.010592491 -0.008085716 0.0066569718
0.012367699 -0.004754766 -0.011805522 0.01273716 0.009727309 0.010891322 0.008763045 -0.012258427
00000000: 90a6 2abc 7152 643c 77cd 2f3c 517a 2abc
00000010: 689a 1e3a ada7 203c f9e4 babb 66d7 3cbc
00000020: 7dff 00bc 8d28 cf3b ad3a 0fbc fe2e a9bb
00000030: 7173 14bb 08d4 2abc 8b3a 63bb b673 a839
00000040: 2fb2 533b a47d cdbb d6b9 4f3c 6f29 e23b
00000050: 3201 3fbc 5513 40bc 2f33 efba 9c1b 653c
00000060: 3c0e 513c 7c13 443c 0a64 10bb 1c14 c2bb
00000070: 353d 593c 8c40 d5bb dc5e 21bc 7033 163c
00000080: 34b0 74bb ef8b 1bbc edce 2abc dd47 16bb
00000090: 29e2 183c 71b9 313c b969 1b3c 8093 173c
000000a0: b83c 623c 29df 4ebc c58b 46bc 0c5e 0137
000000b0: 7e0e 2bbb 6d38 143c 65a2 1e3c ee67 6abc
000000c0: 9a79 ffbb 641e 18bc 7e6e 0e3c 6c85 3abc
000000d0: ca03 3b3a ed63 28bc d479 06bc 12ea 893b
000000e0: 75fc d33b 894b 69bb 22d1 3a3c 7e85 a93b
000000f0: dfe6 0f3c 9a90 16bc 965b 843b 1f57 103c
00000100: 88e2 89bb b3f4 25bc 32de 073c 5a5e eabb
00000110: 6f46 3b3b a9ad 2d3c 23be d7bb f1b3 27bc
00000120: 9d7b 42bc 9e0e 2f3c b774 17bc ace1 3abc
00000130: 3c0c 973b d54d 1a3c 0d68 17bc 47cf 2a3c
00000140: 28fe 23bc 732c e9bb 3cd9 253b bd76 ddbb
00000150: f207 8abb 6936 5b3c 95f7 27bc 4d3d 10bc
00000160: eb90 1f3c b703 423c 2f0f 393c 928f f93b
00000170: 22d1 073c f882 3e3c b6f4 8c3b 47e4 14bc
00000180: 591c 613c e607 e23b eb62 98bb e9ac 07bc
00000190: e085 0fbc 6fd4 0d3c 55d1 aa3a d69b 4d3c
000001a0: c4b9 733b 79d5 32bb 3daa 363c 9d38 853b
000001b0: a7c9 453c 14b5 53bc 59a6 433c de39 103b
000001c0: d9af 393c ba7c 513c 4490 463c b0d7 3bbc
000001d0: 43b1 393c 218c 2d3c f379 04bc ba22 da3b
000001e0: e4a1 4a3c decd 9bbb f36b 41bc 85af 503c
000001f0: 4b5f 1f3c 8471 323c e092 0f3c 92d7 48bc

bn1.running_mean f4 [128]
310.63126 -1522.2563 -960.80634 -540.16486 -833.3686 -23.749233 682.78937 -171.83395
188.0817 241.20602 1619.2365 -1025.5784 -211.09766 -736.2979 -585.12195 -644.6726
1165.124 -1025.4565 -689.8663 458.16205 850.8252 214.97081 -287.9027 397.34253
-1334.1261 181.947 464.32126 345.46088 677.6337 -1555.0734 1194.3729 -778.296
-551.16425 457.2782 -287.26846 805.983 -507.91107 -397.59036 -401.35574 -1174.4236
818.5437 -745.31683 -68.408516 71.10556 -865.55786 1145.4705 448.45636 649.48834
-588.9702 -1.4633799 -851.68445 -92.53206 -432.4183 75.15943 -107.44481 -582.7563
840.13605 -485.5662 1453.5336 -784.3972 -646.88135 138.63472 532.2208 579.0006
272.54318 -682.5179 470.74738 -1529.2202 -410.70187 90.65139 694.87885 -445.60214
370.8464 -1216.0664 591.2276 -240.95284 391.59222 -827.12213 -834.10645 517.9554
102.14866 -377.9581 664.6973 -407.52246 188.58624 -514.53503 197.09888 -24.041346
565.2517 -488.08844 425.08157 -1306.5728 242.65544 267.64752 -1022.7017 139.51367
790.95496 -241.91707 373.20657 299.02826 -120.5636 -252.04431 543.28796 270.81396
1011.0152 -772.46106 -630.28613 357.5999 378.32874 166.48221 -1287.1445 -577.41907
563.65576 -300.0579 268.922 669.5095 -652.04114 -1097.1829 -257.60883 448.3058
222.84615 320.6908 -776.5459 -921.1418 713.9227 579.8236 196.46265 -107.2731
00000000: cd50 9b43 3448 bec4 9b33 70c4 8d0a 07c4
00000010: 9757 50c4 6efe bdc1 85b2 2a44 7ed5 2bc3
00000020: ea14 3c43 be34 7143 9167 ca44 8232 80c4
00000030: 0019 53c3 1113 38c4 ce47 12c4 0c2b 21c4
00000040: f8a3 9144 9c2e 80c4 7177 2cc4 be14 e543
00000050: d0b4 5444 87f8 5643 8cf3 8fc3 d8ab c643
00000060: 09c4 a6c4 6ff2 3543 1f29 e843 feba ac43
00000070: 8f68 2944 5962 c2c4 ef4b 9544 f292 42c4
00000080: 83ca 09c4 9ca3 e443 5da2 8fc3 e97e 4944
00000090: 9ef4 fdc3 91cb c6c3 89ad c8c3 8ecd 92c4
000000a0: cca2 4c44 4754 3ac4 29d1 88c2 0c36 8e42
000000b0: b463 58c4 0e2f 8f44 6a3a e043 415f 2244
000000c0: 183e 13c4 0850 bbbf ceeb 54c4 6a10 b9c2
000000d0: 8b35 d8c3 a151 9642 bee3 d6c2 67b0 11c4
000000e0: b508 5244 79c8 f2c3 13b1 b544 6c19 44c4
000000f0: 68b8 21c4 7da2 0a43 220e 0544 0ac0 1044
00000100: 8745 8843 25a1 2ac4 aa5f eb43 0c27 bfc4
00000110: d759 cdc3 834d b542 3fb8 2d44 13cd dec3
00000120: 576c b943 2002 98c4 91ce 1344 edf3 70c3
00000130: cecb c343 d1c7 4ec4 d086 50c4 257d 0144
00000140: 1d4c cc42 a3fa bcc3 a12c 2644 e0c2 cbc3
00000150: 1496 3c43 3ea2 00c4 5019 4543 ad54 c0c1
00000160: 1c50 0d44 520b f4c3 718a d443 5452 a3c4
00000170: cba7 7243 e2d2 8543 e9ac 7fc4 8083 0b43
00000180: 1ebd 4544 c5ea 71c3 719a ba43 9e83 9543
00000190: 9020 f1c2 580b 7cc3 6ed2 0744 3068 8743
000001a0: f9c0 7c44 821d 41c4 5092 1dc4 cacc b243
000001b0: 142a bd43 727b 2643 a0e4 a0c4 d25a 10c4
000001c0: f8e9 0c44 6907 96c3 0476 8643 9c60 2744
000001d0: a202 23c4 da25 89c4 eecd 80c3 2427 e043
000001e0: 9dd8 5e43 6c58 a043 f022 42c4 1349 66c4
000001f0: 0e7b 3244 b6f4 1044 7076 4443 d48b d6c2

bn1.running_var f4 [128]
87385.33 776022.25 258297.12 145294.77 348213.56 30091.486 191722.97 59741.66
50762.473 75662.42 726179.75 284500.0 92378.945 249582.16 149664.5 150036.22
530036.9 411543.03 171157.94 153476.83 239537.88 33412.742 85227.4 113793.375
511253.4 63279.51 81805.31 66168.2 254071.19 680079.25 433815.3 219726.88
154636.69 106351.336 74268.01 263976.25 114829.445 145049.64 164340.39 355276.8
240687.33 222358.64 78855.98 105004.75 227511.84 376677.0 93230.07 210761.47
203314.55 39908.965 253027.56 50142.418 105033.47 92058.84 58553.81 201263.36
210803.19 90941.54 688146.9 179779.17 208328.14 40021.9 214316.72 110308.94
46357.387 168659.58 135652.77 670685.8 90372.48 49085.27 190004.45 94073.625
109373.35 399240.94 130685.31 84312.1 84800.945 266029.3 307879.47 117752.95
44052.664 74701.664 181492.27 119958.07 43977.723 128473.516 81003.88 57704.04
101194.89 136502.67 78124.875 534856.3 57060.086 59164.77 402983.62 49297.656
164445.64 81829.234 53389.133 92299.65 72613.586 134343.14 115351.56 75668.02
361026.94 235110.52 213867.1 96754.7 89332.86 39311.09 497947.16 112810.72
107800.74 65788.29 90474.54 174926.61 149528.73 313041.06 57842.594 105593.586
43609.594 107785.1 215124.81 206112.38 134901.17 143445.52 90686.49 46450.13
00000000: aaac aa47 6475 3d49 483e 7c48 b1e3 0d48
00000010: b206 aa48 f916 eb46 be3a 3b48 a95d 6947
00000020: 794a 4647 36c7 9347 3c4a 3149 80ea 8a48
00000030: 796d b447 8abb 7348 2028 1248 0e85 1248
00000040: 4e67 0149 e1f2 c848 7c25 2748 35e1 1548
00000050: 78ec 6948 be84 0247 b375 a647 b040 de47
00000060: ada2 f948 832f 7747 a8c6 9f47 1a3c 8147
00000070: cc1d 7848 f408 2649 ead2 d348 b893 5648
00000080: 2c03 1748 abb7 cf47 010e 9147 08e5 8048
00000090: b946 e047 69a6 0d48 197d 2048 9a79 ad48
000000a0: d50b 6b48 a925 5948 fd03 9a47 6016 cd47
000000b0: f62d 5e48 a0ec b748 0917 b647 5ed2 4d48
000000c0: a38c 4648 f7e4 1b47 e418 7748 6bde 4347
000000d0: bc24 cd47 6ccd b347 cfb9 6447 d78b 4448
000000e0: ccdc 4d48 c59e b147 2e01 2849 cb90 2f48
000000f0: 0972 4b48 e655 1c47 2e4b 5148 7872 d747
00000100: 6315 3547 e5b4 2448 3179 0448 ddbd 2349
00000110: 3d82 b047 45bd 3f47 1d8d 3948 d0bc b747
00000120: ad9e d547 1ef1 c248 a83e ff47 0dac a447
00000130: 79a0 a547 aae5 8148 ef54 9648 7afc e547
00000140: aa14 2c47 d5e6 9147 113d 3148 094b ea47
00000150: b9c9 2b47 c2ec fa47 f135 9e47 0a68 6147
00000160: 72a5 c547 ab4d 0548 7096 9847 8594 0249
00000170: 16e4 5e47 c51c 6747 f4c4 c448 a891 4047
00000180: 6997 2048 9ed2 9f47 228d 5047 d345 b447
00000190: cbd2 8d47 c931 0348 c84b e147 03ca 9347
000001a0: 5e48 b048 a199 6548 c6da 5048 5af9 bc47
000001b0: 6e7a ae47 178f 1947 6523 f348 5c55 dc47
000001c0: 5f8c d247 257e 8047 45b5 b047 a7d3 2a48
000001d0: 2f06 1248 22da 9848 98f2 6147 cb3c ce47
000001e0: 9859 2a47 8d84 d247 3415 5248 1848 4948
000001f0: 4bbd 0348 6115 0c48 3f1f b147 2172 3547

fc2.weight f4 [64, 128]
0.08771392 -0.040330973 0.007716113 -0.0363622 0.017990936 0.06761109 -0.006205511 -0.009195257
0.02260058 -0.0023754353 0.017755203 -0.05075066 -0.03479983 -0.038783386 0.046578806 -0.032748457
0.018687734 0.0053639547 0.048313644 0.05417967 -0.0051168064 0.0002191186 -0.051174365 -0.09486867
0.038660616 0.0034758332 -0.017086806 0.08394971 -0.061351955 -0.006816808 0.07352698 0.06768592
0.0959978 -0.07427406 0.0066044033 -0.064270124 0.096440606 0.065938205 -0.04111402 -0.07471163
-0.058244117 0.012144194 -0.083802246 0.082409404 0.07371334 0.06150102 0.0019018037 -0.0027945794
-0.07044728 0.017529571 0.04192581 0.07442865 0.096741706 0.045278843 0.017413775 -0.029821046
-0.035474494 -0.033469394 0.036955036 -0.07012885 -0.053325016 -0.07335534 0.03659005 0.04715217
-0.029663326 -0.021248037 0.012614449 -0.047421988 -0.0047070454 0.041895054 -0.057956453 0.004453371
-0.031655844 0.080742694 -0.0315056 -0.040864848 0.014330392 0.10223543 -0.056653157 -0.037675023
-0.031468112 -0.075926386 -0.0819122 0.002785196 -0.07614153 0.04343433 -0.04087624 0.08401445
0.07011752 -0.055940073 -0.033736568 0.0184233 -0.06316059 -0.05428282 0.09097161 -0.031003421
-0.06412441 0.016553376 -0.09232274 -0.09626212 -0.061990555 -0.03190523 0.017667094 -0.050741017
-0.027362522 0.001966759 0.10187344 0.0699519 -0.0951703 -0.06174966 -0.011042524 0.06567931
-0.010680396 0.08970296 0.048896205 0.06072023 -0.038326077 -0.042695552 0.024889462 0.023048818
-0.07335452 0.03246424 -0.047717124 -0.057830527 -0.02047373 -0.05148838 0.07027305 0.020293854
0.0015901271 -0.03037184 -0.01780483 -0.014252262 0.06767056 -0.056436982 -0.026110683 -0.016068771
0.02780436 -0.0091154445 0.07170062 0.00014001787 0.04776441 0.0012008012 0.009209393 -0.096547455
0.028249377 0.0017673887 -0.06651847 0.074983455 0.013092088 0.034369472 -0.07950451 0.017373545
0.045719326 0.0121625615 0.057255547 0.064299226 -0.023522075 -0.07961067 -0.03861994 -0.003931632
-0.026221655 -0.0025538052 0.071238354 0.0016267041 -0.021969724 -0.06699613 -0.054322563 0.0030309977
0.05729352 -0.019653467 -0.009075653 0.0672172 -0.08230768 0.064560674 0.07683325 0.041609395
0.062027737 -0.031434864 -0.071537234 -0.008840386 -0.011184623 0.044140365 0.04824789 -0.04446002
-0.052155342 -0.010683049 0.089565836 0.008825634 0.06729654 -0.09671993 -0.07265029 0.06958063
0.02837175 -0.065208726 0.014348454 -0.06898177 -0.08725687 0.009974234 -0.06873794 0.012104051
-0.04869412 -0.00054648455 -0.026965046 -0.01617474 -0.05294194 -0.08236164 -0.026648879 -0.053556
0.034369983 0.019144395 0.023389908 -0.02683084 -0.0076653697 0.039446127 0.057477694 -0.04031379
-0.014154516 0.04388695 -0.047493763 0.069707975 0.0662527 0.06465703 0.07738257 0.039534286
0.030154955 -0.01129225 -0.029326165 0.05974955 0.06790348 0.016236583 0.023600316 0.027365593
0.08948914 0.07328957 0.05659486 0.040253814 0.09826572 -0.063397475 -0.029048061 -0.07380853
0.089386486 0.03412662 -0.05429162 0.016694395 -0.06112267 -0.013319113 -0.07079605 -0.060265902
0.012446622 -0.06990739 -0.039643526 -0.046750657 0.06695508 -0.069995336 -0.019101197 0.01301561
00000000: 5ba3 b33d 1732 25bd 72d7 fc3b 88f0 14bd
00000010: ba61 933c af77 8a3d 9957 cbbb b4a7 16bc
00000020: da24 b93c 31ad 1bbb 5c73 913c eddf 4fbd
00000030: 448a 0ebd 54db 1ebd 6bc9 3e3d 3f23 06bd
00000040: 0517 993c 1dc4 af3b 87e4 453d 80eb 5d3d
00000050: e2aa a7bb 34c3 6539 369c 51bd 814a c2bd
00000060: 985a 1e3d ceca 633b a1f9 8bbc d3ed ab3d
00000070: 304c 7bbd 885f dfbb 5095 963d ea9e 8a3d
00000080: 7f9a c43d 001d 98bd c069 d83b 0ea0 83bd
00000090: a782 c53d 9c0a 873d 2d67 28bd 6902 99bd
000000a0: 6291 6ebd 71f8 463c 83a0 abbd 43c6 a83d
000000b0: 05f7 963d 7ee8 7b3d f145 f93a 4325 37bb
000000c0: aa46 90bd 2d9a 8f3c 66ba 2b3d 0c6e 983d
000000d0: 8420 c63d 4f76 393d 55a7 8e3c 444b f4bc
000000e0: b44d 11bd 3417 09bd 2a5e 173d b79f 8fbd
000000f0: 556b 5abd 533b 96bd 73df 153d a222 413d
00000100: 8100 f3bc 5d10 aebc d5ac 4e3c 8f3d 42bd
00000110: 8f3d 9abb 269a 2b3d bf63 6dbd 95ed 913b
00000120: 8fa9 01bd 6d5c a53d 040c 01bd e661 27bd
00000130: 05ca 6a3c cf60 d13d 240d 68bd 2051 1abd
00000140: b5e4 00bd 4b7f 9bbd 95c1 a7bd d687 363b
00000150: 17f0 9bbd 32e8 313d d86d 27bd c50f ac3d
00000160: c699 8f3d 6b21 65bd 5b2f 0abd 76ec 963c
00000170: 575a 81bd aa57 5ebd 534f ba3d e3fa fdbc
00000180: a953 83bd f29a 873c b413 bdbd 1325 c5bd
00000190: cfe9 7dbd 0faf 02bd 95ba 903c d0d5 4fbd
000001a0: 5e27 e0bc bee4 003b 06a3 d03d f142 8f3d
000001b0: a5e8 c2bd 36ed 7cbd b4eb 34bc e082 863d
000001c0: d4fc 2ebc 2fb6 b73d 6347 483d c7b5 783d
000001d0: cefb 1cbd 88e1 2ebd fce4 cb3c e0d0 bc3c
000001e0: e53a 96bd 39f9 043d 0873 43bd b4df 6cbd
000001f0: 86b8 a7bc 7be5 52bd 51eb 8f3d 4c3f a63c
00000200: d06b d03a 5dce f8bc 6fdb 91bc 5282 69bc
00000210: dd96 8a3d 772a 67bd 12e6 d5bc a8a2 83bc
00000220: f8c5 e33c f258 15bc c6d7 923d c3d1 1239
00000230: 9da4 433d 3464 9d3a fee2 163c acba c5bd
00000240: 3d6b e73c b9a7 e73a d63a 88bd ed90 993d
00000250: 3280 563c 01c7 0c3d 43d3 a2bd f752 8e3c
00000260: 3044 3b3d 7b45 473c cb84 6a3d 50af 833d
00000270: 5eb1 c0bc eb0a a3bd f12f 1ebd ebd4 80bb
00000280: ccce d6bc be5d 27bb 6ae5 913d 2237 d53a
00000290: daf9 b3bc 4435 89bd 5681 5ebd b4a3 463b
000002a0: 9cac 6a3d 4f00 a1bc 0cb2 14bc 2ca9 893d
000002b0: ee90 a8bd 6338 843d c05a 9d3d 9d6e 2a3d
000002c0: cc10 7e3d d8c1 00bd 1d82 92bd 44d7 10bc
000002d0: b63f 37bc 87cc 343d 949f 453d b61b 36bd
000002e0: d7a0 55bd f507 2fbc 4b6e b73d 6499 103c
000002f0: c5d2 893d 1915 c6bd adc9 94bd 4a80 8e3d
00000300: df6b e83c 278c 85bd c715 6b3c 5046 8dbd
00000310: bbb3 b2bd f86a 233c 7ac6 8cbd 1250 463c
00000320: 7c73 47bd f541 0fba cde5 dcbc e380 84bc
00000330: a6d9 58bd 38ad a8bd c04e dabc 895d 5bbd
00000340: 8ac7 0c3d b5d4 9c3c 319c bf3c 5acc dbbc
00000350: c82d fbbb 4392 213d bb6d 6b3d 1320 25bd
00000360: 58e8 67bc cdc2 333d d288 42bd 0ec3 8e3d
00000370: 7faf 873d e86a 843d c17a 9e3d b4ee 213d
00000380: 8607 f73c 2103 39bc 6d3d f0bc f2bb 743d
00000390: fb10 8b3d 9502 853c 7355 c13c cf2d e03c
000003a0: 1546 b73d d818 963d 03d0 673d 2fe1 243d
000003b0: 8a3f c93d 89d6 81bd 33f6 edbc ed28 97bd
000003c0: 4310 b73d 5bc8 0b3d e460 5ebd afc2 883c
000003d0: c45b 7abd 6938 5abc 85fd 90bd 61d9 76bd
000003e0: ebec 4b3c 9b2b 8fbd 4061 22bd 9e7d 3fbd
000003f0: bf1f 893d b759 8fbd 1d7a 9cbc 6d3f 553c

fc2.bias f4 [64]
-0.08092459 -0.038511876 -0.07995247 -0.005969361 0.051615927 0.05984849 0.01357456 0.013081001
-0.036042172 0.07660894 -0.0011470974 -0.03475253 0.014983651 -0.08688596 -0.007538052 -0.060325887
-0.048002593 -0.046014436 -0.030846594 -0.08661081 -0.0806233 -0.08382532 0.013325577 -0.052458014
0.03731071 0.037114106 -0.040245734 0.03473879 -0.062163588 -0.08790751 -0.02567789 -0.027611412
-0.007761047 -0.0071871015 0.015441297 0.06042379 -0.01587178 -0.083147705 0.04178746 0.015259062
-0.013486737 0.07153461 0.06296735 0.05071685 0.01937819 -0.018404603 -0.060563337 -0.011304645
-0.08748441 0.07684285 0.008720413 0.07855377 -0.03662673 -0.080712736 0.01025327 0.024867382
0.05887995 -0.034878388 -0.019995792 0.07836942 0.07433287 0.073463984 0.080792315 0.049183827
00000000: cbbb a5bd a1be 1dbd 1fbe a3bd a19a c3bb
00000010: 396b 533d b123 753d d567 5e3c b251 563c
00000020: f5a0 13bd 26e5 9c3d 345a 96ba ab58 0ebd
00000030: fd7d 753c 44f1 b1bd c301 f7bb 4718 77bd
00000040: 5e9e 44bd a279 3cbd ffb1 fcbc 0261 b1bd
00000050: d41d a5bd 9cac abbd 8553 5a3c 37de 56bd
00000060: 1dd3 183d f604 183d b6d8 24bd 434a 0e3d
00000070: 3f9f 7ebd da08 b4bd 705a d2bc 5431 e2bc
00000080: 6250 febb c781 ebbb 7efd 7c3c f07e 773d
00000090: 8905 82bc 5849 aabd 5429 2b3d 2501 7a3c
000000a0: 7af7 5cbc bd80 923d 07f5 803d 79bc 4f3d
000000b0: 03bf 9e3c 40c5 96bc 4311 78bd 1e37 39bc
000000c0: 072b b3bd c95f 9d3d 10e0 0e3c cde0 a03d
000000d0: e905 16bd b84c a5bd 55fd 273c aeb6 cb3c
000000e0: 1a2c 713d a4dc 0ebd 37ce a3bc 2580 a03d
000000f0: d53b 983d 4974 963d 7176 a53d fb74 493d

bn2.weight f4 [64]
0.983882 1.0181912 1.0184796 1.0095425 1.01435 0.99047375 1.018158 1.0150696
0.99272066 0.99491584 1.0180758 1.0105398 1.0098723 0.9831304 1.0010474 1.0181706
1.0179505 0.9832385 1.0130745 1.0136842 0.9872006 0.99359876 0.9840222 1.0154431
1.0186048 1.0041876 0.99960446 0.99475425 1.0108896 0.99605227 1.0179597 1.0188763
1.0185467 1.0053331 1.0155395 1.0189114 1.0188817 1.0090464 0.99134266 0.98929775
1.0145898 1.0156485 1.013704 1.011409 1.0179566 0.9832779 0.98328316 1.0184431
0.988108 1.0141258 0.9893601 1.0184221 0.98934144 1.013418 1.0191891 1.0160123
1.0174968 0.9872646 0.98339665 1.0178412 1.0148025 1.0012851 0.9900448 0.9898421
00000000: b1df 7b3f 1754 823f 8a5d 823f b038 813f
00000010: 39d6 813f b08f 7d3f 0053 823f cded 813f
00000020: f122 7e3f ceb2 7e3f 4f50 823f 5e59 813f
00000030: 7f43 813f 6fae 7b3f 5222 803f 6a53 823f
00000040: 344c 823f 85b5 7b3f 6dac 813f 67c0 813f
00000050: 2eb9 7c3f 7d5c 7e3f e1e8 7b3f 0afa 813f
00000060: a461 823f 3889 803f 14e6 7f3f 37a8 7e3f
00000070: d564 813f 48fd 7e3f 814c 823f 8a6a 823f
00000080: bd5f 823f c1ae 803f 33fd 813f b06b 823f
00000090: b76a 823f 6f28 813f a2c8 7d3f 9e42 7d3f
000000a0: 14de 813f c500 823f 0dc1 813f da75 813f
000000b0: 674c 823f 1ab8 7b3f 72b8 7b3f 585c 823f
000000c0: a5f4 7c3f e0ce 813f b446 7d3f a85b 823f
000000d0: 7b45 7d3f aeb7 813f ca74 823f b10c 823f
000000e0: 563d 823f 5fbd 7c3f e2bf 7b3f 9f48 823f
000000f0: 0ce5 813f 1c2a 803f 9373 7d3f 4b66 7d3f

bn2.bias f4 [64]
-0.015657362 0.01874641 0.018430037 -0.0051165735 0.012293458 -0.011998247 0.018645143 0.01912496
-0.00086776173 -0.011108796 0.018320728 0.015188295 0.01574743 -0.01720653 -0.009885961 0.018337559
0.017594913 -0.016776945 0.0015216938 0.01649512 -0.01386344 -0.009787325 -0.01625497 0.01622551
0.01895077 0.01037945 -0.011707411 -0.010078874 0.014039727 -0.010331961 0.015900582 0.019141652
0.018782841 0.010732418 0.016125562 0.019190922 0.01905507 0.012277304 -0.011894996 -0.012227577
0.008252334 -0.0073053716 0.0049109613 -0.0038287654 0.017836083 -0.01659041 -0.016934207 0.016208025
-0.013545619 0.014640907 -0.012539569 0.018577453 -0.0126536805 0.015391123 0.0187705 -0.0033446928
0.017400775 -0.013791952 -0.015413014 0.017900607 0.014423353 -0.009339436 -0.013724305 -0.012983463
00000000: de43 80bc 1292 993c 97fa 963c eea8 a7bb
00000010: 806a 493c 4c94 44bc b3bd 983c f3ab 9c3c
00000020: 817a 63ba ab01 36bc 5a15 963c 54d8 783c
00000030: c100 813c b5f4 8cbc baf8 21bc a638 963c
00000040: 3523 903c ce6f 89bc 9273 c73a c620 873c
00000050: 7b23 63bc 045b 20bc 2529 85bc 5ceb 843c
00000060: a53e 9b3c 920e 2a3c 71d0 3fbc dd21 25bc
00000070: e206 663c 6347 29bc f041 823c f4ce 9c3c
00000080: 79de 993c 06d7 2f3c c119 843c 4836 9d3c
00000090: 6119 9c3c bf26 493c 3be3 42bc 2d56 48bc
000000a0: cc34 073c e661 efbb 21ec a03b 06ec 7abb
000000b0: fa1c 923c 9de8 87bc 9bb9 8abc b1c6 843c
000000c0: 72ee 5dbc 6ae0 6f3c c472 4dbc be2f 983c
000000d0: 6251 4fbc 0c2b 7c3c 97c4 993c a232 5bbb
000000e0: 128c 8e3c a4f7 61bc de86 7cbc 4ba4 923c
000000f0: ed4f 6c3c 6f04 19bc e8db 60bc 97b8 54bc

bn2.running_mean f4 [64]
-0.22033449 0.011817407 0.20467755 0.074450135 0.22312316 -0.21521957 -0.20509437 -0.39003322
-0.14696297 -0.2179746 0.17352808 -0.055758137 -0.07031244 0.0216781 -0.034159113 -0.10728022
-0.39527655 0.19766298 -0.08874131 -0.13443023 0.087796465 -0.055086616 0.036261987 0.50788224
0.20093453 -0.0061420845 -0.015671846 -0.070016906 -0.077173755 -0.16374779 0.25130838 -0.3690955
-0.54811287 -0.13788672 -0.029438691 -0.17340854 -0.33376914 -0.047585715 -0.13470492 0.26781797
0.22413354 0.22357352 0.0052062036 0.27345335 -0.39081243 -0.059287287 -0.31677926 -0.058783744
-0.021203104 0.13749462 0.1951454 0.16978747 0.18259682 0.2633197 -0.10382924 -0.14828287
0.18580474 -0.37730268 0.015369 -0.005003225 0.10256848 -0.22036101 0.27222204 -0.31313506
00000000: 5d9f 61be cc9d 413c fe96 513e 5079 983d
00000010: 667a 643e 8562 5cbe 4204 52be 6fb2 c7be
00000020: 767d 16be bc34 5fbe 58b1 313e a562 64bd
00000030: f8ff 8fbd 4596 b13c 6dea 0bbd bbb5 dbbd
00000040: b061 cabe 2a68 4a3e 01be b5bd 14a8 09be
00000050: a2ce b33d 81a2 61bd 7387 143d 9204 023f
00000060: c8c1 4d3e 8a43 c9bb 3e62 80bc 0665 8fbd
00000070: 460d 9ebd 80ad 27be 7eab 803e 16fa bcbe
00000080: 2051 0cbf 2d32 0dbe 6929 f1bc 0292 31be
00000090: cae3 aabe 3de9 42bd 16f0 09be 701f 893e
000000a0: 4383 653e 75f0 643e cd98 aa3b 1402 8c3e
000000b0: 9118 c8be 3ad7 72bd e430 a2be 39c7 70bd
000000c0: 22b2 adbc 64cb 0c3e 32d4 473e c4dc 2d3e
000000d0: a9fa 3a3e d7d1 863e 6da4 d4bd 77d7 17be
000000e0: 9943 3e3e d12d c1be 42ce 7b3c 18f2 a3bb
000000f0: 6c0f d23d 51a6 61be b060 8b3e 3d53 a0be

bn2.running_var f4 [64]
0.26138222 0.36462128 0.2592026 0.38615307 0.42949623 0.39721826 0.22012956 0.31777582
0.23215666 0.33656847 0.35778192 0.23571737 0.30075315 0.3205302 0.37323812 0.2604555
0.24213675 0.2591115 0.42602456 0.27470675 0.29358378 0.4802111 0.29142725 0.2592326
0.26156414 0.21221887 0.32042825 0.3888243 0.28321368 0.4046355 0.2774817 0.30610865
0.3513459 0.3132225 0.26632047 0.26689783 0.2583372 0.25930044 0.40902674 0.32456005
0.5937332 0.38732147 0.44936684 0.47992012 0.27853677 0.17522028 0.29997727 0.28473747
0.34747097 0.28003207 0.3353325 0.19594571 0.27201077 0.21555248 0.19583407 0.38328105
0.17816642 0.28088024 0.30078584 0.23035084 0.49174353 0.5247944 0.381116 0.3950541
00000000: e4d3 853e a4af ba3e 34b6 843e dbb5 c53e
00000010: eee6 db3e 3160 cb3e a569 613e 83b3 a23e
00000020: 7aba 6d3e b452 ac3e 312f b73e e55f 713e
00000030: 51fc 993e 891c a43e 1119 bf3e 6c5a 853e
00000040: b2f2 773e 43aa 843e e41f da3e 5da6 8c3e
00000050: 9d50 963e 3bde f53e f435 953e 23ba 843e
00000060: bceb 853e e74f 593e 2c0f a43e fb13 c73e
00000070: 6201 913e 622c cf3e 1512 8e3e 46ba 9c3e
00000080: 9ce3 b33e b35e a03e 285b 883e d5a6 883e
00000090: c644 843e 07c3 843e f46b d13e bc2c a63e
000000a0: e6fe 173f 004f c63e 6913 e63e 17b8 f53e
000000b0: 5f9c 8e3e f26c 333e 9f96 993e 1cc9 913e
000000c0: b7e7 b13e 5d60 8f3e b4b0 ab3e fea5 483e
000000d0: ff44 8b3e cab9 5c3e ba88 483e 6a3d c43e
000000e0: 4271 363e 89cf 8f3e 9a00 9a3e 17e1 6b3e
000000f0: cfc5 fb3e ed58 063f a321 c33e 8844 ca3e

fc3.weight f4 [1, 64]
0.054481115 -0.08005727 -0.13815278 0.09136761 0.08627826 0.05329528 -0.057359435 -0.03827784
-0.016536314 0.055321917 -0.09113484 -0.09208127 -0.064920776 0.10484165 0.087432005 -0.11504469
-0.1393336 0.06198774 0.02398092 -0.10011187 0.068312846 0.07739581 0.014266152 -0.0963111
-0.099064425 -0.035161484 0.04040218 0.04417426 -0.103495985 0.025061056 -0.09365761 -0.03135273
-0.045914955 -0.08879912 -0.062514566 -0.031364717 -0.030989282 -0.03537731 0.037328582 0.02732565
0.059974417 0.0864514 0.119117 0.100024685 -0.06656762 0.063528694 0.04814106 -0.117634945
0.11017675 -0.07279776 0.017741675 -0.1111247 0.041746672 -0.13122754 -0.027367454 0.113575675
-0.09339275 0.037096824 0.056876794 -0.06946411 0.038103256 0.11947584 0.07989537 0.029391287
00000000: 9727 5f3d 11f5 a3bd ec77 0dbe f11e bb3d
00000010: a8b2 b03d 274c 5a3d baf1 6abd 39c9 1cbd
00000020: 2a77 87bc 3c99 623d e7a4 babd 1b95 bcbd
00000030: 2ff5 84bd 38b7 d63d 8d0f b33d 8d9c ebbd
00000040: 78ad 0ebe dbe6 7d3d a273 c43c 7407 cdbd
00000050: 9be7 8b3d b281 9e3d 94bc 693c c13e c5bd
00000060: 4ae2 cabd 7d05 10bd c27c 253d 12f0 343d
00000070: b4f5 d3bd d84c cd3c 90cf bfbd b86b 00bd
00000080: 5211 3cbd 50dc b5bd a307 80bd 4a78 00bd
00000090: 3cdd fdbc cce7 10bd dbe5 183d 0bda df3c
000000a0: bca7 753d 6e0d b13d 9df3 f33d bed9 cc3d
000000b0: 9b54 88bd 551b 823d 8f2f 453d 97ea f0bd
000000c0: 59a4 e13d fe16 95bd fd56 913c 5995 e3bd
000000d0: 8ffe 2a3d 8360 06be b631 e0bc 5d9a e83d
000000e0: b344 bfbd d7f2 173d a4f7 683d 3343 8ebd
000000f0: 2912 1c3d c0af f43d 2fa0 a33d ffc5 f03c
