src/falldetector/falldetector/checkpoints/mlp.pt (torch, 33722 bytes, 19 tensors)

fc1.weight f4 [32, 54]
00000000: 4a06 393c e479 3ebd 031b e73c 9682 6cbd
00000010: 0914 08bd 5a5b 0f3c 9eaf d33d 2e31 1a3d
00000020: 7dc4 0cbe 270d acbc 8fba 87bc 9c3a 4bbd
00000030: e73d 873d bca5 c1bc 87f4 9dbd c6b6 083b
00000040: 2635 7a3d d850 1cbd 3a96 d83d 502e 833d
00000050: 30da cabc 1ca7 a43d dee0 19bd a7a7 19be
00000060: 7070 7e3c 810e 723e 0045 43bd cd1d aebc
00000070: e373 083e 2d43 0abc e5e0 d13d 7a4f 523e
00000080: d004 47bd 649b c43c 1006 e53c 0f43 33bd
00000090: b366 273d f816 183e 76e2 e5bd 4e99 a5be
000000a0: f45f 853e 8256 383e 5642 5f3d 4cef 083c
000000b0: a7df 303e 0989 27be 31c9 dd3e a86e f93c
000000c0: d94d 8f3d 9fd0 de3d 7450 293e 6172 2abe
000000d0: f4d0 c1bb 3c19 283e 73c2 463d 7023 f2bd
000000e0: 88eb d4bd e55a cd3d 1203 d73c 5184 49be
000000f0: 19bc b0bd b55c 963d e3de 45be 2b56 97bc
00000100: 575f 2dbd 4aa2 04bc 20f6 633a 4236 8ebc
00000110: 97a1 34bd e196 ee3c 7612 db3d d570 06be
00000120: 0045 053e 09c9 d03d 9b0e c8bc 27b3 493d
00000130: b494 19ba ef63 19bb 537b 2a3c f344 523e
00000140: 4de1 11be a99b 653d 44cc e1bd 354b 343d
00000150: b2f9 50bc 1876 c6bd 90f8 2f3d 9a2d adbd
00000160: 5d43 123d 1eb9 92bb 05b9 593d 3f28 5cbe
00000170: 0710 6a3c f4ab 0cbd a783 c03d 76f2 7dbd
00000180: 36d4 0bbe 69e1 aebd f628 63be 25b8 f1bd
00000190: 193b 0dbe 10b7 24bb 886e 613c d682 2ebe
000001a0: 0f8e 24be fee8 ba3d 657b 6c3e 927f 39bc
000001b0: fa11 04be 93ad 023e 6374 3ebd 4801 c33d
000001c0: b3e3 16be 6ee3 24be da27 08be b20e 143d
000001d0: 85fe 78bc 7fc7 a83d 7528 9dbc 052a 1dbd
000001e0: ac92 9e3d 535e fe3c 02e5 10be 2369 90bc
000001f0: 34e9 9bbd 6829 2ebd 8a2a 0e3c 6753 183d
00000200: 5313 e73c 24c4 5dbd 77f9 9c3c 6bd6 ccbd
00000210: 9f72 3f3e 94cc 9bbc 8e8b 59bd bc11 d13d
00000220: d3ca 0b3d 18af 83bd 7072 4a3c c98f bb3d
00000230: 1b5d bc3b d8eb d3bc 3926 4b3d 637d 70bd
00000240: 470c d63d 0156 f4bb 6c8e 8f3e 288e 703d
00000250: 90c4 1f3e eed2 95be 765c 36be 4862 72bd
00000260: df17 c83d 437d 573e 00ab cf3d d75e 233e
00000270: 9791 183e b863 033d 0b56 883e 80bf 6d3d
00000280: 9528 d93d 4d9d 04be d473 c0bd f2de 40be
00000290: d42d e3bd 41aa 23be ef12 18be 66af a3bd
000002a0: 1f54 4d3e d7ff 22be 21b6 d4bc e8d0 3cbd
000002b0: b696 57bd 8baa cc3b 8253 f93c 2607 acbe
000002c0: 0286 82bc d9ed 1abc 3e3b 93bd 6744 8c3d
000002d0: 470e d03d a20d e23d bab6 28bd 98e5 1abb
000002e0: 402a 35be 57de 4a3c 3bcc f7bc 0f5b 043a
000002f0: b92d 283d c689 5a3c 84e5 6a3d 8e46 ba3d
00000300: b144 55bc f2db 263e 6775 0cbd 0af5 d9bd
00000310: cd6a 543d c76f a2bc aca9 933c d63f 79be
00000320: 708c 0d3e e7e0 6fbd d949 26bd f0a8 a73d
00000330: 2588 aabe b9bf 9abe e90d 133e 0c64 8e3d
00000340: 5222 b9bd cb0c 8a3e 4122 af3d bc66 63be
00000350: ea83 493e abad 273e 9e8d 833e 4df5 453d
00000360: 5c10 c2bd d4f3 033c b58e f9bc 32a2 f8bc
00000370: b037 70bd 0bda a43c 2641 0cbd 072b b3bd
00000380: dab1 de3d 9e9b a1bc 1d9f 1c3d 1ab3 f9bd
00000390: 3b76 cabd 8132 d6bd c7be 39bd 0751 5abd
000003a0: 43dd e23c 2b44 46bd f675 86bd cd62 27bd
000003b0: 671c 08be 6317 81be 4a2d bfbc 9002 b3bd
000003c0: 97e1 b73c da8b 953c 0517 83bd 9c12 323b
000003d0: d9ab 813d b1d2 04bd 9554 843e dd0d 653c
000003e0: 54f3 79be 3bd2 36be 4a4d 1a3e 06d0 c9bd
000003f0: 191f 70be ef46 c73d bac0 afbe a4e2 f3bd
0.011293003 -0.046502963 0.028211122 -0.057741724 -0.033222232 0.008749807 0.10336231 0.037644558
-0.1374683 -0.021002365 -0.01656845 -0.04961644 0.06603604 -0.023638599 -0.077126555 0.0020860895
0.061085843 -0.038163036 0.105755284 0.06405318 -0.024762243 0.08039686 -0.037567966 -0.1500536
0.015529737 0.23638345 -0.047673225 -0.021254444 0.13325457 -0.0084388675 0.10247973 0.2053813
-0.048588574 0.023999877 0.027956992 -0.043765124 0.040869426 0.14852512 -0.112248346 -0.32343525
0.2604977 0.1800175 0.054506622 0.008357834 0.17272817 -0.16360869 0.4331756 0.030448273
0.0699727 0.10879635 0.16534597 -0.16645195 -0.0059148017 0.16415876 0.048525285 -0.118231654
-0.103964865 0.100271024 0.026246581 -0.19679381 -0.08629627 0.07341901 -0.19323306 -0.018473705
-0.04232725 -0.008095333 0.0008696038 -0.017359857 -0.044099417 0.029124679 0.106968805 -0.1312898
0.13014603 0.101945944 -0.024421027 0.04924312 -0.00058586453 -0.0023405512 0.010405379 0.20534115
-0.14246102 0.056056652 -0.11025289 0.044017036 -0.0127548445 -0.09690493 0.042961657 -0.084559634
0.035708774 -0.004477634 0.053154964 -0.21499728 0.014286048 -0.034343675 0.09400111 -0.061998807
-0.13655171 -0.08539087 -0.22183594 -0.11802701 -0.13792075 -0.0025133528 0.013759263 -0.17042097
-0.16069816 0.09126471 0.23093946 -0.011321919 -0.12897483 0.12761526 -0.046497714 0.09521729
-0.14735298 -0.16102383 -0.13296452 0.036146827 -0.015197401 0.08241176 -0.01918433 -0.03837015
0.07742819 0.031050837 -0.1414986 -0.017628258 -0.07612839 -0.042519957 0.008677134 0.037188914
0.028207457 -0.054142132 0.019161923 -0.100018345 0.18696068 -0.019018449 -0.053111605 0.10208461
0.034128975 -0.06429881 0.012356386 0.09158284 0.0057484037 -0.025869295 0.049597 -0.058713328
0.104515605 -0.0074565415 0.28038347 0.05872932 0.15602326 -0.2926249 -0.17808709 -0.05917576
0.09770178 0.21043877 0.101400375 0.15954147 0.14899288 0.03207752 0.26628146 0.058043957
0.106034435 -0.1295063 -0.093970925 -0.18835047 -0.110927254 -0.15982915 -0.14850973 -0.07992439
0.20051621 -0.15917908 -0.025965752 -0.046097666 -0.052633964 0.0062459162 0.030435327 -0.33599204
-0.01593304 -0.009456121 -0.07189034 0.06848984 0.10158973 0.110377565 -0.041189887 -0.0023635384
-0.17691898 0.0123821115 -0.030248752 0.0005048969 0.04105923 0.013338512 0.05734779 0.090954885
-0.013016866 0.1629484 -0.03429165 -0.106424406 0.051859666 -0.01982869 0.018025242 -0.24340758
0.13823104 -0.058564093 -0.04059777 0.08186519 -0.33306995 -0.30224398 0.14360775 0.06952676
-0.09039749 0.26962885 0.08551455 -0.22207159 0.19679227 0.16374843 0.25693983 0.04832964
-0.094757766 0.008053739 -0.030463556 -0.030350778 -0.058646858 0.020123502 -0.034241818 -0.08748441
0.10873766 -0.019727524 0.03823768 -0.12192364 -0.09885832 -0.104588516 -0.045347955 -0.05329993
0.027693396 -0.048404854 -0.06565468 -0.04086571 -0.13292085 -0.25213155 -0.023337025 -0.08740723
0.022446437 0.018255163 -0.06400875 0.0027171737 0.063316055 -0.032427493 0.2584578 0.013980356
-0.24409229 -0.17853634 0.15068546 -0.098541304 -0.23449363 0.097303264 -0.34326726 -0.11908463

fc1.bias f4 [32]
00000000: 7c8c 1f3e b58e 3c3d db03 943d f8b7 0fbd
00000010: 4ddd 8fbd 1dcc 0cbe 8977 1b3d 090c cebc
00000020: 2daf 8b3d 9832 db3d 685d 793d 7f56 2cbe
00000030: b8d5 173e 6f42 e7bb 9510 9abc 8fc1 c63d
00000040: 2f55 0ebe b5bc f1bd 4751 793e afc7 3a3c
00000050: 7897 d43d 038c 72bd 8c73 0bbe 2a83 773d
00000060: 4017 c6bd fdc9 0a3e 1480 e7bd b600 163c
00000070: 908d 0fbe 5c7c 30bc b125 e0bd ff8d 17be
0.15580934 0.046034534 0.07227298 -0.035087556 -0.07024632 -0.13749738 0.037955794 -0.025152223
0.068205215 0.10703009 0.060880095 -0.1682987 0.14827621 -0.00705748 -0.018806735 0.09704887
-0.13899682 -0.11803571 0.24347411 0.011400147 0.10380453 -0.059215557 -0.13618296 0.060427822
-0.09672403 0.13553615 -0.11303726 0.009155443 -0.14018846 -0.010771837 -0.10944689 -0.14800261

bn1.weight f4 [32]
00000000: 8a12 863f 35c4 863f 6ec6 643f 3f8d 883f
00000010: d1ad 663f 734c 6a3f f688 813f 8843 6f3f
00000020: fe35 7a3f 221e 623f 1613 883f 22e9 913f
00000030: 2264 743f 8f9c 833f c0de 5b3f 46af 753f
00000040: 0850 893f 4cac 733f 5910 793f 0807 823f
00000050: 1d41 7e3f bd62 823f b9a4 883f 4f52 7d3f
00000060: b1c8 8d3f 3713 823f a47f 733f d9f3 713f
00000070: e932 7b3f b00f 6d3f 065e 7c3f 4a0e 833f
1.0474408 1.0528628 0.8936528 1.0668105 0.9010897 0.915229 1.0119922 0.9346242
0.97738636 0.8832723 1.0630825 1.1399271 0.9546529 1.0282153 0.85886765 0.9597057
1.0727549 0.9518478 0.9729057 1.0158396 0.99318105 1.0186383 1.0675269 0.9895372
1.1076871 1.0162114 0.9511664 0.94512707 0.9812456 0.9260206 0.9858097 1.0238736

bn1.bias f4 [32]
00000000: 3df0 2d3c 3342 ca3c 8b5d 96bd d6a8 a43d
00000010: 5932 d3bd de30 19be b676 18bd 3c43 fe3b
00000020: a55d d5bc f0fa 10be 9c37 0d3d adaa 1c3e
00000030: 02a5 32bd 7e05 523c dfe7 e8bd e697 c6bc
00000040: 1a1e b63d 2aed 5fbd dbdf 0abd b46f a93a
00000050: f8d7 fabb 6655 803c 6e90 813d 6543 a1bb
00000060: 48d4 c53d ffe8 36bc 8144 aebd d41b 6cbd
00000070: 2c10 89bd 846c adbd be48 d8bb 1615 5d3b
0.010616359 0.02468977 -0.07342061 0.080400154 -0.103123374 -0.14960048 -0.037222587 0.00775948
-0.02604563 -0.14158225 0.03447686 0.15299483 -0.043614395 0.012818692 -0.11372351 -0.024242353
0.0889246 -0.054669537 -0.03390489 0.0012926967 -0.00765514 0.015665721 0.06326376 -0.004921364
0.0965963 -0.011163949 -0.0850916 -0.057643726 -0.06692538 -0.08467963 -0.0066004684 0.0033734492

bn1.running_mean f4 [32]
00000000: 5191 953f 4a29 91bf 73de c03e 10c0 333e
00000010: e24c 51be 5ce0 14bf 7252 553d 225d 1e3e
00000020: 0690 a43f f18b 48bf 4417 0a3d 8d37 483f
00000030: 4120 223f 28ee 9a3e 0792 cbbe 5d18 b4be
00000040: 9748 d13d 5d19 c6bf f9b5 f2be 14ac 4bbd
00000050: f1e6 80be 2605 513f e894 febe 65df 09bf
00000060: f07a b03f e0d2 6fbf d5ee ae3f dee0 4f3d
00000070: b290 0a3f a284 b93e 554c 4d3f 63e1 1cbf
1.1684972 -1.1340725 0.37669715 0.17553735 -0.20439485 -0.58154845 0.05208058 0.15465215
1.2856452 -0.78338534 0.033713594 0.78209764 0.63330466 0.30259824 -0.39759848 -0.35174838
0.102189235 -1.547649 -0.4740446 -0.049724653 -0.25176194 0.8164848 -0.4972298 -0.538565
1.3787518 -0.93681145 1.3666636 0.05075156 0.5412704 0.36234003 0.801946 -0.6128141

bn1.running_var f4 [32]
00000000: f89f de3d 1458 793d 22e7 be3c c344 323d
00000010: 1d39 323e c705 173e 850f a63d 5ea8 1b3e
00000020: d3f3 143d f06b e63d b56c 8c3d c213 943d
00000030: d94b 633d 7f22 283d 2240 333d 3e29 3b3d
00000040: 29a0 643d 6227 1b3e f28e 7d3d 9e7d 003d
00000050: 37e1 7f3d 217e fb3d 3e56 693d a17f af3d
00000060: 7801 d43d b4c8 863e 7d41 fb3d d03f 3b3d
00000070: 3450 033d 7d98 973d b869 093d 04fe 2d3d
0.10870355 0.060875013 0.023303572 0.043522608 0.174046 0.14748298 0.08108429 0.15200946
0.03636534 0.11251056 0.06856672 0.07230331 0.055492256 0.041048523 0.043762334 0.04569363
0.055816803 0.15151742 0.0619039 0.031369798 0.06247064 0.122799166 0.056967013 0.08569265
0.10351843 0.26325 0.1226835 0.045715153 0.03205891 0.07402132 0.033548087 0.042478576

fc2.weight f4 [64, 32]
00000000: 413b 073d e815 223e 7ab7 e43d e155 543c
00000010: b2dc 8fbd 2e10 383e d018 683c e2cf 8abe
00000020: c8b0 69be 9988 4cbe d671 773d a02d 863c
00000030: 15e9 723c 89d4 95bd e12e e9bd a7b3 9b3d
00000040: 64dd d63d 8f4c 263d 88bf 73bd 38c1 253d
00000050: 0bed d83d e84a 33be c50c 1fbe 4fdb 323e
00000060: 770c 20be 5f70 043e c920 48bc effa 973d
00000070: 3352 7abd 477d a8bd 71c5 573e d841 2f3d
00000080: af11 b33d 3da9 23be ad45 65bd ee2a a8bd
00000090: 0a72 7f3c d4eb f43d 0cb0 103e 0e69 313e
000000a0: 0414 f8bd 5d8c 2e3d 1cc4 d1bb 3789 0a3d
000000b0: 53d6 b43d b227 05be 0c44 0a3d 04d1 fcbd
000000c0: 0d49 e73d 70f2 073e 132a 9c3d 4b24 0ebe
000000d0: fb9a 0dbd 8d7f 96bd b2e9 703e d946 afbd
000000e0: 8963 013e be7b 4cbe 4528 5fbc 8894 60be
000000f0: 2ce0 303e 8c86 d53c 8d5a 8ebd 9d44 14be
00000100: ffa4 69bd 2539 90bd 6b17 cabb 5230 333d
00000110: 5299 6b3e 65cd 573e 441e 573e 2410 8e3c
00000120: 6689 7f3d 53a7 923d 75cb b1bd 4d80 0a3e
00000130: 8f81 9a3d 8df8 993d cb05 b33c 217a 5e3d
00000140: 51a6 773e 308e a93d 8079 8ebd 1577 293e
00000150: 5bd7 df3d f87f 1b3e bb2f cdbe 1854 37bd
00000160: 9a9b 7a3e 4c98 ed3d c80a 28bc 6bda 0ebe
00000170: 8c8f 343e 99c5 493e 0232 cabd 64c9 863d
00000180: d9f7 c23d 1855 673b 59ba a1bd 3967 403d
00000190: f017 2d3d 8583 463e e567 3d3e 4300 ddbd
000001a0: 6d46 e2bc 4b37 3f3e 873d 013e e67e 51bd
000001b0: cf0b c93d e5b2 65be 1b66 983d e179 b43d
000001c0: 4015 683e e8f2 133d d030 3dbd c75e b1bd
000001d0: 8684 2f3e d645 c0bd 82f2 58be 85a5 133e
000001e0: 4759 003e b27e c4bd c4ff 4f3d 4cda 673d
000001f0: f74a 973d 475c 983d 5ed1 c4bd 0918 283d
00000200: c170 96be 0c5e e8bd fe80 9cbd ac9d 39be
00000210: 5f48 f3bd 018e 4bb8 8a29 cebc 712b 833d
00000220: ac61 a9be 062f 40bd 71c9 9cbd 20d4 42bd
00000230: 4e4b 0abe 47fd 953c 774b 3d3d 9aa0 35bc
00000240: 7397 b3bd 4f52 0a3d 4710 8c3d edb7 81be
00000250: 7261 7ebe a304 4b3e 8aec b73d 8fc7 cabb
00000260: cdb9 81be 8259 573d 3ca9 07be 21a7 87bd
00000270: 2e64 65be f45c 1b3e f433 2bbe 40b3 903d
00000280: 26f6 2a3e c0c9 a43c 4624 e53c a259 3c3e
00000290: 3b92 1f3e 85e6 8c3e 9aed 98bc 332c 0e3d
000002a0: 0e82 913e 8463 4d3d 4fe6 83bd 81b5 223e
000002b0: 4531 693e 5779 a53d 8893 ecbd cfe9 953c
000002c0: a9e8 d0bd 00a0 81bd 9513 85bd 0b19 373e
000002d0: eac4 8d3d 512a 1bbe eb7a dabd b391 2a3d
000002e0: b368 543e 7ce2 3b3d dfc0 f13c 4035 d53b
000002f0: 056d 583e 6244 01be bf72 ec3c 44ba 7f3d
00000300: 2485 c5bc ff83 8fbd f136 463e ad6a 083e
00000310: 870b 01bc 9688 013e 81ed c93b 5ba3 893d
00000320: 6ff5 6f3d 1ea3 153e 5473 20bc 366a ecbc
00000330: f443 47be 8b99 5f3b 3fd9 3e3e 95a2 913e
00000340: 94ee 9bbd 2175 86be c524 43bd 6cdf c4bc
00000350: 243d 1e3e 297a 3abe b00b 523e 0a11 703e
00000360: afbd 53bd ba9a c13c 9438 a63c f201 053e
00000370: 003f 103e 3b67 c63c f726 373d b913 34be
00000380: af1c bd3c 57ab 3bbe 47ca a13d ebd2 afbd
00000390: 41b8 bd3c c0f8 3fbd 86dc 14be 7cb3 a83b
000003a0: a2de 11be acdb 853c 9ac5 1abe 42e6 00bb
000003b0: 64b1 103e 00e9 44be 43bc d93d 8e38 2bbe
000003c0: 9a6d 053e 6463 763d 2607 39bd 31a5 3f3d
000003d0: e301 a0bd 4c39 c43d 8190 42bd 705a bbbd
000003e0: de83 b4bd e7ec 08be c4be ae3e 9191 293e
000003f0: 4a56 673d 9582 d03c 88be 47be 4d49 acbb
0.033015493 0.15828669 0.11167808 0.012959928 -0.07024516 0.17974922 0.014166072 -0.27111727
-0.22821343 -0.19973983 0.060411297 0.016379178 0.014826079 -0.073159285 -0.113858946 0.07602625
0.10491446 0.040600356 -0.05950883 0.04046747 0.10592087 -0.17509043 -0.15532215 0.17466472
-0.15629755 0.12933491 -0.012214848 0.07420909 -0.061113548 -0.0822702 0.21071412 0.042787403
0.08743607 -0.15982528 -0.05597465 -0.08211313 0.015591154 0.11959043 0.14129657 0.17325231
-0.12113193 0.04261433 -0.006401552 0.033822265 0.088299416 -0.13003424 0.0337563 -0.12344554
0.1129323 0.13276076 0.076252125 -0.13881032 -0.03457163 -0.07348547 0.23526648 -0.08558435
0.12635626 -0.19969079 -0.013620441 -0.2193166 0.17273015 0.026065134 -0.06950865 -0.14479299
-0.05704212 -0.070421495 -0.0061673424 0.043747254 0.23007706 0.21074446 0.21007639 0.01734168
0.062386893 0.07160821 -0.086813845 0.13525505 0.075442426 0.075181104 0.021853348 0.05431569
0.24184538 0.08279073 -0.06956768 0.16549332 0.10929748 0.15185535 -0.40075478 -0.044757932
0.2447342 0.11601314 -0.010256477 -0.13950507 0.17632884 0.19704284 -0.098728195 0.06581381
0.095199294 0.0035298523 -0.07896871 0.04697344 0.042259157 0.19386108 0.18496664 -0.107910655
-0.027621472 0.18673436 0.12621127 -0.05114641 0.098167054 -0.22431524 0.0744135 0.08812309
0.22664356 0.036120325 -0.04618913 -0.086606555 0.17140397 -0.0938832 -0.2118626 0.1441861
0.12534057 -0.09594478 0.050781026 0.05660467 0.07387345 0.074394755 -0.09610246 0.041038547
-0.293829 -0.11346063 -0.07641791 -0.18126553 -0.11879038 -4.8531223e-05 -0.025166292 0.0640477
-0.3308233 -0.046919845 -0.076556094 -0.04756558 -0.13505289 0.018309249 0.046214547 -0.011085654
-0.08769121 0.0337699 0.06839042 -0.25335637 -0.2484186 0.19825988 0.08980663 -0.00618834
-0.25337067 0.052575596 -0.13248152 -0.06623674 -0.22401497 0.15172178 -0.16719037 0.07065439
0.1669546 0.020115733 0.027971398 0.18393567 0.15583126 0.27519622 -0.018667985 0.03471012
0.28419536 0.050143734 -0.06440412 0.15889551 0.22772701 0.08079784 -0.11551577 0.018299965
-0.102006264 -0.06329346 -0.064978756 0.17880647 0.06922324 -0.15152861 -0.10667976 0.041642856
0.20743065 0.04587029 0.029510913 0.006506592 0.21135338 -0.12623742 0.028863309 0.062433496
-0.024111338 -0.07007598 0.19356896 0.13321944 -0.0078762835 0.1264976 0.006162346 0.06720611
0.058583673 0.14613006 -0.009793121 -0.02885924 -0.19459516 0.0034118618 0.1863756 0.28444353
-0.076138645 -0.26261237 -0.047642488 -0.024032317 0.15453011 -0.18210663 0.20512271 0.23444
-0.05169457 0.02363335 0.02029065 0.12989023 0.14086533 0.024219146 0.044714894 -0.17585649
0.023084966 -0.1832708 0.078999095 -0.08585151 0.023159148 -0.046868086 -0.14537248 0.0051483493
-0.14245084 0.0163401 -0.15114442 -0.0019668494 0.14130169 -0.19229507 0.10631611 -0.16720793
0.13030091 0.06015338 -0.045172833 0.0467884 -0.0781286 0.09581241 -0.04750109 -0.09148109
-0.08814214 -0.13371621 0.34129918 0.16559435 0.056478776 0.025452891 -0.19506276 -0.0052577616

fc2.bias f4 [64]
00000000: 80fe 433e 780c ee3d 043f 3abd a1cb 39bb
00000010: cc38 4239 c34f 11be d7a8 dcbd 0134 d73c
00000020: e701 6f3d 53cd 5d3d 901f da3d d5fd 9d3d
00000030: ded6 113e 2a2a 343d c8eb 1abc c7a8 46bd
00000040: 23af 3c3d 97f5 083e 7909 213d e9dc 30be
00000050: e9c7 3dbd c00a 983c d636 00bd 9ac7 3bbe
00000060: 8c76 76bd 9d2f e7bd e43c 0cbe 8e53 1f3e
00000070: 99d2 8fbd 8854 c53c 7109 c3bd 81ef d53d
00000080: a34b 9dbd 0876 12be f485 1f3e e707 c4bb
00000090: 8398 0f3b dd1f 33bd 0f5e 1bbd e69d f0bb
000000a0: 06a8 d53d 8deb 57bd cfce ffbb 51fd d43d
000000b0: 5b48 10be 65d5 14be 8602 193c b064 f53c
000000c0: 898c 2abd a909 f6bc 23f3 25bd b8b8 c83d
000000d0: 8f8c 823d 7e99 13be 0431 35be 3406 a3bd
000000e0: 85ce 1d3e 3268 41bd 0758 1d3e 6bde 82bd
000000f0: 74a1 efbc fd3b 1b3e a1c9 38be 385e 0bbe
0.19140053 0.11623472 -0.045470253 -0.0028350132 0.0001852244 -0.14190583 -0.10774391 0.026269915
0.058351424 0.05415089 0.10650551 0.0771443 0.14242122 0.043985523 -0.009455629 -0.048500802
0.04606546 0.13374935 0.039315674 -0.1727177 -0.046333227 0.018559813 -0.031302296 -0.1833786
-0.06017165 -0.112883784 -0.13695103 0.15559217 -0.0702259 0.02408816 -0.09523285 0.10446072
-0.07680442 -0.14302838 0.15578443 -0.0059823873 0.0021910972 -0.04373156 -0.0379315 -0.0073430417
0.104324386 -0.052714873 -0.007806636 0.10399879 -0.14090101 -0.14534529 0.009338981 0.029955238
-0.04163793 -0.030033903 -0.040515076 0.09800857 0.06374466 -0.14414021 -0.17694479 -0.079601675
0.15410812 -0.04721851 0.15365611 -0.06390079 -0.029251792 0.15159602 -0.18045665 -0.1361016

bn2.weight f4 [64]
00000000: 433f 743f 135b 743f 045c 773f 5eb1 573f
00000010: 7c3d 873f 1aa4 843f b682 7f3f 29a7 983f
00000020: 906e 843f fab5 813f b878 683f 8bcc 8a3f
00000030: 3a6f 703f 6bfa 793f 2419 8a3f 399e 833f
00000040: 8d62 713f f6e8 853f fed2 843f 6f8c 733f
00000050: 4b1a 7c3f d0bb 8a3f 4a18 823f 057d 783f
00000060: 505e 863f ada6 6b3f 1c38 953f c97b 743f
00000070: bcee 803f 1238 823f 6ca3 743f 8ca8 713f
00000080: b749 5a3f fd69 853f c367 7b3f 0c0e 863f
00000090: d8a2 6a3f 5ec0 6d3f b119 7c3f 03a3 843f
000000a0: a7e9 763f f0ef 7d3f 45a6 833f 6eba 823f
000000b0: 8f9c 793f db24 743f fa79 683f 9efd 883f
000000c0: 73f3 763f d49c 923f e7d8 8a3f 495b 873f
000000d0: a832 803f 20c2 8c3f 0f7c 7a3f 52bc 7f3f
000000e0: 6a8d 813f 7a11 863f d0ab 8b3f 82df 703f
000000f0: f3f0 943f b133 8d3f d41f 693f e9ec 6b3f
0.9540903 0.9545147 0.9662478 0.84255016 1.0565639 1.036258 0.99808824 1.1926013
1.0346241 1.013366 0.908092 1.0843672 0.9391972 0.9764773 1.0788922 1.0282661
0.94291 1.0461719 1.037689 0.9513616 0.9847762 1.0838566 1.0163662 0.97065765
1.0497532 0.920512 1.1657748 0.9550138 1.0072856 1.0173361 0.9556186 0.9439781
0.8526873 1.042297 0.982052 1.0473037 0.9165473 0.92871654 0.984767 1.0362247
0.96450275 0.9919424 1.0285116 1.0213144 0.97504514 0.95368737 0.9081112 1.0702398
0.96465224 1.145411 1.0847443 1.0574733 1.0015459 1.0996742 0.9784555 0.9989673
1.0121281 1.0474083 1.0911808 0.94091046 1.1636032 1.10314 0.9106419 0.9215837

bn2.bias f4 [64]
00000000: 5380 0bbe 2670 8ebd 99de 26be 0c74 30be
00000010: 2158 d1bd 53e3 35bd 04d8 86bd 4dc2 fb3d
00000020: 92d8 853d f680 cebd 0055 49be a796 d43c
00000030: 255a 3fbe 70ae 8ebd 6540 65bd 25f7 dd3a
00000040: a619 03be c0c9 0e3d a0af 1a3d 1cb6 2bbd
00000050: 7838 af3b 4ab3 b53d 4479 97bc cb13 0cbd
00000060: b491 0e3d e95c d4bd 98bf fa3d dbd4 ffbd
00000070: c0d9 01be 2ffd b23d c822 f2bd d416 96bd
00000080: 3dd4 f2bd 081a e73c 4213 65bd 0908 383d
00000090: 9691 07be bf27 e6bc 551f d03c 21ce 173d
000000a0: 4b67 80bc 4399 c9bd 7bbc 053d 9bad 363c
000000b0: abcb 77bc 797c fdbd 4bd1 edbd 84a1 f3bc
000000c0: c694 68bd 68fb babc cf16 ce3d cc65 473d
000000d0: 7091 d0ba 0e8e 5c3d b72a 3fbe bc15 763c
000000e0: b59e 67bd 31d5 1b3d a00f 2ebd 119a 0fbd
000000f0: 1e1f 7cbd a81b 573d 3da2 95bd bd30 d8bd
-0.1362317 -0.06954984 -0.16295852 -0.17231768 -0.102218874 -0.044406246 -0.065841705 0.12292919
0.06535448 -0.10083191 -0.19661331 0.025950743 -0.18686731 -0.06966865 -0.055969615 0.0016934617
-0.12802753 0.034860373 0.037765145 -0.04192172 0.005347308 0.08872087 -0.018490441 -0.034198564
0.034806922 -0.10369284 0.12243575 -0.12491771 -0.12680721 0.08739697 -0.1182304 -0.07328573
-0.118568875 0.028210655 -0.05592657 0.044929538 -0.1323913 -0.028095124 0.025405565 0.037061814
-0.015674254 -0.098436855 0.032650452 0.011149789 -0.015124242 -0.12377257 -0.11612185 -0.029740103
-0.056782506 -0.022824958 0.10062944 0.048681065 -0.0015912484 0.05384641 -0.18668638 0.01501983
-0.05654784 0.038045112 -0.04249537 -0.03505904 -0.061553113 0.05251661 -0.07306335 -0.10556171

bn2.running_mean f4 [64]
00000000: 3879 183e fc92 003e 3286 413e 0260 523d
00000010: 973f babe b210 043e 5b52 43bd c7f7 b8bd
00000020: d223 943a 5736 763e 8d88 673d ad01 883d
00000030: 7469 c03d cd94 91bd f2be debd 86e8 71be
00000040: 292d 2f3d eb56 28bd f3b9 9b3e 799a 3bbe
00000050: 6eee 07be c2bc 93bb 5f9b db3a 98d9 bfbe
00000060: 4b4d 94be 2b1c 1d3e 93ba 80bd 4123 b3bd
00000070: ad61 253e 63db 783d 6537 8ebe 74f6 9e3d
00000080: ca54 6abd 532a 1cbe e5fd a63e 39be 04be
00000090: 9019 a83d d008 69be 6d1b 80b9 99e2 6abd
000000a0: eed6 ee3d 34d5 ab3e 13fc 06be 3f64 633e
000000b0: 0fba 2ebe 1b1b cd3a 1a1f 8abe 31e3 c33e
000000c0: ed17 8a3c c570 a4be bf9e 9dbc db1c 6a3c
000000d0: c015 5f3d 9e4c 50be e575 b83d 3d6f f8bc
000000e0: 731a e13d be1f 893c 4dec 1abe 0886 3cbe
000000f0: c629 c7bd fde1 6b3e 5fad 593e 4b4d 69be
0.14889991 0.1255607 0.18898848 0.05136109 -0.3637664 0.12896994 -0.047685962 -0.09031635
0.0011302179 0.24044167 0.05652671 0.06640945 0.093951136 -0.071084596 -0.10876264 -0.23623857
0.042767677 -0.041098516 0.30415305 -0.18320645 -0.13274547 -0.0045085857 0.0016754678 -0.37470698
-0.2896522 0.15342776 -0.06285586 -0.087469585 0.16150542 0.0607561 -0.27776638 0.07761851
-0.057209767 -0.1525052 0.3261558 -0.12963189 0.08208001 -0.22757268 -0.00024434496 -0.057345007
0.11662088 0.335611 -0.13182096 0.2220621 -0.17063163 0.0015648337 -0.26976854 0.3825927
0.016857112 -0.32117286 -0.019240735 0.014289106 0.0544641 -0.20341727 0.090068616 -0.03032648
0.10991373 0.016738769 -0.15129204 -0.18410504 -0.097247645 0.23035426 0.21257542 -0.22783391

bn2.running_var f4 [64]
00000000: 537c b53f 0c73 6f3e 4610 063e 2be2 6a3f
00000010: d2c7 aa3e 9ac6 343e 6f62 de3e fc46 6c3f
00000020: c0c3 d13f 7905 563e bc65 493e 5326 4d3f
00000030: 7be7 0c3f 4f0c b33e de16 233f 4725 723f
00000040: d560 5f3e 5fcd ac3f 8467 913e ca76 213f
00000050: 1ec0 a63f 4074 353f 1339 423f d7d6 433f
00000060: 1eea 953f a1e4 883e b710 783f f4ba 533e
00000070: 8fbd 6f3e 128a 113f 3021 a93e c1e8 9a3f
00000080: 94e9 fa3e 9327 2e3f 72ae 7c3e 3107 203f
00000090: 92a5 db3e 2f1b 2b3f 4c10 433f acdc 333f
000000a0: 3c10 e93e d2c3 0b3e b3b4 8c3f 8a71 c73e
000000b0: 4326 993e de2f 833e 80a1 413f df16 cf3e
000000c0: 3d56 073f 331f 533e 3e4c 023f 6b5d 4a3f
000000d0: 2153 093f 25e8 d23e 3446 003e 84e1 2f3f
000000e0: e63b a13f 8748 af3e 909a 233e 6067 f53e
000000f0: 98bd 633e 6f26 783f 58ee 2b3f 0165 363f
1.4178566 0.2338373 0.13092145 0.91751355 0.33355576 0.17653885 0.43434474 0.92295814
1.6387863 0.20900525 0.19667715 0.80136603 0.5504071 0.34970328 0.6370677 0.9458813
0.21814282 1.3500174 0.2839929 0.6307188 1.302738 0.7088051 0.7586834 0.76499695
1.1712072 0.2673693 0.96900505 0.20676786 0.23412155 0.56851304 0.33033133 1.2102281
0.4900633 0.68029135 0.2467592 0.62510973 0.42899758 0.66838354 0.7619674 0.70258594
0.45520198 0.13648918 1.0992645 0.3895381 0.29912004 0.25622457 0.75637054 0.40447137
0.52865964 0.2061737 0.50897586 0.79048795 0.5364247 0.41192737 0.1252678 0.68703485
1.2596405 0.3423502 0.1597693 0.4793043 0.22240293 0.96933645 0.6716056 0.7124787

fc3.weight f4 [32, 64]
00000000: 3e9b 24bd e224 2bbc d86d a4bd 68a5 ccbd
00000010: 9ba6 64bd bc31 a6bc fde1 ffbd 00b5 8e3d
00000020: 60f9 703d 74de 1abe c7e1 ebbd 3dee a5bd
00000030: 2f68 e13d 7123 c3bd aad7 0c3e e8de 8cbd
00000040: 9447 96bd 4bd6 8ebb a440 0e3e c951 943d
00000050: 9715 95bd 006e 5cbd 8d14 ed3d 5aec c4bc
00000060: 8a9b 0ebd ef79 ccbd 6855 903d 8b2b 323d
00000070: 4e05 14bd ba61 3cbc 9030 1dbd 168a e4bd
00000080: ac67 5bbc 5c6b de3c 65eb edbd dd84 5ebd
00000090: 8ae7 11bd d85a 66bd d967 473d ec03 8dbd
000000a0: b607 a13d 3c3a 3fbd 9ee1 bcbd 91e0 e0bd
000000b0: f302 c6bd b862 0abe 03c6 ec3c 79f6 f1bd
000000c0: 9200 3f3d cde9 23be 06b3 39bd 9189 133e
000000d0: add2 f5bc 0e9a 303d 4a5a e63b 68b0 77bd
000000e0: cd4f b03d 2c79 03bd 1646 aabd c88c 22be
000000f0: 61f0 50be a66c 043d c4a3 303d c249 f63c
00000100: 2e61 183c 09b9 eabd 4e48 e23d 52dd adbd
00000110: 171f 423d 5985 c53d 7fdd 9b3d da6d 683d
00000120: 21cb 1f3d c6cb 133e 592f fb3d a67f 623d
00000130: 4422 d6bd 2f0e d43d de00 e9bd 8def 823d
00000140: d74d 263e 1554 94bd 5bb9 07be 9fc8 86bb
00000150: b3d1 c23d 8dd1 dcbd 36ea 7b3b 12bf 783d
00000160: 7863 9f3d b70c 37bd 1aaf 12be 6f6f 223d
00000170: 5c87 f23d e1d2 bd3d 2f9e 8f3d 3a96 083d
00000180: adc0 12bd 8690 b0bd 9f24 0f3e e887 00be
00000190: f534 063e ee1d c3bd 31b3 c9ba fc50 8ebc
000001a0: 009a e3bd e98f e23d 813b 43bd 00c4 5a3c
000001b0: 4f81 823c b56e cc3d eccf 00be e3c5 3abc
000001c0: 36c6 fb3d 8939 2f3e e73a 23bd 7024 35bd
000001d0: 545a 05bd dac3 a9bd 2126 513e 878e 75bd
000001e0: 37f2 213e 6154 e1bd ede0 403e c94b 17bd
000001f0: 3828 2b3e cca7 433d 3d42 86be dbab 07be
00000200: 2a41 2a3d 799e 1ebd e314 193e 7f97 753b
00000210: 5a69 bd3d 3fd6 c83c 7da6 193d 5592 e8bd
00000220: fd16 cdbd 3156 ab3d bd11 513d 32b4 393e
00000230: df92 d0bd 5aad 193e f232 4abe 9b36 a93c
00000240: 1d31 103e e3ed 28bd 0c48 e8bd 2384 0bbe
00000250: 51da 093e f15a 3c3c b916 01be aef8 2e3e
00000260: e0e8 b53d 507e 9f3c 8096 b9bd 2afe 963d
00000270: f44d 4c3e d516 3cbd 22c8 ff3d 4024 8b3d
00000280: 7708 e33d 10e4 903d 79e7 683d 6479 613d
00000290: bff9 a0bc 613f adbd a369 19bd 7141 a63c
000002a0: e524 02bd 8de9 e93c 9085 c23d df23 73bc
000002b0: 5865 c33c abaa 4f3d 99f0 8bbb 2bbb 253c
000002c0: baf5 12bc 017b 0f3e c854 32be 2daa 27bd
000002d0: b1ff 8b3a 2f09 e6bd 0ac9 073e affb b4bd
000002e0: df08 44bc 42e4 0a3d 852d db3d 84ff febd
000002f0: 03fe 933d 8c4d 2ebe 5d53 01be 10f0 ee3d
00000300: c484 7dbd eede 823d d3a1 5dbd 72e6 a3bc
00000310: 2806 4fbe b370 d8bd 7b21 3abd 45e0 7ebc
00000320: af5c 33bd edbb 8fbe f2f1 0cbd 0b7e 873c
00000330: dd20 ce3d 678c 8fbd 5403 f83d 7e7e 9dbd
00000340: 0c1d d4bd 2587 0f3e 52c6 763d 8514 393e
00000350: d47f ccbc 26af c53d 8d27 963c f249 0bbd
00000360: 8d56 b43d 5914 2c3d 39be 7bbd 4553 12be
00000370: 968a 30be 9726 98bd 3fea 8f3d 9ca3 8dbd
00000380: 7f1e 063d 47d7 133e 9f33 dabd 084e 813d
00000390: 3f65 c6bd 2460 d3ba 0601 4e3d 96fd ae3d
000003a0: 7b36 aebd 9a22 28be 95ea db3d 6a1e c5bc
000003b0: 7740 0ebd 83d1 b2bd 6a13 c03d 2ff1 8cbd
000003c0: cbb3 0abe fe86 6abe bf6c 86bd a507 1bbd
000003d0: 9101 abbc b24c d0bc e1d5 2bbe 0eb3 d7bd
000003e0: 9f26 f3bd 6d29 8b3d 4da4 17be f9f0 c5bd
000003f0: ac7f 55be ad5a 0bbe 6b25 193e c2a7 c1bc
-0.040187113 -0.010445805 -0.080287635 -0.09992486 -0.05582295 -0.020287387 -0.12494276 0.06968117
0.058831573 -0.15123922 -0.11517673 -0.08102081 0.110061996 -0.09528244 0.13754144 -0.068784535
-0.07337871 -0.004359042 0.13891846 0.07242162 -0.072795086 -0.05381584 0.115761854 -0.024038482
-0.034816302 -0.099841945 0.0704754 0.043498557 -0.03613787 -0.011497909 -0.03837639 -0.1115915
-0.0133914165 0.027150802 -0.116171636 -0.054325927 -0.035621203 -0.05623898 0.04868302 -0.06885514
0.07862799 -0.046686396 -0.092227206 -0.10980333 -0.09668531 -0.1351422 0.028903013 -0.11814589
0.046631403 -0.16007157 -0.045336746 0.14407946 -0.030007685 0.043115668 0.0070298063 -0.06047097
0.08608971 -0.03209798 -0.08314149 -0.15874016 -0.20404197 0.032330178 0.04312493 0.030064467
0.009300513 -0.11461074 0.11048947 -0.08489479 0.04739293 0.09644575 0.076106064 0.056745388
0.03901208 0.14433202 0.1226489 0.055297516 -0.104557544 0.10354268 -0.113771185 0.06393347
0.16240631 -0.072426 -0.13254301 -0.0041132714 0.09512653 -0.10782156 0.003843916 0.060729094
0.07782644 -0.04468986 -0.14324608 0.039657053 0.11842224 0.092687376 0.07012593 0.033346392
-0.03582828 -0.08621316 0.13978814 -0.12551844 0.13106139 -0.09527193 -0.0015388486 -0.0173726
-0.111133575 0.11062605 -0.04766417 0.013352394 0.0159308 0.09982053 -0.12579316 -0.011399719
0.12293665 0.17111792 -0.039851096 -0.044224203 -0.032556847 -0.08289309 0.20424701 -0.059950378
0.15815054 -0.11002422 0.18835802 -0.03693751 0.16714561 0.047767445 -0.2622241 -0.13249151
0.04156605 -0.03872535 0.14949374 0.0037474332 0.0924861 0.024516223 0.03751229 -0.113560356
-0.1001415 0.08366049 0.051042307 0.18135145 -0.101842634 0.15007535 -0.19745997 0.02065592
0.14081235 -0.04124249 -0.11341867 -0.13624625 0.13462187 0.0114962915 -0.12606324 0.17087051
0.08882308 0.01946941 -0.09061909 0.07372697 0.19951612 -0.04592021 0.12489344 0.067940235
0.11085599 0.070747495 0.056861375 0.055047408 -0.019650338 -0.08459354 -0.03745426 0.020294877
-0.031773467 0.028553749 0.09498131 -0.014840095 0.023852035 0.05069987 -0.004270625 0.010115425
-0.008969719 0.14011766 -0.17415154 -0.040933777 0.001068106 -0.112322204 0.13260284 -0.08837067
-0.011965006 0.03390909 0.107020415 -0.124510795 0.07226183 -0.1702177 -0.12629457 0.11666882
-0.061894193 0.06390177 -0.054109406 -0.020007346 -0.20217192 -0.10568371 -0.045442086 -0.0155564
-0.04378956 -0.28073063 -0.034410425 0.016539594 0.10064862 -0.070092015 0.1211001 -0.07690142
-0.10357103 0.14016397 0.060247727 0.18074234 -0.024963297 0.096525475 0.018329406 -0.034006067
0.08805571 0.042011593 -0.061460707 -0.14289577 -0.17240366 -0.074292354 0.07027101 -0.06915972
0.032743927 0.1443759 -0.10654377 0.063137114 -0.0968728 -0.0016126675 0.050293945 0.085444614
-0.08506485 -0.1641945 0.10738102 -0.024062354 -0.034729447 -0.087313674 0.09378703 -0.068819396
-0.13545148 -0.22903058 -0.065637104 -0.037849087 -0.02087477 -0.025427196 -0.16780807 -0.10532199
-0.11872601 0.06795011 -0.1480877 -0.096651025 -0.20849484 -0.13608809 0.1495568 -0.023639563

fc3.bias f4 [32]
00000000: f084 19be d50e e33d 5b94 0dbe 43a6 253d
00000010: ed8e cf3c dabc a03d 2770 52bd c650 05be
00000020: 4eaf 0f3e fd82 1fbe 9392 1d3d 9e84 033d
00000030: b904 35be c88c 8ebd 7fdf f93d ab72 183e
00000040: 57f6 353d f479 c23c 946d c2bb e01c b73d
00000050: 5353 f13d 449c 683d d754 c5bd 6442 d6bd
00000060: 6f02 cfbd 8129 3cbd 0ddf a0bc b7eb d4bc
00000070: a103 403d 73fd f9bc 810a ca3d 31dc 3f3c
-0.14992118 0.11086813 -0.13826124 0.040441763 0.025336707 0.078485206 -0.051376488 -0.13019094
0.14031717 -0.15577312 0.038469862 0.032108895 -0.17677583 -0.06960446 0.122008316 0.14887492
0.04442438 0.023739792 -0.005933473 0.08941054 0.11783471 0.05678965 -0.096353225 -0.10461882
-0.10107886 -0.04593802 -0.019637609 -0.025991304 0.04687846 -0.030516362 0.09865285 0.011710213

bn3.weight f4 [32]
00000000: f8d2 9a3f 598e 633f 2b85 703f 02c1 a53f
00000010: 921e 9f3f 7f26 ac3f 8ed4 a13f 686b 813f
00000020: 607f a03f 40bb b33f a0a7 893f 4066 9d3f
00000030: c52c c83f e834 9b3f 8d79 693f 1276 9b3f
00000040: 1c3a 793f 8c84 b33f f578 813f e031 8b3f
00000050: 660a a23f 509b a73f cf68 903f 8da7 a33f
00000060: 0ebd a03f 5dc4 a93f c221 853f b58c 783f
00000070: 3cc4 993f b17f 7b3f 9dae 803f 045c 6a3f
1.2095633 0.8888908 0.939532 1.2949526 1.2431204 1.3449248 1.2642992 1.0110903
1.2538872 1.4041519 1.075428 1.2296829 1.5638663 1.2125521 0.91201097 1.2145407
0.9735429 1.4024825 1.0115038 1.0874596 1.2659423 1.3094273 1.1281985 1.2785507
1.2557695 1.326305 1.0400927 0.970897 1.2013011 0.98241717 1.0053288 0.91546655

bn3.bias f4 [32]
00000000: 7933 013f 4d18 d2be 086b d5be 0730 0a3f
00000010: 0edd 0d3f 1146 143f 7593 043f 667a c7be
00000020: f1c0 dfbe 7a27 103f d23f bdbe 5d93 053f
00000030: 64b7 2e3f 96b8 f83e 10dd cbbe 9184 043f
00000040: e20c d9be 394b 253f 2264 dbbe 36a5 efbe
00000050: fcaf 0a3f 73ad 133f 5b63 c0be e03b 153f
00000060: 1d64 fc3e 09f3 083f 5b33 d3be 2842 c7be
00000070: 7677 103f 7af5 c5be 73ef d4be 1740 e9be
0.50469166 -0.41034165 -0.4168322 0.53979534 0.5541543 0.5791941 0.517875 -0.3896057
-0.4370189 0.56310236 -0.36962754 0.52177984 0.6824858 0.48578328 -0.39817095 0.5176478
-0.4239264 0.64567906 -0.42849833 -0.46805733 0.5417478 0.5768654 -0.37575802 0.58294487
0.4929513 0.5349584 -0.4125012 -0.3891766 0.5643228 -0.38663846 -0.41588935 -0.4555671

bn3.running_mean f4 [32]
00000000: ffd6 90be 53f8 a03d f6d9 88be b2c9 16be
00000010: 2350 33bd 7390 2f3e ef1f 92bd e124 f6bd
00000020: 27e4 bb3e ccc0 b2bd f50f cc3d 701f 203d
00000030: e60d 43be 1b4c 41bd 2d17 8f3e fc8e 7f3c
00000040: 5dee 87bd 0d23 d53c 0f7d 493d 3f67 07be
00000050: 92dd 43bd 1d5e 5cbe d804 f63d 2da1 45be
00000060: 474a cebc d7fe 603a c0ab 13be 4d2c 5fbd
00000070: bc0b f439 3925 3ebe 24a1 453b b91c 33be
-0.2828903 0.07859864 -0.2672879 -0.14725378 -0.043777596 0.17144947 -0.07134997 -0.12018753
0.36697504 -0.08728179 0.09963981 0.03909248 -0.1904827 -0.04719172 0.2794737 0.015598055
-0.06637261 0.02601769 0.04919153 -0.13222979 -0.047818728 -0.21520276 0.120126426 -0.19299765
-0.025181903 0.0008582896 -0.14420986 -0.054485608 0.0004654805 -0.18568887 0.0030155862 -0.17491426

bn3.running_var f4 [32]
00000000: 25a7 3c3f d2a6 6b3f 4c34 1a40 cb58 313f
00000010: 4072 113f ef39 083f 3403 323f 5c0e 723f
00000020: 7340 2b3e 4752 063f f063 3b3f cdd7 0d3f
00000030: fb34 163f 80cb b13e 6969 363f fa23 c33e
00000040: 33c1 053f 8fcf a23f b5e6 a03f 2601 b13f
00000050: 87de 2b3f b5b6 e13e 0bce 313e 683f 713f
00000060: e1a8 0e3f 46e8 293f 2863 c63f 61e3 a93f
00000070: ef75 da3e 249d 723f 831b bc3f ecbb 7a3f
0.7369254 0.9205142 2.409442 0.6927611 0.56814957 0.532134 0.6953614 0.9455316
0.16723804 0.52469295 0.7319937 0.5540741 0.5867459 0.3472557 0.71254593 0.38113385
0.52247924 1.2719592 1.2570406 1.3828475 0.67136425 0.44084707 0.17363755 0.94237375
0.5572644 0.66370046 1.549901 1.3272516 0.426681 0.9477103 1.4695896 0.97942996

fc4.weight f4 [1, 32]
00000000: 8600 bcbe 0a21 e73d 4930 2b3e 0625 e2be
00000010: 7777 9abe c85b ebbe 4dce c0be 62b2 8c3e
00000020: b3c0 c43e c54a e0be 45e4 cd3e 18fb bfbe
00000030: 3438 02bf 41fd a3be a1f2 d23d fa65 cbbe
00000040: be56 7f3e 2a20 cbbe f319 183e f912 393e
00000050: d01b cdbe 76ff 91be 07f0 c73e cd53 78be
00000060: aefb c8be d380 c4be 0793 383e 5cd1 6a3e
00000070: b0a7 5dbe 4bb5 7d3e 69a5 893e d970 bd3d
-0.3671915 0.112855986 0.16717638 -0.44168872 -0.3016927 -0.4596846 -0.37657395 0.27479845
0.38428268 -0.43807045 0.40213218 -0.37496257 -0.5086701 -0.32029155 0.10300184 -0.3972624
0.24935433 -0.39672977 0.14853649 0.18073644 -0.40060282 -0.28515214 0.39050314 -0.24250717
-0.39254516 -0.38379535 0.18024836 0.22931427 -0.21645999 0.24776189 0.2688401 0.092500396
