src/falldetector/falldetector/checkpoints/model.pt (torch, 53492 bytes, 5 tensors)

fc1.weight f4 [128, 34]
00000000: 764e cebe f0ae 7dc0 3bf4 b43e 37e1 46c0
00000010: 276e 32bf 463a 8ac0 72e9 dd3e 7d17 c7bf
00000020: a2c7 953d dda5 c4bf 0091 ac3e 1c28 69bf
00000030: 657d aebe 6935 e3bf 25f5 cf3e c67b 15bf
00000040: 3e81 443d 13ef 9dbe 5b6d a33c 52b7 a83e
00000050: dc07 2a3a 9e1b 9c3f 7370 4a3f 8e18 a6bc
00000060: 4782 6c3e 74a5 24be 85a7 893e c31a 133f
00000070: 8b93 d23d ebe1 af3e d075 f23d 1bb0 1d3f
00000080: 336d 923c eff0 17bd 32f7 1b3b 0a67 5ebe
00000090: f7f8 52bd 07c7 19be 4c29 a0bd 99a2 453a
000000a0: e510 753e 4119 73bd a57d 88be 76e3 aabe
000000b0: 80b4 78bd cc8e 6fbe 783f bebe e11c 6cbe
000000c0: 40b6 05be a89c 9abe dd5b b1be 9e5d b6be
000000d0: a078 2ebe cfe7 383d 2f2d 07be bf0a 07be
000000e0: ba1a 34be 25b0 cdbe ab7d dfbd 14ed 1ebe
000000f0: e39a 52be a61e c9be 37ba 01be 2365 25be
00000100: 406f 6dbe 37db 80be 3f2d cfbe b2a4 3cbe
00000110: bba5 03bf 2dfe fdbf 12a5 4abf 43a1 b7bf
00000120: 3342 cfbe 666e 84bf c4df 7e3d a8f4 8cbf
00000130: f0f3 8c3e fb60 abbf 4c1e 113e 475b 1bbf
00000140: 5103 8cbe c4e8 8ebf 19d3 553d a4da dabd
00000150: 0fb5 89be 9b78 a5be d921 603e e57c 9d3e
00000160: cbf0 6abe 38a4 4fbd 2f85 703e d75a 07be
00000170: dcee 71bd 5143 023e 3cf8 97be 66b0 133c
00000180: d88e 11bc d89e 963e bdb9 4cbe 0409 543e
00000190: 2368 c5bd de8d f33d 6a74 89bf 3804 01c0
000001a0: 9d17 8abf 6f30 bdbf b251 5abf 3ddf f8bf
000001b0: 75ac 713f 5892 46c0 924e 993f 9877 59be
000001c0: 8733 463e 130c c9bf c157 473e b83c 22bf
000001d0: a8ea 353e d5b8 9f3d 9b59 603d 3eb2 7dbe
000001e0: bedf 7bbf 4e6d b6bf 0daf 50bf 7a1c 02c0
000001f0: 432d e63c c7c2 2f3e 65a9 8e3e 3b5f db3e
00000200: b901 1fbe 39ae 5e3f cb91 a93d 58ee 213d
00000210: 4599 06be 3c28 a7bf 5d6a 14bf e64d cabf
00000220: c5a1 85be 5e28 64bf 80d3 b43e 63dc e4bf
00000230: 9127 c8be 1278 98bf 070d 5bbe b5d6 02c0
00000240: 00d3 d93e fef2 9abf dcda e83e d5e2 ffbe
00000250: 16c5 bc3e 1c8f cbbe e095 f53e d78e 253f
00000260: 338a f73e 1515 a73b e14b 63bc dbb6 fe3e
00000270: 161b 183f ccd3 04bf f99e c73d 9304 c03e
00000280: a830 5fbd 8f99 98bd 39d7 a5bf f99b 09c0
00000290: d225 f0bf 647d ff3e 6e02 e2bf 47d2 c7bf
000002a0: e25c f2bf 723c d7bf 59ac 7f3d 1531 14bc
000002b0: 2e04 403e 171f 49be 0af8 9a3d 164c 223e
000002c0: 2218 20bd ab1c e3bc 499f a13d fc9b 193d
000002d0: c708 a8bd f3d4 34be d050 2dbe 0d04 39be
000002e0: 4650 03be cf43 48be b823 d5bc 9291 223e
000002f0: ce94 9d3d e20f 74be 0ea8 0cbe 886b 3abe
00000300: df03 7cbe 4812 83be 0b18 203c 6545 88be
00000310: a9a5 76be 3eea a9bb 6933 f5bd 49ab 1a3d
00000320: 1df2 90be 03ba 9fbd 5fa8 99bd 6c32 0b3d
00000330: 8710 4a3c d14b 1fbf 9529 8ebd 2260 e4be
00000340: e2da febc 9a71 15bf 158f dd3d 612a 23be
00000350: 394f 873d 64e9 1cbd 5697 37be fcc3 d0be
00000360: b2fa 583c 5658 90be fcce 1dbe 5afd 3fbe
00000370: 5b8b 32bd cea9 05be ee2a d6bd ebec 91bd
00000380: e716 64bd 180b 4bbd 9bb9 5cbe 0e91 babe
00000390: eaf1 e0bd b355 81be 3055 92be 0c3b 21bd
000003a0: 57a8 9fbd f35c 763e 4486 48be 8f4c af3d
000003b0: a837 ecbc b14b 0a3e 6b30 07be d0ea 16bf
000003c0: adcc 7a3e 3bdf 453e 845b 78bd cb88 69bd
000003d0: 3949 36be 9eb0 4e3e 3933 c9be e78d 33be
000003e0: 4037 95be 7e42 053f ef4c f3be 8b69 36bd
000003f0: 5828 1abf a1e0 38bf e722 d3be fe33 e4bc
-0.40294236 -3.9638023 0.35342583 -3.107496 -0.6969933 -4.3196135 0.43342167 -1.5554043
0.073134676 -1.5363117 0.33704376 -0.9107683 -0.34080043 -1.7750674 0.40616718 -0.5839199
0.047974817 -0.30846462 0.019949606 0.32952362 0.00064861565 1.2195928 0.79077834 -0.02027538
0.23096572 -0.1607874 0.2688562 0.5746271 0.10282048 0.3435205 0.11838877 0.6159684
0.017874336 -0.037095007 0.0023798463 -0.21718994 -0.051506963 -0.15017329 -0.07820377 0.00075391826
0.23932226 -0.059350256 -0.2665836 -0.33376664 -0.060719013 -0.23394316 -0.37157798 -0.23057891
-0.13057804 -0.30197644 -0.346404 -0.356183 -0.17038202 0.045142945 -0.1320083 -0.13187693
-0.1758832 -0.4017345 -0.10912641 -0.15520126 -0.20566897 -0.39281195 -0.12668692 -0.16151862
-0.2318697 -0.25167248 -0.40464208 -0.18422201 -0.5142476 -1.9843193 -0.7915813 -1.4346088
-0.40480193 -1.0346191 0.06222512 -1.1012163 0.2752986 -1.3388971 0.14171714 -0.60686153
-0.2734628 -1.1164784 0.05220327 -0.10686234 -0.2689595 -0.32318577 0.21887912 0.3075935
-0.22943418 -0.05069372 0.23488306 -0.13218246 -0.059065685 0.12720992 -0.29681575 0.009014225
-0.008884154 0.29418063 -0.19992729 0.20706564 -0.09639003 0.118922934 -1.0738652 -2.0158825
-1.0788456 -1.4780406 -0.8528091 -1.9443127 0.94403774 -3.102682 1.1977103 -0.21237028
0.19355594 -1.570681 0.19467069 -0.633739 0.17765296 0.07798926 0.054772954 -0.24775025
-0.9838828 -1.4252107 -0.81517106 -2.032988 0.028097754 0.17164145 0.27863613 0.42846093
-0.15528001 0.8698459 0.08279761 0.039533943 -0.13144405 -1.3059154 -0.579748 -1.5805023
-0.26099983 -0.89124095 0.35317612 -1.7879757 -0.39092687 -1.1911643 -0.21391688 -2.0443547
0.42543793 -1.2105405 0.45479476 -0.49977747 0.36869115 -0.3975762 0.47965908 0.6467108
0.48347625 0.0050989487 -0.013873071 0.49748883 0.5941633 -0.51885676 0.097471185 0.3750349
-0.05448976 -0.07451164 -1.2956306 -2.1501448 -1.8761542 0.49900353 -1.7656991 -1.5611047
-1.8934596 -1.6815321 0.062420223 -0.009044905 0.18751594 -0.19640766 0.07566841 0.15849337
-0.039085515 -0.02772363 0.07891709 0.037502274 -0.08204799 -0.17659359 -0.16925359 -0.18067952
-0.1282359 -0.19557117 -0.026018009 0.15875843 0.07694398 -0.23834184 -0.13735983 -0.18205082
-0.24610852 -0.25599885 0.009771357 -0.26615444 -0.24086632 -0.0051853945 -0.11972696 0.037761007
-0.28309718 -0.07799151 -0.07502817 0.033983633 0.012333042 -0.6222506 -0.06941525 -0.44604594
-0.03111023 -0.5837647 0.10818306 -0.15934135 0.066069074 -0.038308516 -0.17928824 -0.40774524
0.013243364 -0.28192395 -0.1541099 -0.1874899 -0.04358993 -0.13053057 -0.10457407 -0.07125267
-0.055685904 -0.049571127 -0.21555178 -0.36438793 -0.109836414 -0.25260696 -0.28580618 -0.039362952
-0.0779578 0.24058895 -0.19582468 0.08559524 -0.028835133 0.13505436 -0.13202064 -0.58952045
0.2449214 0.19323437 -0.06063415 -0.05701522 -0.1780137 0.20184562 -0.39296892 -0.175346
-0.29143715 0.52054584 -0.47519633 -0.044534247 -0.6021781 -0.72217757 -0.41237566 -0.027856823

fc1.bias f4 [128]
00000000: 7c88 b8bf da32 f3bd 93a2 3bbf 55ca 07bf
00000010: 305d 96be ab11 bcbd cc71 72be 5bbd b1be
00000020: 7531 efbe e711 37be 0e5d b3be 0265 1dbe
00000030: 3e16 c23e 5485 81bd 0c80 0b3c 8992 a6bf
00000040: 6d52 823c 5fd0 b63e 0e24 993f caf8 38be
00000050: e10d 28bd 7ba1 16bd 13d5 ce3d 0f27 f93c
00000060: 2a4b a13e 9d43 43bd 4266 363e 3352 663e
00000070: a0e7 ae3d 4aa2 38be c936 5c3e 3dee 1ebd
00000080: bf11 873e b852 c73e cc29 1fbd 3c53 d83e
00000090: efbb 0fbd c6dc fabe 7046 4ebe 8ec7 03be
000000a0: fd1e dcbe d90c ba3c f94b 1c3d f447 e73d
000000b0: 9a0c 733e 6552 4dbf f7be 57bd 04a3 bdbd
000000c0: 270e aebf 0996 703f bced 54bf 50c4 e8be
000000d0: af85 94be 9452 1abe 1cab 98bd 7e4b 98bf
000000e0: 9653 303f e25d 5cbf 1206 69bf 8cd5 a6bf
000000f0: 47b2 08bf 9bf2 2c3c b529 433d 0378 9ebf
00000100: bcaa 50be c01b 1dbf f21d 1ebc af01 adbe
00000110: adc7 c53e 59f4 c8be 7234 47bd f4bf 22bf
00000120: 8c7d 2bbe 5320 4b3e d2fc 80bd ccab dabd
00000130: 650b acbf 22e2 24be 3210 b33c d1b9 89bd
00000140: b357 393e d569 79bf 9781 84bd a44c 24bd
00000150: df34 77bf 6127 193e 602c 73bf 0de0 0dbf
00000160: 0bac 8c3c 269f 133f 0e9b 353d a4c0 b93e
00000170: b259 353e dc42 45bf 34c6 0ebe fed5 3f3f
00000180: 6e68 7dbe 2705 93bf b976 3d3e 017e d5be
00000190: b754 c13e e61c 49be 93e2 873e db3e 8d3e
000001a0: 62e0 2e3e f6a2 2b3d c1e7 84bf 4e9d b3bf
000001b0: 2905 4fbd 0b14 a8bd 4fb7 a8bf 819f a9bd
000001c0: 4485 ac3e 502c 6c3e 11c4 94bd dd3b debc
000001d0: baa0 ccbe a40d 42bf 1db8 803f 1821 febc
000001e0: 9afd 44be 3bbf 45bf 4109 823e b674 6dbe
000001f0: fffe 65bf 262e c0be 811a babd 5f43 9e3f
-1.4416652 -0.118749335 -0.73294944 -0.5304311 -0.2936797 -0.091830574 -0.23676223 -0.3471478
-0.4671742 -0.17877923 -0.35031933 -0.15370563 0.37907594 -0.063242584 0.0085144155 -1.3013469
0.015908444 0.3570585 1.1964128 -0.18063655 -0.04102886 -0.036775094 0.100992344 0.030414132
0.31502658 -0.047671903 0.17812446 0.22492294 0.08540273 -0.18030658 0.21505274 -0.03880142
0.26380727 0.38930297 -0.03885822 0.42251003 -0.035091337 -0.48996562 -0.20144057 -0.12869093
-0.42992392 0.022711204 0.03815839 0.11293021 0.23735276 -0.8020385 -0.052672353 -0.092596084
-1.3598069 0.93978935 -0.83175254 -0.45462275 -0.29008242 -0.15070564 -0.074545115 -1.1898038
0.6887754 -0.86080754 -0.9102489 -1.3033919 -0.5339703 0.0105558885 0.047647197 -1.2380375
-0.2037763 -0.6137047 -0.009650694 -0.33790347 0.38628903 -0.39248922 -0.048634 -0.6357415
-0.16747111 0.1983655 -0.06298222 -0.10677299 -1.3440977 -0.16101888 0.021858308 -0.06724895
0.18099861 -0.9742711 -0.0647003 -0.040112153 -0.9656505 0.14956428 -0.94989586 -0.5542
0.01717188 0.57664716 0.044337325 0.36279786 0.17709997 -0.77055144 -0.13942796 0.749359
-0.24746868 -1.1485947 0.1850232 -0.41697696 0.37759945 -0.1963993 0.2654005 0.27587017
0.17077783 0.04190346 -1.0383226 -1.403238 -0.05054203 -0.08206948 -1.3180941 -0.08282376
0.33695424 0.23063779 -0.07263959 -0.027128154 -0.39966375 -0.75802064 1.0056187 -0.03102164
-0.19237366 -0.7724492 0.25397685 -0.23189053 -0.8984222 -0.37535208 -0.090870865 1.236431

fc2.weight f4 [64, 128]
00000000: 4b4a 95be b760 4ebe 763d 6a3d b6eb 31bf
00000010: 3237 bf3f 1425 abbc a620 1ebe 03a6 4c3e
00000020: 0eab 0e3c 25ac 923c a911 42bc 88a2 8a3d
00000030: 324c da3f b559 15bb 24bd fcbd bd3a 6b3d
00000040: 4761 cc3d a4ed e03d de69 a63d 059b 01bd
00000050: ab5c 963d fdf2 963f df3f 6dbe 1806 d63d
00000060: 1336 29be ebfb 583f 3c07 25bf fe78 94bf
00000070: b4ca d13c b6bb 073c cd20 f53e eeec c0bd
00000080: 87cc 1f3f 0f6e c83c e7ad 793d c042 623e
00000090: cc24 903e 1c3c e73e 085a 6e3f e9be 843d
000000a0: 233e a1be 6bbc e63d ffff 973e c775 6e3f
000000b0: 4edf 113f 1d24 b4be daf3 4abd 0e2c 7abd
000000c0: 9dd1 97be c021 d3bf 5330 cb3e a380 69bb
000000d0: ab3f 28bd 0b49 3fbe a7bc bf3d 045e 833e
000000e0: fc91 ff3d 05ed 19be 7bb4 ed3d 0fd8 343e
000000f0: ca6e 1a3d efab 8a3f 9f09 123f d9b3 8ebd
00000100: f798 993d c4bc 4c3f f9ef db3d 759b 343e
00000110: 8574 2cbf ae0f ac3e 4c27 453f b151 e3bd
00000120: b007 0dbd 7dec 8abf 0d63 9fbd 2f20 ae3d
00000130: 1b0d b23e 4d92 573d 5ac5 0dbe 2d97 17be
00000140: 68d8 d03e 6a58 a73f 96e2 0cbd d65b 583e
00000150: bcef 1dbe a77d 2c3f ebc0 a3be aeae 2f3c
00000160: 02a5 253e 2008 ad3f d7a4 76bc fb21 9b3f
00000170: 1079 bd3f e2fb 663e 2b20 4bbd a7c4 8abf
00000180: 20e9 28bb f2fa 573e 9927 aa3e 9f96 703f
00000190: e278 07be 3588 003d 7bf2 a73e 670c c1bf
000001a0: 3962 023f 927a 1fbc 7d91 4c3d afc9 d53c
000001b0: f632 8a3c 07ba fe3c 0362 273f a7f4 b03d
000001c0: 037d 68bf 8911 1dbe f27c 0d3f ed35 1d3d
000001d0: 97b8 833e 8100 e73c 6ee4 d9bf f762 abbd
000001e0: df54 8a3d 07dc a13e 55ff c83e 4eb6 0cbf
000001f0: 4b84 a93e ff0c d33d 4d3e 8cbd 720a a43d
00000200: ae33 23bd 9e2d dbbd 13e7 55bd 7891 86bc
00000210: ace3 d9bb dc26 b7bc 4f5d 9ebd 3a0e 14bd
00000220: ee62 1b3c 3b96 6d3c a200 aabd d61c a4bd
00000230: f274 ecbc 8ec5 8f3d a7e3 ecbc e2a5 5c3d
00000240: 2c46 c0bd f8a8 883b 1004 29bd 9ee2 aebd
00000250: 6faa c6bd 1c58 dcbd f953 5abd 1c41 f7bd
00000260: 1f2b 3ebe 7e7b dcbc b076 0f3d 7455 10bd
00000270: 3f32 a8bd 6f7f 61bd 311c d3bd 5078 97bd
00000280: b083 91bd ba43 1a3d 7ecf a4bd b3e6 513c
00000290: 8e38 84bd 4e49 bbbc b91d 1f3c 245d c0bd
000002a0: 2624 e6bd f233 943d 2621 9bbd 7db5 ef3c
000002b0: 319c b33d 66c6 4d3d b393 a7bd 893b e23c
000002c0: 5fe2 b1bd e8f3 82bd 46d5 62bd c3a4 aabd
000002d0: 8487 90bd 3ffc febc 9bc6 c03c 490b 063d
000002e0: 4f48 93bd b9a6 2dbd c957 20be 4f78 3ebe
000002f0: 192b 29bd bc69 eabd 4efc 493c d12f 9cbd
00000300: 4e23 193d 7a71 4cbe f379 493d 3956 b13c
00000310: ff07 9a3c 7569 e3bd c3c5 8dbc d744 863b
00000320: 7812 183a b0f8 9f3c 4b0d 6a3b 359b cd3c
00000330: 3d37 8cbd 3ab4 213c 8d72 e1ba 2a49 323d
00000340: db17 a2bd 3aa9 4c3d 7a02 76bd 8cb8 f13c
00000350: 7199 e0bd 0592 283c 2869 b73b a7f1 72bd
00000360: 987b f33c bf94 673d 654c 3ebd d14c 0e3d
00000370: 261c 82bd 6f36 92bd 741d b13c 7a2e d53c
00000380: 39ac 1f3d e60d 50be 4f01 1fbb 8f59 a6bc
00000390: 9035 abbd c6c8 9f3d a294 29bd 9b20 e53c
000003a0: 07ef 96bd 3a58 21ba 2a42 71bd 0c26 a33b
000003b0: 05f4 4d3d 7f56 c23c 0a5b 48bd 8de7 943d
000003c0: ba0f 10bd 526a 74bd d334 05be cb50 2fbd
000003d0: 78c1 073d 4daa 7fbd d8b6 0abd fdd1 683d
000003e0: 6edc e4bd ec7d b2bd a49e f7bc 52e0 85bd
000003f0: 7e0e 3cbe 24e2 9abd 0f6f eebc 23d4 debb
-0.29158244 -0.20154081 0.05718752 -0.6950029 1.4938719 -0.020891704 -0.15442142 0.19985203
0.008707775 0.01790435 -0.011845031 0.067692816 1.7054503 -0.0022789065 -0.12340763 0.057429064
0.09979492 0.10982826 0.08125661 -0.03164198 0.07341894 1.1792904 -0.23168896 0.10450381
-0.16524534 0.84759396 -0.64464164 -1.1599424 0.025609352 0.0082845 0.47876588 -0.09420191
0.6242146 0.024466543 0.06095686 0.22095776 0.28153074 0.45163047 0.93106127 0.06481726
-0.3149272 0.112664066 0.29687497 0.93148464 0.5698136 -0.35183802 -0.04954896 -0.06107717
-0.2965211 -1.6494675 0.39685306 -0.0035629652 -0.041076344 -0.18680207 0.093621545 0.25657666
0.12479016 -0.15031822 0.116066895 0.17660545 0.037703313 1.083372 0.5704593 -0.06967897
0.07499879 0.79975533 0.107391305 0.17637427 -0.67365295 0.33605713 0.7701309 -0.11099566
-0.03443116 -1.085342 -0.07782564 0.08502232 0.34775624 0.052629758 -0.13844815 -0.14803763
0.40790105 1.3073857 -0.034395777 0.21128783 -0.15423483 0.6737923 -0.31983122 0.010722799
0.16176227 1.3518105 -0.015053949 1.2119745 1.480257 0.22557023 -0.049591225 -1.0841264
-0.002577372 0.21091822 0.33233336 0.9397983 -0.13229707 0.031379897 0.32802185 -1.508191
0.50931126 -0.009733813 0.049943436 0.026097147 0.016870003 0.031094564 0.6538393 0.08640414
-0.9081575 -0.1533872 0.55268776 0.038381506 0.25726768 0.028198482 -1.7022836 -0.083684854
0.06754469 0.3161318 0.39257303 -0.54965675 0.33108744 0.10305213 -0.068478204 0.08009805
-0.039844207 -0.1070206 -0.052222323 -0.016426787 -0.006649455 -0.022357397 -0.07732641 -0.03614638
0.009484036 0.01450115 -0.08300902 -0.080133125 -0.028864358 0.070201024 -0.028917147 0.053869136
-0.09388384 0.0041705333 -0.04126364 -0.085393175 -0.097004764 -0.10758993 -0.05330274 -0.120729655
-0.18571137 -0.026914354 0.0350253 -0.035237744 -0.08212709 -0.05505317 -0.103081115 -0.07395995
-0.071051955 0.037662245 -0.080473885 0.012811351 -0.064560995 -0.022862103 0.009711676 -0.09392765
-0.112373635 0.0723647 -0.07574682 0.029261345 0.087700255 0.050238036 -0.08182468 0.02761628
-0.08685755 -0.06394178 -0.055379175 -0.08332207 -0.070570976 -0.03112614 0.023532202 0.032725606
-0.07191526 -0.042395327 -0.15658487 -0.18600582 -0.041300867 -0.114459485 0.0123282205 -0.07626308
0.037387185 -0.19965163 0.049188565 0.02164756 0.018802641 -0.11104099 -0.017306214 0.004097562
0.0005801092 0.019527763 0.003571349 0.025098423 -0.06846473 0.0098696295 -0.0017200276 0.043526806
-0.07914706 0.049966075 -0.060060956 0.029506944 -0.109667666 0.01028872 0.0055972524 -0.05931249
0.02972202 0.05653834 -0.046459574 0.034741227 -0.06353025 -0.07139289 0.02162049 0.026023138
0.038982604 -0.20317802 -0.0024262255 -0.020306377 -0.083598256 0.07801966 -0.041401513 0.027969649
-0.073698096 -0.00061548094 -0.05890099 0.004978901 0.050281543 0.023722885 -0.048914947 0.07270727
-0.035171248 -0.059671707 -0.13008432 -0.04280166 0.03314349 -0.06241827 -0.03386578 0.056840885
-0.11174856 -0.08715424 -0.030227013 -0.06536926 -0.18364903 -0.07562664 -0.029105691 -0.006800191

fc2.bias f4 [64]
00000000: ddf4 8f3e d555 33be 5262 26be 835e 26bf
00000010: 8be1 54be 176c 5abe 314d 48be 0d6a ab3c
00000020: 054e c8bc c2c6 68be b7e3 a2be c3cb 69bd
00000030: 3ac2 c1bd 0bf0 99be d259 c3be 80fe 823f
00000040: 1e42 13be 4f67 c3bd e870 13be f615 fdbe
00000050: 0000 7ebd acb3 abbe 6aab 03be 55d0 09bf
00000060: f1eb 923f 7434 893f 56cc 313d c0aa 9ebe
00000070: 35dd d8bc 399e 21be 382e bcbd 3acd 3fbe
00000080: 05e2 753f a45f 29be 808a 063e 4255 49be
00000090: 16ae 5abe dcba 4cbd 5c8d 07be fcb6 593f
000000a0: cf5f 5bbd f7ab c3bc 94a2 93be a62a cebe
000000b0: 5a73 81be e884 15be 05bb 6b3e 98b4 2d3f
000000c0: 432b 793f cb7e e63d 32b6 34bd 6d29 f7be
000000d0: 83e7 03bf 005d 663b 2089 3e3d 285f 7cbe
000000e0: 2ff3 ec3d 2985 543d 664d 3dbe 31f6 d5bd
000000f0: 1d40 e0bd 3083 efbd a416 793d b947 eabe
0.28116503 -0.17513211 -0.16248444 -0.64987963 -0.20789163 -0.21330296 -0.19560696 0.020924592
-0.024451265 -0.2273207 -0.31814358 -0.057079088 -0.09460874 -0.3006595 -0.38154465 1.0233917
-0.1438069 -0.09541189 -0.14398539 -0.49430817 -0.06201172 -0.33535516 -0.12858358 -0.53833514
1.1478254 1.0719132 0.04340776 -0.30989647 -0.026472667 -0.15783013 -0.09188503 -0.18730631
0.96048003 -0.1654039 0.13138771 -0.1966143 -0.21355471 -0.04998289 -0.13237518 0.85044837
-0.053558167 -0.02388571 -0.28834975 -0.40266913 -0.2528332 -0.14601481 0.23020561 0.6785369
0.9733164 0.112546526 -0.044119067 -0.48273793 -0.51525134 0.0035150647 0.04651749 -0.24645674
0.11569821 0.051884804 -0.18486556 -0.10447348 -0.10949729 -0.11694944 0.060812607 -0.45757845

fc3.weight f4 [1, 64]
00000000: b7ab 8ebe 6934 293d a14a 973a 3b49 2dbf
00000010: 1765 c9bd de0e 72bf 8e36 943b 4fa1 01be
00000020: 6077 1cbd 5c5a 523d 442c 4a3d 2ea8 f43c
00000030: 1695 b9bc 46e5 07be d8d3 db3c 55c0 9f3e
00000040: f161 a6bc 7bf5 02bc 9615 713f c375 ab3f
00000050: 82b7 83bc 2a85 0dbe 033c 51bf 0aed ebbc
00000060: 9222 663f 9071 d43e ee53 55be c910 003f
00000070: 4fef a3bd 455b 1bbc b4df e3bc b0ac 193d
00000080: 3224 2c3e 331b 40bf 2d25 b8be 317a cdbd
00000090: 8acd f6bd 4f85 293f 8208 a93c cc1f b23e
000000a0: cf8c b8bc 3533 fcbd b148 83bd 274d ac3c
000000b0: 2352 fabc 127d 8fba a191 babe e723 f43f
000000c0: 69e3 1f3f 094c b2bf 6762 25be 1675 053d
000000d0: 0ff1 c13b b297 b9bd 160b ddbd 0e11 303f
000000e0: 3218 a7be c42f c7be a023 4ebd 0daf 193f
000000f0: 6c73 42bd f7a2 823d 8b9a b5bd f4b5 19bc
-0.27865383 0.041309748 0.0011542627 -0.67689866 -0.098337345 -0.94553936 0.004523105 -0.1265919
-0.038199782 0.051355705 0.04935862 0.02986535 -0.022654098 -0.13271055 0.026834413 0.31201425
-0.020310374 -0.007993097 0.9417356 1.3395313 -0.016078714 -0.1382033 -0.81732196 -0.028799552
0.898965 0.4149289 -0.20832798 0.5002561 -0.08004629 -0.00948221 -0.02781663 0.037518203
0.16810682 -0.750415 -0.35965863 -0.10033072 -0.12050922 0.6621904 0.02063394 0.34789884
-0.02252808 -0.123144545 -0.06410349 0.021032883 -0.030556744 -0.0010947308 -0.3643923 1.9073457
0.62456375 -1.3929454 -0.16150819 0.032582365 0.005918629 -0.09062137 -0.1079313 0.68776023
-0.32635647 -0.3890363 -0.050326943 0.6003273 -0.047473356 0.06378739 -0.08867367 -0.00938176
