src/falldetector/falldetector/checkpoints/stonegat.pt (torch, 60975 bytes, 29 tensors)

gat1.att f4 [1, 2, 32]
000000 ff 04 a1 be 2f 4b c5 3e 88 74 d9 3e 7f 2c 06 bf
       -0.31449124 0.38533923 0.4247172 -0.52411646
000010 82 13 4c 3e d3 cc 81 be bb 7d 42 3e 8c 09 7d 3e
       0.19929317 -0.2535158 0.18993275 0.24710673
000020 0a 64 8f be 4e 93 f1 3e ef 0e 4c 3e 99 c6 af 3e
       -0.2800601 0.47182697 0.19927572 0.34331205
000030 d4 46 17 3f ac 82 3d bf bd 4a ec 3e 6a c8 ea be
       0.5909245 -0.74027514 0.4615077 -0.4585603
000040 12 0c 51 3e f5 bb e7 bd c9 b2 bf bc f3 36 00 3f
       0.2041476 -0.11315147 -0.023400681 0.50083846
000050 9a 33 4d be 15 60 a9 be 7e e6 84 bd ed 68 d3 3c
       -0.20039216 -0.33081117 -0.064892754 0.025806868
000060 8d e8 ac bd 48 71 a1 3d 2d be 99 3d 35 df 97 3e
       -0.08442793 0.07882935 0.07506976 0.2966248
000070 ed 01 86 be 4a 7a c3 bd fb 5d a2 3e 3a 06 7a be
       -0.26173344 -0.09544809 0.31712326 -0.24416438
000080 c3 2d 52 be b8 fa 51 bd c7 4c 80 be ae ff 40 be
       -0.20525269 -0.051264495 -0.25058576 -0.18847534
000090 2d ce e4 3d c5 ce a5 3e b6 82 4d be a0 4d 04 bf
       0.111721374 0.32384315 -0.20069394 -0.51680946
0000a0 ee cb 31 3f c9 a5 95 be cc 18 ff 3e 6c 2e 07 bf
       0.69451797 -0.29228047 0.49823606 -0.5280521
0000b0 63 4d 21 3f e6 18 69 be f9 a7 b5 be 0e 48 5b be
       0.6300871 -0.22763404 -0.35479715 -0.21414205
0000c0 3d 20 33 be bc b3 a3 3e 85 de ad be ea 0f 75 3e
       -0.17492767 0.31973064 -0.3395883 0.23931852
0000d0 88 9d 85 3e 8b a2 87 be a6 6e 0f bf fb 46 e8 3d
       0.2609675 -0.26491198 -0.5602821 0.113416635
0000e0 11 af 19 bf e0 62 86 be 46 c0 45 bf bb 62 1b 3f
       -0.60032755 -0.2624731 -0.7724651 0.60697526
0000f0 89 e3 df 3e da c6 c5 be 74 54 2b bf b4 3e f7 3d
       0.43728283 -0.38628274 -0.6692574 0.120725065

gat1.bias f4 [32]
000000 0a 1d 45 3e e7 72 5c bb 83 ff 96 3d 52 e7 01 3d
       0.19249359 -0.0033637823 0.07372954 0.031714745
000010 7f 9a 84 bd ff d2 d5 bd 13 a0 81 3c 35 d6 54 3d
       -0.0647478 -0.10440635 0.0158234 0.051962096
000020 0b c8 81 3d af e9 2e 3d 2a 91 c2 bd d4 55 1b be
       0.06336983 0.042703327 -0.09500344 -0.1516946
000030 44 ee ca bc b0 30 87 3d eb 05 9a be a3 16 aa 3c
       -0.024771817 0.06601083 -0.3008264 0.020762747
000040 62 f5 f5 bb ff d4 78 3b 12 06 88 3b 16 b8 99 3a
       -0.0075060586 0.0037968752 0.0041511143 0.0011727836
000050 48 5d 85 3c 2b 00 2c 3d 5b b5 81 bb b3 e1 33 3e
       0.016279832 0.041992348 -0.003958387 0.17566566
000060 b2 47 92 bb e3 8e 21 bd a3 58 58 bc dd 96 8c 3c
       -0.004464113 -0.039442908 -0.013204726 0.017161781
000070 9a 37 e5 3d 3e 69 d8 3d aa 62 16 3c 78 20 2b bd
       0.11192246 0.10566948 0.009178797 -0.04177901

gat1.lin_l.weight f4 [64, 3]
000000 32 90 84 be b0 f5 d4 bd e6 f7 c1 3e 71 a4 a1 3e
       -0.25891262 -0.10398424 0.37884444 0.3157077
000010 92 bb 47 3e 7f ba 4e 3e 74 48 30 3e d8 45 a5 3e
       0.19505146 0.2018833 0.17215139 0.3227985
000020 b7 39 a6 3e 5e 4c 36 3b f3 30 a5 be e5 43 27 3d
       0.32465908 0.0027816514 -0.32263908 0.040836234
000030 65 62 bd 3e 61 da 84 3d 59 18 9e bc 5b 4b 2b 3e
       0.36989132 0.06486965 -0.01929872 0.16727965
000040 26 a9 92 3d 42 09 88 bd e0 7a 09 3e ff e6 c2 3d
       0.07161169 -0.06642391 0.1342578 0.09516715
000050 c1 03 dc 3e de 08 81 be b2 c1 b7 3d 14 ce b2 3d
       0.42971614 -0.25202078 0.08972491 0.087307125
000060 31 7b 78 3d 88 64 87 3e dd b0 41 be c4 fd c7 3d
       0.06066436 0.26443887 -0.18915124 0.09765199
000070 9f 56 bd 3e 4d 81 02 3e 63 37 e2 bc 03 22 35 3e
       0.3698015 0.12744637 -0.027614301 0.17688756
000080 10 30 8e 3e 46 48 b0 be 98 24 80 bc 47 0c 92 3e
       0.27771044 -0.3443014 -0.01564245 0.28524992
000090 67 03 ee bc d0 47 5d 3d 77 4b 57 be a2 a5 cb bd
       -0.029054357 0.054023564 -0.21024881 -0.09943701
0000a0 e5 91 3d be d9 49 44 be fb e5 2c 3d 00 05 63 bc
       -0.18512686 -0.19168796 0.042211514 -0.013856173
0000b0 52 8a be be 67 6d 24 be ba c8 5f bc 0b 3b 5a be
       -0.37214905 -0.16057359 -0.013658697 -0.21311586
0000c0 d6 12 c1 3d 2c a3 13 3d 6d 73 b2 be 91 22 12 be
       0.09427421 0.036044285 -0.34853688 -0.14270999
0000d0 6d 58 9d 3e 9b d3 f0 3e 58 94 51 3d d6 7b 0b 3e
       0.30731526 0.47036442 0.051166862 0.13621458
0000e0 c0 4f 05 3e a9 9c c4 3e c2 ff 2d 3e d4 51 5c 3e
       0.13018703 0.38400772 0.16992095 0.2151559
0000f0 d9 59 7c 3e 58 0d 33 3d c5 a4 c7 bd 1c dc 6c be
       0.24643649 0.043713897 -0.09748224 -0.2313084
000100 cb 1f 8e bd 5f 98 16 be e7 50 73 3d a1 02 88 bc
       -0.06939658 -0.14706562 0.059403326 -0.016602816
000110 bb f6 03 3e 86 f2 ab 3e 13 04 34 3e 93 74 ca 3e
       0.12887089 0.33583468 0.17579679 0.39542064
000120 69 58 89 be 23 77 92 3e 25 64 16 be 03 bd c2 3e
       -0.26825264 0.2860652 -0.1468664 0.3803483
000130 5b e1 42 bd 10 61 48 3e d9 61 26 be 80 04 4b 3e
       -0.047578197 0.19568276 -0.16248263 0.19825935
000140 40 81 6e be f4 6c 9a 3e 66 01 41 be ee 79 34 3e
       -0.23291492 0.3016125 -0.1884819 0.17624637
000150 9d d8 c0 3d 1f d0 1e 3d 55 2f f9 3c a5 28 57 be
       0.09416316 0.0387727 0.030418077 -0.21011598
000160 d6 5f 08 3e 3b 88 13 be df 38 18 be e7 57 f0 bd
       0.13317809 -0.14407437 -0.14865445 -0.11735516
000170 bb 24 51 3e 94 a9 b5 3d 2d 6a 75 3d 5e 04 36 3d
       0.20424168 0.08870235 0.05991571 0.04443776
000180 ef 6b 85 be f7 39 16 bb bf 06 97 bd 21 58 59 3d
       -0.2605891 -0.0022922733 -0.073743336 0.053062562
000190 02 c2 e5 3c c0 91 aa be ec ee 18 be d4 9d 4b be
       0.028046612 -0.33314323 -0.14934891 -0.19884425
0001a0 84 43 c0 3e 41 99 49 3d 64 04 45 be c8 fd 8e be
       0.3755151 0.04921842 -0.19239956 -0.27927995
0001b0 b5 a4 81 3e 2d 04 1e 3e 26 7b 3a bc f4 30 af 3d
       0.25320974 0.1543128 -0.0113819 0.08554259
0001c0 a9 ac 20 3e cb 38 bc be 4c 2e a6 3d f8 50 0a bc
       0.15690865 -0.3676208 0.08114299 -0.008442156
0001d0 51 b3 62 3e 3f 5f e8 be b0 8a 57 bd a2 55 2e bd
       0.22138716 -0.45385167 -0.052622497 -0.042562135
0001e0 f1 7d 9d 3e f3 dd f2 3d 6c f0 d8 3d e0 3c a4 3d
       0.30760148 0.1185874 0.10592732 0.080194235
0001f0 5a 0a b1 3c df a9 9d be e9 35 16 be 30 63 23 3e
       0.021611381 -0.30793664 -0.14669003 0.15955806
000200 40 1c a6 3d ec 7b bf be ee 1a 38 be 7e 82 03 be
       0.08110857 -0.37399232 -0.17979023 -0.12842748
000210 97 67 16 bd c8 68 3f 3e 57 a0 c5 be 10 7d ca be
       -0.036719885 0.18692315 -0.38598892 -0.3954854
000220 38 cf 7c 3e fa c5 8a 3e 70 c0 3f 3d 2c 77 2d 3e
       0.24688423 0.2710417 0.046814382 0.16939992
000230 b5 e0 9c be aa 5a a9 3d a3 88 6c 3e 65 a7 21 3e
       -0.30640188 0.08269246 0.23098998 0.15786512
000240 b3 f6 12 bd 76 6c 33 3e 32 58 e6 bd 61 3b 0b be
       -0.035879802 0.17521843 -0.11247291 -0.1359687
000250 e8 2a 17 3a a4 f2 b6 3e 95 44 4e be c7 f7 d7 3d
       0.00057665864 0.35731995 -0.2014335 0.10545307
000260 48 1e bc 3e 69 9e 73 3e 79 59 b1 be 69 cc d9 3c
       0.36741853 0.23790897 -0.34638575 0.026586728
000270 b0 a8 82 3e 71 ce 58 3e bb de a2 bc c9 9c 53 3d
       0.25519323 0.21172501 -0.019881597 0.051663194
000280 48 b1 5c 3e 31 cd 34 be 1c ee fa bc a6 cf 5e be
       0.21552002 -0.176564 -0.030631118 -0.21758899
000290 b7 44 57 3e 2f 0c 44 be 57 55 fe bd 66 fe 73 bb
       0.21022306 -0.19145273 -0.12418621 -0.003723049
0002a0 4b 1c 70 be 7b ed 99 3e c5 19 10 3d 9a 42 95 3c
       -0.23448293 0.30063996 0.035180826 0.018220235
0002b0 fa 12 31 3e ba 12 8b be f5 fc 2f be 80 c3 99 3e
       0.17292395 -0.27162725 -0.17186339 0.30031967
0002c0 27 b9 df 3d 25 8b 28 3e 45 3d dc bd b9 a3 6e 3e
       0.10923987 0.1645933 -0.10753874 0.23304643
0002d0 2d 46 25 bd fb 7b 55 3a ed 8e e0 3e 6a 30 e1 be
       -0.040350128 0.00081437797 0.43859044 -0.4398225
0002e0 46 fe 09 be 87 2b 7d 3e d2 94 b9 be 29 6a 1a be
       -0.13475904 0.24723636 -0.36246353 -0.1507956
0002f0 05 82 4d 3e ce 06 80 be d1 ad 9b 3e 0e 40 3f 3e
       0.2006913 -0.25005192 0.3040605 0.18676779

gat1.lin_l.bias f4 [64]
000000 23 c6 3b 3e fe 12 88 3e cb 28 d1 3e 9d 66 bb 3e
       0.18337302 0.2657699 0.40851435 0.36601725
000010 9f ce 46 be 16 d8 d9 bb db 19 df be 36 05 75 3e
       -0.19414757 -0.006648074 -0.43574414 0.23927769
000020 1b 0d 9c 3c 54 a4 05 3f 61 25 9d be 57 01 68 3d
       0.019049218 0.5220387 -0.3069258 0.056641903
000030 fd 9e 07 be 5b 1b 12 3f e8 49 70 3c 0a 84 7f 3e
       -0.13244243 0.5707299 0.014666058 0.24952713
000040 4d ea 97 be 60 74 1b bf 69 58 1d be d2 f6 0b 3f
       -0.29670945 -0.6072445 -0.15365757 0.5467349
000050 6d 3b 23 3f 65 3f 79 be 48 83 2d be b4 79 a7 3e
       0.6376255 -0.2434059 -0.16944611 0.3271004
000060 68 f2 e4 3e bf 28 18 bf 8a 84 82 3d 61 04 bb bc
       0.4471619 -0.59437174 0.06372936 -0.022829236
000070 8f c7 9c 3e f4 58 1c 3f 36 b4 93 bd 8e 3d 11 bf
       0.30621 0.6107323 -0.07212107 -0.5673455
000080 4e 09 3c be f6 11 07 be ec 48 76 bb 88 6e 0d bf
       -0.18362924 -0.13190445 -0.0037580086 -0.5524678
000090 c7 79 01 3f 3b f1 a3 3c 2e fb 99 bd 1a 6c a8 be
       0.5057644 0.020012489 -0.07518612 -0.32894975
0000a0 b0 88 b1 be dd 0a f8 3e f3 94 58 3e 18 bf 14 bf
       -0.34674597 0.48445788 0.2115057 -0.58104086
0000b0 64 92 cf be 18 13 09 3f 36 e2 4d be 95 b3 9b 3e
       -0.40541375 0.5354476 -0.20105824 0.30410448
0000c0 21 8d a0 be 07 ab a2 3e 3b bb c2 be c8 b5 19 3d
       -0.31357673 0.31771109 -0.3803347 0.037526876
0000d0 4c fc 13 3f 32 12 10 3f 89 95 93 bd 07 75 58 3e
       0.5780685 0.56277764 -0.07206256 0.21138392
0000e0 c8 bf 33 3d 82 eb 15 bf c5 67 0b bf 1e ff db 3d
       0.04388407 -0.5856248 -0.54455215 0.10742019
0000f0 57 7f 31 be 20 a2 f4 bd 5c c6 87 3d 8b 4b f5 3c
       -0.17333733 -0.119449854 0.06629631 0.029943248

gat1.lin_r.weight f4 [64, 3]
000000 bf 0d af 3d e3 7f c2 3d 2e fb f0 bd 23 49 f5 be
       0.08547544 0.09497049 -0.11766659 -0.4790736
000010 21 a0 1a 3e 8c 27 bd bc 6b d9 8c 3e 05 00 bb 3d
       0.15100147 -0.023090146 0.27509627 0.09130863
000020 44 09 01 3e 9f d9 85 3d 51 5d 2e 3e ea 66 62 bd
       0.12601191 0.065356486 0.17027785 -0.055273928
000030 91 60 34 bd f6 f6 08 be b1 f3 76 be 3f 3d 5d bd
       -0.044037405 -0.13375458 -0.24116398 -0.054013487
000040 65 23 a0 3e 0a 33 81 be b6 a8 8b 3e 89 c6 b5 be
       0.31277004 -0.25234252 0.27277154 -0.35503033
000050 b7 39 f7 3d bd 84 8d be a7 db c3 be 3f 9e 9b be
       0.12071555 -0.27640334 -0.3825352 -0.3039417
000060 c3 be 1d 3e e7 f9 85 be d7 e1 f3 bd 71 2f 68 be
       0.15404801 -0.26167223 -0.1190831 -0.22674347
000070 d9 60 28 3e cb 56 89 3e 92 44 b3 3e aa d8 e9 be
       0.16443194 0.2682403 0.35013252 -0.45673114
000080 af d8 36 3c cb 6c cb 3e 50 2f 9d 3e 00 23 de 3d
       0.01116006 0.3973144 0.3070016 0.108465195
000090 02 37 b7 be 75 ce 33 bd af b2 b3 3d 2d 3b 83 be
       -0.35784155 -0.043898065 0.087743156 -0.25631085
0000a0 a0 61 c7 bd 2c 1f f6 3c 6f ba 27 3f 4c e7 72 3d
       -0.09735417 0.03004416 0.6551885 0.059302613
0000b0 07 9a 93 3e c7 c3 b4 3e 26 ee c9 3e 39 3c 5b be
       0.2882845 0.35305616 0.39439505 -0.21409692
0000c0 03 e8 81 be ec bb ed 3d 15 61 a1 3d eb 8f 37 3e
       -0.25372323 0.11608109 0.07879845 0.17925994
0000d0 98 98 0e 3e 67 5d 7a be 87 09 e1 bd a2 18 ef bd
       0.13925397 -0.24449693 -0.10988145 -0.1167462
0000e0 22 ab 81 3c ed 2a 92 3d fa 4f 73 3e 9e 15 51 be
       0.015828673 0.07137094 0.23760977 -0.20418403
0000f0 2e f0 55 bd 8f aa 40 3e a5 bb 95 3c b3 76 cc be
       -0.052231006 0.18815063 0.018277952 -0.3993431
000100 f2 5b 55 3e 05 3d 3a be 45 07 f2 3d d6 fa b8 3e
       0.20835856 -0.1818734 0.11817793 0.36128873
000110 14 81 2c be 06 98 19 3d 53 4f 7e 3e d7 78 60 3e
       -0.16846114 0.037498496 0.24834947 0.21921097
000120 60 35 8a 3e da 0f 41 3e b9 c4 16 3d a2 86 b0 be
       0.26993847 0.18853703 0.036808703 -0.34477717
000130 bf 19 23 bc e1 9a 20 3d 1c af 0a bd 2d 35 ea bc
       -0.009954869 0.039210204 -0.033858404 -0.02858981
000140 40 38 fe 3d bf a9 d8 3e 66 b4 c5 be dd 89 b1 3d
       0.124130726 0.42317006 -0.38614196 0.086688735
000150 0c f2 12 3f d6 c8 dd bd 3b 58 9d 3d 81 03 cf 3e
       0.57400584 -0.10829322 0.07682844 0.4043236
000160 a0 93 59 be bf 10 11 be 55 1d d0 3e c6 96 cc be
       -0.2124772 -0.14166544 0.4064738 -0.3995878
000170 8d 96 8b 3e 6f 99 2c bd c9 d1 84 be 78 99 cc be
       0.272633 -0.042138513 -0.25941303 -0.39960837
000180 ec e1 cc bd 18 3a a2 be fa 5c 13 bd fe 64 fa bb
       -0.10004029 -0.31684947 -0.03597734 -0.0076414337
000190 67 1c af 3e 96 5a a0 3e 93 81 f3 3c 20 e2 3d be
       0.34201357 0.31319112 0.029724872 -0.18543291
0001a0 97 17 57 bd 59 47 8e be a6 fb a7 bd b8 8a c1 3d
       -0.05251273 -0.2778881 -0.08202295 0.094502866
0001b0 08 7e 93 3e 4d 7f 89 3e b0 de aa 3c c9 46 18 3d
       0.28807092 0.26854935 0.020858139 0.03717688
0001c0 ba 77 6b 3e 7b a5 52 3e f2 e4 05 3e b5 a8 7d 3e
       0.22994891 0.20570938 0.13075617 0.24771388
0001d0 ef e5 ae 3e 08 b5 cc 3d 4c 94 90 be 69 81 82 be
       0.341598 0.099954665 -0.28238142 -0.25489357
0001e0 5c 97 f5 3d 1d dd 72 be 9a eb 59 bd ea 79 ac bc
       0.1199176 -0.2371716 -0.053203203 -0.021054227
0001f0 b7 23 6b 3e ec bb 11 3e 23 bd de be 3a 67 93 3e
       0.22962843 0.14231843 -0.43503675 0.28789693
000200 4f bc 6c be 3b c2 6a 3e d3 1d 10 3e 05 26 b9 bd
       -0.23118709 0.22925656 0.14073877 -0.09040455
000210 bf 78 8f 3e ca 46 0f bd d1 4f 64 be 67 3c 5d 3e
       0.2802181 -0.03497962 -0.22296073 0.21605073
000220 69 f8 28 be 42 e8 a6 bd 10 45 25 3e c2 47 89 be
       -0.16501011 -0.081497684 0.16139627 -0.2681256
000230 02 e7 1b 3b 48 84 31 3e b1 74 e1 3d 44 6d 24 be
       0.0023788814 0.17335618 0.11008585 -0.16057307
000240 32 25 4e be a2 b6 b0 bd b5 a8 e4 3d d3 93 17 bf
       -0.20131376 -0.086285844 0.11164991 -0.59209937
000250 3e 04 23 3d 3c d8 a4 3d 06 4c 96 3d 70 1d 4b bd
       0.039798968 0.08049056 0.07338719 -0.04958862
000260 e3 9e ad 3d 31 1a 03 bf d1 91 21 3e f0 80 7f be
       0.08477571 -0.5121184 0.15778281 -0.2495153
000270 80 fe de bd 02 75 99 be d6 0d 11 3c 5e 28 1c 3e
       -0.10888386 -0.29972082 0.008853396 0.15249774
000280 18 38 8b 3e f1 91 75 3d 67 a7 93 be 38 06 23 be
       0.27191234 0.059953634 -0.28838655 -0.15920341
000290 19 87 22 be da c6 6f 3e a0 a6 c8 3d 24 f2 86 3d
       -0.15871848 0.234157 0.09797406 0.065891534
0002a0 72 2e 2b 3e 4b 08 4e bd 08 d2 bb 3e 05 b3 83 be
       0.16716936 -0.050300878 0.3668368 -0.2572252
0002b0 f1 3c 94 be ec b3 8c 3e 9f d4 27 3e 0b 11 47 be
       -0.28952745 0.2748102 0.16389702 -0.19440095
0002c0 52 46 5e 3e 0d b5 a4 3d 23 80 2b 3e 3a 77 3e be
       0.21706513 0.08042345 0.16748099 -0.18600169
0002d0 c2 56 1c 3e 11 c7 e9 be 2f 40 c7 bd af f6 ab be
       0.1526747 -0.45659688 -0.09729039 -0.33586642
0002e0 70 ca 49 3d ff 40 b8 bd df bd 1c 3f 87 99 b1 bd
       0.049265325 -0.08996772 0.6122722 -0.08671861
0002f0 bd 1e 24 be b3 ea a6 3d 62 32 80 be d0 db 82 3e
       -0.1602735 0.08150234 -0.2503844 0.2555833

gat1.lin_r.bias f4 [64]
000000 66 d4 a5 3d 05 3a 89 3e e7 f3 d7 be 5f 22 0b 3f
       0.080971524 0.26802078 -0.4217827 0.5434932
000010 51 68 e8 3e 54 74 0b 3e 4c f1 71 3d 7e 8a a5 3e
       0.45392087 0.13618594 0.05906801 0.32332224
000020 32 78 43 be fd aa d0 be db bd 7c bd 0b 59 f0 be
       -0.1908882 -0.40755454 -0.061704498 -0.46942934
000030 2e bf d7 3e 31 e9 4a be 02 62 d9 be aa 7b c1 3e
       0.42138046 -0.19815518 -0.42457587 0.3778966
000040 f1 e2 ad 3d f0 ca 75 3d 8f 69 11 3f f6 3a f2 3e
       0.08490551 0.06000799 0.56801695 0.4731061
000050 f4 4b e9 3e 2d b8 30 3e c2 04 27 bd 99 cf f1 3e
       0.4556576 0.17257757 -0.04077602 0.47228697
000060 e3 a9 eb 3e d6 77 f5 bd 70 7c 98 be d6 36 a6 be
       0.4602805 -0.119857475 -0.29782438 -0.32463712
000070 8f 08 b5 be 2b 07 11 3f 72 8e 15 be e2 13 05 be
       -0.35358092 0.5665156 -0.1460512 -0.12995866
000080 7c 25 a3 be 53 01 ec 3e 66 a9 d2 be 31 a2 19 3e
       -0.31864536 0.4609476 -0.41144866 0.15003277
000090 5d 3a c1 3d d9 88 7b be cc 92 4d be 84 62 69 bd
       0.0943496 -0.24563922 -0.2007553 -0.056978717
0000a0 e3 78 e9 3d dd 06 31 3f 16 47 75 bd f9 a6 74 bd
       0.114000104 0.691511 -0.059882246 -0.05972955
0000b0 3b 99 81 3e f8 3b d5 3e 05 d4 04 bf 0d e9 be 3d
       0.25312218 0.41647315 -0.51886016 0.09321795
0000c0 be c3 b9 be 6c 62 a4 be 0a 4a 09 bf 96 43 a5 3e
       -0.36282152 -0.3210634 -0.536286 0.32278126
0000d0 24 6d 32 3e c0 a1 88 3e 52 14 36 3c 6b bd 13 be
       0.17424446 0.26685905 0.011113243 -0.14427726
0000e0 42 6a c4 3e a3 55 7c be cf 03 02 bf ed 9b 07 bf
       0.38362318 -0.24642043 -0.5078706 -0.529723
0000f0 ff b2 83 be b5 ad cf be 7b 57 c2 3e 18 0d 66 3c
       -0.257225 -0.40562215 0.37957367 0.014041208

gat1.lin_edge.weight f4 [64, 3]
000000 09 25 07 3f b5 33 d9 3c 3b 51 9f 3d 4f 92 67 be
       0.52790886 0.026513914 0.07779165 -0.22614406
000010 32 2e ce 3e 90 d3 a8 be e4 40 1a be cb 1a 6c 3d
       0.4026962 -0.3297391 -0.15063816 0.05764274
000020 24 08 4e 3e 0f 50 d2 bd ad 30 97 3c 67 c6 9b 3e
       0.20120293 -0.10269176 0.018455828 0.30424806
000030 76 bf 77 be 16 6d 75 be 06 de ed 3d cd c3 53 3c
       -0.2419413 -0.23967394 0.11614613 0.0129251005
000040 2b 3f 0e be f9 1d bd bc fc 42 93 3e 80 4e b2 be
       -0.13891284 -0.023085581 0.28762043 -0.34825516
000050 78 56 25 be 55 45 e0 be 68 de 6b 3d ed 55 fc be
       -0.16146266 -0.43802896 0.05758515 -0.49284306
000060 43 3d c7 3c 92 6b 5a be 8c b1 19 3e b8 5e a6 3d
       0.024321204 -0.21330097 0.15009135 0.08123535
000070 69 06 17 3d 91 79 4e 3e 36 47 59 be 74 4f b6 be
       0.036871348 0.20163561 -0.21218571 -0.35607493
000080 31 8b 82 3d ed 3c c9 3e 43 7f 1a bd 6f ab c5 be
       0.06374205 0.39304295 -0.037719022 -0.38607356
000090 fe 27 ee be 52 af 57 3e 4b 90 a0 3e 5c a0 6d 3e
       -0.46514887 0.21062973 0.31360087 0.23205703
0000a0 95 38 a6 bd da 4d 26 3e 1b 26 95 3e 6a 3f 41 be
       -0.08116261 0.16240636 0.29130635 -0.18871847
0000b0 f9 19 d9 bb 49 0a 14 be 6a d0 81 be 18 96 a7 3d
       -0.0066254106 -0.14457048 -0.2535432 0.08182925
0000c0 b1 7a 8d bd da 8b 8d bc c8 75 c1 be ed f1 c3 3d
       -0.06908167 -0.0172786 -0.37785172 0.09567628
0000d0 9b 17 dc 3d fb 07 9f be 0d 80 74 3e 76 c0 28 3d
       0.1074669 -0.31060776 0.23876972 0.04119917
0000e0 9f de ed 3d c2 b2 d9 be 99 dc 09 3e 1c 62 2c 3d
       0.11614727 -0.42519194 0.13463058 0.042085752
0000f0 8c 8c 56 bc 19 d1 3f 3e af d4 35 bd 27 76 c4 3d
       -0.013095032 0.18732108 -0.044392284 0.09592848
000100 ed 8a 83 3e 0a e7 f6 be 0c 59 9f 3d 82 76 9a bd
       0.2569193 -0.48223144 0.07780656 -0.07542135
000110 b3 04 99 be 9d c6 13 39 10 d2 d9 bc 6a 73 bc bc
       -0.29886398 0.00014093002 -0.026589423 -0.023004252
000120 df 4f de bd c5 76 94 3e 0a 45 37 3e f4 42 d1 be
       -0.10855078 0.28996864 0.1789743 -0.40871394
000130 47 de 57 bd ba 4a 1f be e9 d6 df be 19 22 03 3e
       -0.052702215 -0.1555585 -0.4371865 0.12805976
000140 5f 7b be be 4d 1f cc bd e7 26 3d be 1c 23 5d 3d
       -0.372035 -0.09966908 -0.18471871 0.05398856
000150 58 44 43 bd aa 83 c6 bd e4 35 ab 3e 26 a2 e5 3e
       -0.0476726 -0.09693082 0.33439553 0.44850272
000160 95 fa 6f 3e 9b f4 96 3e 7c 70 2c be 6f 84 81 be
       0.23435433 0.29483494 -0.16839784 -0.2529635
000170 c7 2f b9 bd 1a 5b 40 3e d1 cf f5 bd cb ff 9b 3d
       -0.09042316 0.18784752 -0.120025285 0.07617148
000180 0d 2b 49 3e d3 f8 97 3d 6f 89 84 3d 1a 44 5a be
       0.19645329 0.07420506 0.06471526 -0.21315041
000190 33 45 da bd c4 ec 69 bc e4 69 07 3d e9 e3 fb bd
       -0.1065773 -0.014277641 0.03305997 -0.1229933
0001a0 1c 60 5d be 5c 5b e4 3d 91 c1 48 be 41 5f 07 bf
       -0.21618694 0.11150238 -0.1960509 -0.5287972
0001b0 0b 51 18 be 28 a9 3b 3e 50 64 e1 3e 69 65 9b 3e
       -0.14874665 0.18326247 0.44021845 0.30350807
0001c0 f2 7c a8 be f6 94 df bd ae 14 92 3e 4f 36 0f be
       -0.32907826 -0.10917084 0.28531402 -0.13985561
0001d0 8a 7b 85 3d 2d 96 34 be 82 5e 62 3e e8 16 00 bf
       0.06517704 -0.17635413 0.22106364 -0.5003495
0001e0 49 f6 17 3f af fc e1 be 55 4b 0c 3e 50 7a 96 be
       0.59360176 -0.44138095 0.13700612 -0.29390192
0001f0 5c 88 f8 bd d4 aa b4 be e5 10 ce be 90 15 d3 3e
       -0.121353835 -0.35286582 -0.40247265 0.41227388
000200 f9 65 6c 3d 22 7b 8d bd 43 3d 29 be 2e 2f fc be
       0.057714436 -0.06908251 -0.16527276 -0.49254745
000210 36 7b 18 3f 22 c9 e1 be ca 30 1a 3e ce 2f f0 bc
       0.59563005 -0.44098765 0.15057674 -0.02931967
000220 c1 89 21 be d2 f5 29 bb 07 dc 98 be a5 d5 1a be
       -0.15775205 -0.0025933874 -0.29855368 -0.15120561
000230 fb f8 ce be e7 f0 8f 3e ab 54 18 3e 00 8d 4e be
       -0.40424332 0.2811348 0.14876048 -0.20170975
000240 82 c2 6c be 8b 89 9c 3d 08 c1 09 be 33 4f 76 bd
       -0.23121074 0.07643422 -0.13452542 -0.060134124
000250 c2 e1 ae 3e 4a 71 7c 3c 9a 82 c8 bd e7 6c 28 3e
       0.34156615 0.01540787 -0.09790535 0.16447793
000260 c0 65 53 be e8 83 70 be 56 78 13 3f b7 3b a6 3e
       -0.20644283 -0.23487818 0.57605493 0.32467434
000270 9a 50 e2 bd 70 a7 1f 3e 80 c7 82 3e 2f 92 4b bb
       -0.1105053 0.15591216 0.2554283 -0.0031062474
000280 fe 02 24 be 4a 2b 5a 3c 3f 75 9d bd 26 05 37 3d
       -0.16016766 0.013315985 -0.076883785 0.044682644
000290 12 5c f2 be 20 13 98 be db 6b a1 be 8e e0 a6 bd
       -0.4733587 -0.2970209 -0.315276 -0.08148299
0002a0 c0 e0 8d be 08 14 20 bd 22 ad 90 be df 73 8a be
       -0.27710533 -0.039081603 -0.2825709 -0.27041528
0002b0 3b fd 3c 3e 9c b9 f3 be e9 75 b1 be 43 e4 99 3c
       0.18455975 -0.47602546 -0.3466027 0.018785601
0002c0 4c c6 04 bf 45 42 72 be d5 df a1 3e b2 03 80 3e
       -0.51865077 -0.23658092 0.31616083 0.2500282
0002d0 83 a0 99 3d c5 96 0a bf b4 4b 81 3e b1 38 bf be
       0.07501318 -0.54136306 0.2525307 -0.3734794
0002e0 c0 9c 10 bd 38 72 2d 3e 5f 91 a5 3e d9 f2 c8 3c
       -0.03530574 0.16938102 0.32337472 0.024529861
0002f0 95 ee 3f be 87 37 26 3e c8 1d a3 bc 43 e3 d2 3e
       -0.18743356 0.1623212 -0.019911662 0.41189012

bn1.weight f4 [32]
000000 a9 42 88 3f 4f 92 81 3f 76 c6 8c 3f 89 4b 92 3f
       1.0645343 1.0122775 1.0998065 1.1429302
000010 e3 23 66 3f 5b f7 76 3f c0 72 8f 3f c0 41 7f 3f
       0.8989851 0.96471184 1.1206894 0.997097
000020 82 90 61 3f 75 da 7d 3f ae 06 6f 3f 26 69 84 3f
       0.88111126 0.99161464 0.9336957 1.0344589
000030 9f d1 77 3f cc 2a 84 3f ea 3d b2 3f 87 53 8c 3f
       0.9680423 1.032556 1.3925145 1.096299
000040 7e ad 81 3f 21 cc 7d 3f 36 09 8c 3f a7 fd 73 3f
       1.0131071 0.991396 1.0940311 0.9530892
000050 99 6d 7d 3f 89 bb 90 3f 7e 81 6d 3f 34 a0 a3 3f
       0.9899536 1.1307231 0.92775714 1.2783265
000060 bd 71 87 3f f3 9a 83 3f 21 56 8f 3f 17 6b 75 3f
       1.0581585 1.0281662 1.119816 0.9586653
000070 78 20 9e 3f f2 52 88 3f bb 70 81 3f 39 47 65 3f
       1.2353659 1.0650313 1.0112528 0.895618

bn1.bias f4 [32]
000000 83 c1 8c 3d 69 54 5c be e2 c3 b3 bd 03 74 dd bc
       0.06872847 -0.21516575 -0.08777596 -0.027032858
000010 ea 70 95 be a9 67 39 be 45 bd 78 bd fa 6c 94 3c
       -0.2918771 -0.1810595 -0.060727376 0.01811837
000020 5d 0b 56 be bf 7e f0 bd 42 3f 8d be 0b 9f 23 3d
       -0.20902772 -0.11742925 -0.27587324 0.039946597
000030 43 89 07 bd 2f df d2 3c 27 bd 2a be 5d b3 06 be
       -0.033089887 0.025741188 -0.16673718 -0.13154359
000040 03 9b 6b be dc a7 65 be 84 8d 59 be 68 c9 f8 bd
       -0.23008351 -0.22427315 -0.2124539 -0.1214779
000050 0d 23 f8 bd d7 cc ed 3c 99 d8 01 3d b4 60 9c 3c
       -0.121160604 0.02902834 0.031700704 0.01908908
000060 e2 9f 61 be ab 19 d7 bc 78 a7 20 bd 2b ea bd bc
       -0.22033647 -0.026257357 -0.03922221 -0.023182949
000070 d1 f5 e9 bd f9 d5 3f 3d 3f 41 97 bd c2 03 65 be
       -0.11423839 0.04683492 -0.073854916 -0.22364715

bn1.running_mean f4 [32]
000000 bd cb 62 3e 11 68 cf 3d 51 7b 1b 3f 5b e6 7e be
       0.22148032 0.10127271 0.6073504 -0.24892561
000010 00 c1 5e 3e 58 89 56 be 1c 45 c7 3d a3 d2 ad bd
       0.21753311 -0.2095083 0.097299784 -0.084874414
000020 18 54 00 bc fe 85 0f 3f a3 63 33 3d 2d 6c ff be
       -0.0078325495 0.5606383 0.043796193 -0.4988722
000030 06 bb 06 bf f7 d6 15 3f 86 ee 26 bf a9 ee 9a 3e
       -0.52629125 0.58531135 -0.6520771 0.30260208
000040 b1 3a f0 be 44 94 6c 3e a1 2a cf bc 7d 2e f0 3e
       -0.46919778 0.23103434 -0.025288882 0.46910468
000050 17 47 33 3f 29 55 66 3d 26 da 35 bc dc 63 25 3f
       0.7003035 0.05623356 -0.011099374 0.646055
000060 e8 e1 58 3e 09 1e 14 bf 50 cb 8c be d1 de 87 3e
       0.21179926 -0.5785833 -0.27498865 0.26537183
000070 5a 1a ce 3e 90 06 94 3e 15 94 59 3d d5 0a 2f be
       0.4025448 0.28911257 0.053119738 -0.17093976

bn1.running_var f4 [32]
000000 9f 8b 46 3b 87 00 14 3b 8b 65 e4 3b 64 68 ec 3b
       0.0030295623 0.0022583322 0.0069701127 0.007214593
000010 42 3a a6 3b f1 6c ee 3a 02 3f e8 3b c4 e8 c2 3b
       0.005072863 0.0018190426 0.0070875892 0.005948158
000020 16 5d 6b 3b f8 6c 35 3b 00 95 b2 3b 83 bf bb 3b
       0.0035913638 0.0027683359 0.005449891 0.005729617
000030 ef a5 67 3b 43 e4 4d 3b ae db 81 3b 44 4f 82 3a
       0.0035346707 0.0031416572 0.0039629554 0.0009941836
000040 5c 8d fd 3a a2 a5 4a 3c 8e 44 a9 3b b2 a4 db 3b
       0.0019344497 0.0123685915 0.005165643 0.006702983
000050 b1 e7 5e 3b 15 fa ee 3a 7e ae be 3a 72 f7 49 3b
       0.003401261 0.0018232489 0.0014547852 0.0030817655
000060 db 69 27 3c 81 4b 08 3b 36 26 cf 3b 73 f6 c9 3b
       0.010218109 0.0020796957 0.006321694 0.0061634122
000070 fd 91 2e 3b 64 5b a1 3b ad 22 62 3b 8c 81 93 3b
       0.0026637309 0.0049242247 0.0034505532 0.004501527

gat2.att f4 [1, 2, 64]
000000 4f 86 36 3e 7b 89 36 3e 80 67 70 3e 88 0e 65 3e
       0.17824672 0.17825882 0.23476982 0.22368824
000010 58 61 dc 3d 3b 9e 5d be b6 b7 de be fe f1 9f bd
       0.10760754 -0.21642391 -0.43499535 -0.07809828
000020 54 c2 6f 3e 49 44 8f 3e 39 09 0e 3f a5 85 c3 be
       0.23413974 0.27981785 0.5548282 -0.381879
000030 16 27 97 3e 18 ff bc be 47 5c 4b 3e 2d c6 66 3e
       0.29522008 -0.3691337 0.1985942 0.22536536
000040 85 14 ea be f0 16 29 be be 04 3b be 44 7f 10 bf
       -0.4571878 -0.16512656 -0.18263528 -0.5644419
000050 d8 e2 0a be 91 dc a6 3e 49 2f 37 be 82 5c c6 be
       -0.13563097 0.32590154 -0.17889132 -0.38742453
000060 98 f2 ec bd 73 f6 52 3e 7a 0c dd bd 4d 8b 0c be
       -0.115697086 0.20601825 -0.10793395 -0.13725014
000070 d1 62 37 3e d8 03 30 3e 29 54 f1 be 17 04 f9 bd
       0.17908789 0.17188966 -0.47134522 -0.12158983
000080 e7 74 61 be 29 52 83 3e 33 c7 9f bd c0 5b b8 3b
       -0.22017251 0.2564862 -0.07801666 0.005626172
000090 04 eb 93 3e ab c2 0a be f3 52 6b 3e a2 7d 1a 3e
       0.2889024 -0.13550822 0.22980861 0.15086988
0000a0 46 d9 9a 3e dd ca 5d 3e 5c cc b5 3e a1 06 db bd
       0.3024389 0.21659417 0.35507476 -0.10694624
0000b0 bd 8b bf 3e 04 a7 09 be 37 f4 55 3e ef 42 c9 bd
       0.374113 -0.13442618 0.20893942 -0.0982722
0000c0 f2 7f 8e 3e 2b b6 ad be c1 09 cc 3d e5 98 e1 3e
       0.2783199 -0.33928046 0.09962798 0.44061962
0000d0 46 0e 99 bc c2 4a 0a 3e 74 31 c8 be b4 b1 ad 3d
       -0.018683564 0.1350508 -0.3910023 0.0848116
0000e0 36 64 53 be 10 d3 aa be 40 f6 50 3e 8a 64 61 3e
       -0.20643696 -0.33364153 0.20406437 0.22011009
0000f0 d3 26 97 be 08 b0 ff bd 66 6e 5f 3e 6d 1f 78 bd
       -0.29521808 -0.12484747 0.21819457 -0.060576845
000100 43 eb 0b 3f d0 89 8d be 54 fc af be 9f 16 0c bb
       0.54655856 -0.27644205 -0.343722 -0.0021375788
000110 88 42 af 3e dc fd 9f bd a9 a4 c6 3e 1f a7 7b 3e
       0.34230447 -0.07812092 0.387975 0.2457547
000120 e4 f3 22 3e da 6f 3e bd c9 e2 52 3e 76 3a 79 3e
       0.1591335 -0.04649339 0.20594324 0.24338707
000130 83 02 2e be 64 23 a5 3d b2 b4 30 3d ce d7 0d be
       -0.16993146 0.08063391 0.043141074 -0.13851854
000140 82 13 d6 be bb 12 54 3e 72 76 52 3e 1b fc de be
       -0.41811758 0.2071027 0.20552996 -0.43551716
000150 3e 9f 44 3e 10 93 74 3e 41 06 ea 3e d8 61 1d be
       0.19201371 0.23884225 0.45707896 -0.15369356
000160 09 c6 59 3e 2c 5c 95 be 4a 8f 6b 3d 2d 90 8b 3d
       0.2126695 -0.29171884 0.057509698 0.06814609
000170 bc 39 a6 3d 98 69 42 3d 3b 37 90 be 94 32 91 be
       0.08116481 0.047463983 -0.28167138 -0.283589
000180 49 90 44 be 6e 1a b1 bd df 72 16 3e c2 48 fb 3e
       -0.19195665 -0.08647619 0.14692257 0.49078947
000190 a7 9d 8f be a5 85 ef 3d 80 07 3e be be 71 aa be
       -0.28049967 0.116954125 -0.18557549 -0.33289903
0001a0 a4 3f 6e 3e da 14 e4 3d d7 78 c3 3e d9 d4 85 be
       0.23266464 0.111367896 0.3817813 -0.26138952
0001b0 a6 27 b2 be d3 c0 7c bd 51 62 38 3e 8c 5d fa 3e
       -0.34795874 -0.06170733 0.18006255 0.48899496
0001c0 78 54 55 3e fd 66 cc 3d dd 71 87 3e 81 73 b3 3d
       0.20833004 0.09980581 0.26454058 0.08762265
0001d0 0f 15 f5 3d 2e b8 12 3f 97 1c 26 be 31 21 13 be
       0.11966907 0.57312286 -0.16221844 -0.1436813
0001e0 33 52 9b be 71 48 ac 3e 0b 16 c4 3e f8 3a 0f be
       -0.3033615 0.33649018 0.38298067 -0.13987339
0001f0 ca a0 9f 3e b6 9d 97 be a4 75 c0 3e c4 b1 a7 3d
       0.3117736 -0.2961251 0.37589753 0.08188203

gat2.bias f4 [64]
000000 6f 6d be bc 1d 08 9a 3c d1 b1 a8 bb 37 d7 01 bd
       -0.023245541 0.018802697 -0.0051481505 -0.031699385
000010 73 d0 05 bd f1 af dd bc 97 52 49 3c 9e 4d 72 bd
       -0.032669496 -0.027061434 0.012287757 -0.059156053
000020 76 6f 8e bc e7 f1 8b bc 0d dc 4e 3d f2 a6 b1 ba
       -0.017387133 -0.017083121 0.050502826 -0.0013553782
000030 30 4d 8a 3c 23 eb be bc 82 3f 6a bd ff ee be ba
       0.016882509 -0.023305481 -0.057189472 -0.0014567076
000040 26 c0 3b bd 4b e2 8c bc 93 3c d4 3b fe 42 89 3b
       -0.045837544 -0.017197749 0.0064769476 0.0041888943
000050 4c 4f 74 3c f5 89 0a 3d d9 b3 25 bd f4 77 03 bc
       0.014911484 0.033822972 -0.04045472 -0.0080242045
000060 58 e0 96 bc 4e a3 10 bc e5 45 85 3b db 17 73 3b
       -0.018417522 -0.008827997 0.00406717 0.0037093076
000070 11 3f 55 bc d8 55 0a bc 0b fb 55 3d c3 b6 26 3b
       -0.0130155245 -0.008443318 0.052241366 0.0025438524
000080 65 7a ce bb ba 9e 1e bb 07 b8 05 3d d5 f5 bd bc
       -0.0063012117 -0.0024203495 0.032646205 -0.02318851
000090 4d 98 3d 3c f1 52 fc bc e0 7c 1b 3b ce 1b 2a bb
       0.011571956 -0.030801268 0.0023725554 -0.0025956514
0000a0 bd 6f 28 bc 85 64 23 3c 5a 01 ba bc 32 bf 0a bc
       -0.010280547 0.009972696 -0.022705723 -0.008468436
0000b0 2c 18 cb ba 4d bc 66 3d fe 03 c4 bb f9 96 75 bc
       -0.0015494875 0.05633192 -0.005981921 -0.014989608
0000c0 67 4f 64 bc 5f a6 3e 3c 5b 66 0b bc 4e 04 83 3d
       -0.013934947 0.011636346 -0.00850829 0.063973054
0000d0 e3 99 fd 3b 0c 55 aa bc 46 1c 5f 3c a9 94 37 3d
       0.007739292 -0.020792507 0.013617581 0.044819508
0000e0 7d 15 b5 3c 5f 6a 2e 3d 41 65 b5 bb c0 ed 0f 3c
       0.022104973 0.042581912 -0.005535752 0.008784711
0000f0 64 fe c2 b9 c8 7d 45 3c de e2 33 bc a0 a0 b3 3c
       -0.000371921 0.012053914 -0.010979382 0.021927178

gat2.lin_l.weight f4 [128, 32]
000000 ec 41 f9 3d c3 88 a6 bd 12 12 0d 3e 2b ea 5c be
       0.12170777 -0.08131554 0.13776425 -0.21573703
000010 e3 a5 ac 39 b6 63 9d 3d ce dd 0f bd 4b 7d 04 be
       0.00032929992 0.07685034 -0.03512364 -0.1293842
000020 35 bb 3f 3e 01 39 f7 bd 2d 18 02 be 92 98 5e be
       0.18723758 -0.120714195 -0.12704535 -0.21737888
000030 9e 90 2d 3c 20 16 fa 3d 20 3e 15 bd e9 74 51 be
       0.010593561 0.12211251 -0.0364362 -0.20454754
000040 4a e0 a2 bd f2 6a f1 bd 21 8b 55 3c f6 02 af bd
       -0.07952936 -0.11787976 0.013033659 -0.08545487
000050 2f 2b d6 3d 5b 4a e7 3d 97 f4 08 3d 61 b0 e3 3d
       0.10457455 0.11293479 0.033436384 0.11117626
000060 14 36 7a bd f7 21 ab bd d4 e5 52 3c 5e 52 d9 3d
       -0.06108673 -0.08356088 0.012872178 0.106114134
000070 0f f3 03 be 7b 5a 05 be 88 0e 24 be 6a 70 3a 3e
       -0.12885688 -0.13022797 -0.16021168 0.18206945
000080 ff 22 81 3d 0c 34 50 3e e4 9f 62 bd 37 5e 2d be
       0.06305503 0.20332354 -0.055328265 -0.16930471
000090 4b 96 42 be 16 f1 f3 bd 85 2c 40 be be 23 77 be
       -0.19002645 -0.11911218 -0.18766983 -0.24134728
0000a0 22 fa be 3d 5b e0 98 3d 27 91 21 3e 45 d8 6e bd
       0.09325053 0.074646674 0.15778027 -0.05831172
0000b0 73 e9 eb bc c7 60 a1 bd c0 d1 96 bd fa bf 44 be
       -0.02879784 -0.07879787 -0.073642254 -0.19213858
0000c0 84 75 71 be da c2 92 3e 3b bf df 3d 7d cf 23 be
       -0.23579985 0.28664285 0.10925146 -0.15997119
0000d0 b1 44 12 be e3 0a 19 3d 3a 3b 35 be 0e c8 5f bd
       -0.14284016 0.037363898 -0.17698374 -0.054634146
0000e0 fe 8a c7 3d a8 4f a4 3c c4 0c 2c be 67 f8 32 be
       0.097433075 0.020057514 -0.16801745 -0.1747757
0000f0 f3 a0 81 3e 4f 15 19 3e b9 0e 17 be 03 28 19 3d
       0.25318107 0.14949535 -0.1475171 0.037391674
000100 12 c6 0f 3e 80 30 3c be f3 1c 47 3d e4 70 f5 3d
       0.14040402 -0.18377876 0.048611593 0.11984423
000110 1b f8 14 be 1c 9f 8e bd 09 0e 90 bc af 08 2f 3d
       -0.1454777 -0.069639415 -0.017584817 0.04273289
000120 6c 37 0a be 6a a9 21 be 59 94 89 bd 8c c6 ae bc
       -0.13497704 -0.15787283 -0.06717748 -0.021334909
000130 47 11 8b bd 11 95 9f bd b2 85 ce bd a3 90 01 be
       -0.06790405 -0.07792104 -0.10084094 -0.12652831
000140 86 44 4f be 99 63 16 be 16 8c 10 3e 6f 4a 2b bc
       -0.20240983 -0.14686431 0.14115939 -0.010454758
000150 27 83 2e be 26 48 aa bd 0c 07 bd bd 85 05 9b bd
       -0.17042218 -0.083145425 -0.0922986 -0.07569412
000160 9d 09 e8 3c b5 f8 9e bc 0d f9 ff bd 8a 43 d8 3c
       0.028324896 -0.019405702 -0.124986745 0.026399393
000170 3c 1b 1b be a4 7f fe 3c e3 76 79 3e 12 74 b0 3b
       -0.15147108 0.031066723 0.24361758 0.0053849304
000180 73 f2 aa b9 0f 89 af bd 13 3f a0 bd 5c 21 73 3d
       -0.00032605566 -0.08571064 -0.078245305 0.059357986
000190 23 b8 8e be d9 db d8 3d e9 34 f6 be 2b 11 99 3e
       -0.2787486 0.105888076 -0.48087242 0.2989591
0001a0 cb 87 77 be 2a dc 86 3d cc 53 08 3e 45 e1 81 3e
       -0.24172895 0.06584962 0.13313216 0.2536718
0001b0 8b 72 51 3e 8b 19 fe bd 25 18 5a 3b 76 59 60 3d
       0.20453851 -0.12407216 0.0033278551 0.054772817
0001c0 79 d3 bd bd 5f 0f 8f bc 2f 5e 12 3e 30 14 45 be
       -0.09268851 -0.017463384 0.1429374 -0.19245982
0001d0 13 fc 8e be 50 d2 1f 3e d4 bb 40 be 63 e9 17 3d
       -0.27926692 0.15607572 -0.1882165 0.03708781
0001e0 d4 43 cb 3d 38 cc 53 be 7a 4c 63 3e 51 a9 70 be
       0.099250466 -0.20683372 0.22197142 -0.23502089
0001f0 91 dd 2b be 72 43 f6 bc 8a 4b 91 3d 1a 54 1a 3e
       -0.1678374 -0.030061457 0.07094486 0.15071145
000200 4e be d0 bd cc 82 0b be c9 f8 91 3d a4 4b 1a 3e
       -0.10192548 -0.13624114 0.0712753 0.15067917
000210 f3 20 04 3e 5c aa 30 be d0 23 30 be 46 65 60 be
       0.12903194 -0.17252487 -0.17201161 -0.21913633
000220 4c 85 1c 3e f1 4b 3a 3d b6 d0 3a be fc 9a 78 bd
       0.15285224 0.04548258 -0.1824368 -0.06069468
000230 ff ad 04 be c6 7d 3a 3d e8 a5 35 bd 08 ac 38 be
       -0.12956999 0.045530103 -0.044347674 -0.18034375
000240 b4 8a 65 bd 5a e8 0f 3e a2 e1 bb 3c ab fb 05 3e
       -0.05604048 0.14053479 0.022934739 0.13084285
000250 1b db f8 bd df b0 14 3e c4 cb 2b 3e 9f 2b a1 bd
       -0.12151166 0.14520596 0.16776949 -0.07869648
000260 73 ca 5b be 04 de 39 3e 47 ab 6e be 34 fd a7 3c
       -0.21463947 0.18151098 -0.23307525 0.020506479
000270 9d a5 4c 3d cf 86 33 3d 18 f4 06 3e 60 15 a0 3c
       0.04996263 0.043829735 0.13179052 0.019541442
000280 da 64 8c be b4 bd cf bd 28 f7 f0 bd d5 41 81 3e
       -0.27420694 -0.10143605 -0.11765891 0.25245538
000290 6b 89 b6 3c 19 8d 16 3e 6f 55 02 be d2 d4 cf 3d
       0.022282323 0.14702262 -0.12727903 0.10148014
0002a0 b4 a4 19 3e df 89 20 3d f1 87 a4 be fc 7f 25 3e
       0.15004236 0.039193984 -0.32134965 0.16162103
0002b0 04 ae d2 3d ff 35 e0 3d 36 20 49 3e 44 78 9a 3d
       0.10287097 0.10947799 0.19641194 0.0754247
0002c0 52 47 42 3e 34 12 96 be f1 2a 12 be de 6f 26 bd
       0.18972519 -0.29310763 -0.14274193 -0.04063403
0002d0 a7 28 9e 3d 14 70 9e 3e 4d 4e 35 3e 35 25 39 be
       0.077225976 0.30944884 0.1770565 -0.180806
0002e0 d9 b4 2f bd e1 58 d5 bd 87 59 30 be b7 10 f2 bd
       -0.04289708 -0.10417343 -0.17221652 -0.11819594
0002f0 e0 c4 44 bb b3 a7 c3 3d 50 ac 68 3c c6 5e f8 3a
       -0.0030024573 0.095534705 0.014201239 0.0018949143
000300 5c 38 70 be 48 d3 99 bd a3 bd 00 be 57 00 a8 bd
       -0.23459 -0.07511002 -0.1257234 -0.0820319
000310 aa 1c 10 3d 67 43 00 3e c2 bb 80 be 3b 03 77 3e
       0.035183586 0.12525712 -0.25143248 0.24122326
000320 dc 52 88 3d 92 31 3e 3d f0 78 0f be 61 59 06 3e
       0.06656429 0.046433993 -0.14010978 0.13120033
000330 34 5b f4 bb 7c 44 18 bd e8 94 c7 3c 3a e5 7d 3d
       -0.0074571613 -0.037174687 0.024362996 0.061986186
000340 ce 12 e1 3d a1 20 ca bc f1 00 c0 bd 0a fe 26 3e
       0.10989915 -0.024673762 -0.093751796 0.16307846
000350 be 1a f7 bd db 39 14 3e e2 08 eb bc 09 bb 08 3c
       -0.120656475 0.14475195 -0.02869076 0.008345374
000360 c2 ed a1 bd 1b e1 1e 3d 2c ff 48 3e a7 95 3e be
       -0.07906677 0.038788896 0.1962859 -0.18611775
000370 4a b6 04 3d b5 19 27 3c dc 89 6e 3d b3 ee 9d bd
       0.032400407 0.010199 0.05823694 -0.07711544
000380 d2 cd 86 3d f4 1b 04 be 41 b4 4b be 39 1d 8b 3e
       0.06582226 -0.12901288 -0.1989298 0.27170733
000390 ca 65 17 3d e8 41 2c 3e 27 1a 80 be 06 07 da 3d
       0.036962308 0.16822016 -0.25019953 0.10645871
0003a0 75 d7 78 3c 7f c1 bf 3d 41 0d 62 3d 13 2d 0a be
       0.015188088 0.09363078 0.05518842 -0.13493757
0003b0 32 dc b3 3d 56 a9 2e 3e 8e 14 b3 3e 90 53 77 3e
       0.08782233 0.17056784 0.3497662 0.2415297
0003c0 4d 19 b2 3e ca ef 6a bd 71 c1 d5 3d 06 41 5c be
       0.34784928 -0.057357587 0.10437287 -0.2150918
0003d0 a6 a8 b3 bd d3 48 8f b9 bf 9a 22 3e 47 48 94 3b
       -0.087724015 -0.00027329344 0.15879343 0.0045252177
0003e0 43 f1 c9 3d 06 4a de bd 29 40 ab bd 3d 2b 79 be
       0.0986047 -0.108539626 -0.08361847 -0.243329
0003f0 bb 03 7d bc 07 bb 16 3e 21 28 76 3e 9f a0 17 3d
       -0.015442784 0.14719783 0.24038745 0.037018415

gat2.lin_l.bias f4 [128]
000000 90 50 a4 3d 1a 2a 25 3d 65 dd 03 3e 78 a8 3f 3d
       0.080231786 0.040323354 0.12877424 0.046791524
000010 87 39 19 be 09 83 5e bd 91 68 16 be 1e 11 47 be
       -0.14963351 -0.054324184 -0.14688326 -0.19440123
000020 f4 3c 7f 3c 94 73 2e 3e 8c 6a 62 be 15 34 45 3d
       0.015578497 0.17036277 -0.22110957 0.048145372
000030 da 0e 8e 3d c2 b0 19 be 82 70 1d 3d a7 fa ff bd
       0.069364265 -0.15008834 0.038437374 -0.1249898
000040 95 ec 12 bc 77 fd 31 3e 05 47 b0 ba 9c 46 16 3d
       -0.008967538 0.17381845 -0.00134489 0.036688432
000050 e3 2d 70 3d 70 61 16 3d d0 3e 8f 3e 21 83 67 3d
       0.05863751 0.036714017 0.2797761 0.05652154
000060 48 89 ea 3b 27 90 8b bd 6d b0 d5 bd 2d bb 87 3d
       0.0071574785 -0.06814604 -0.10434041 0.06627498
000070 f2 fa dd bd 09 db 32 3d 1d 2c 19 be 22 20 c1 bc
       -0.1083888 0.04366592 -0.14958234 -0.023574892
000080 0d 6e 88 be 4f aa 1c be 6f ba a5 bd 99 30 a3 bd
       -0.26646462 -0.15299343 -0.080922 -0.07968254
000090 31 40 89 bd 36 a7 28 bc 18 21 a3 bd db fe 05 be
       -0.06701697 -0.010293772 -0.079652965 -0.13085501
0000a0 3f ea b1 bc bd db 48 bd 7f 38 53 3e a5 d4 ed 3d
       -0.021718143 -0.049037684 0.2062702 0.11612824
0000b0 6b 38 9c bb 2a d9 89 be 25 d7 d8 bd 20 13 57 bd
       -0.0047674677 -0.26923496 -0.105879106 -0.052508473
0000c0 1f fd da 3d 29 35 36 be 6b e6 11 3e 6c 55 00 be
       0.1069281 -0.17793716 0.14248054 -0.12532586
0000d0 3b 33 01 be a7 61 5f 3d 86 29 a6 3e 7f 6c d1 bc
       -0.12617199 0.054536488 0.32453555 -0.02556443
0000e0 3f 27 87 bd 9f 43 55 3d 28 84 42 3c 5a 1b 0d be
       -0.065992825 0.05206644 0.011872329 -0.13779965
0000f0 f1 e4 5d bd 49 22 23 be ff f9 07 3e 6a 4c cf 3d
       -0.054173414 -0.15931047 0.1327896 0.10121997
000100 6f ab 0f 3e 28 9e e2 bd c8 80 f4 bd b8 d5 92 be
       0.1403024 -0.11065322 -0.119386256 -0.2867868
000110 07 72 14 3e 13 f8 05 3e 77 22 db 3d 87 b3 4b bc
       0.14496623 0.13082914 0.10699933 -0.012432939
000120 40 17 1b 3c 75 f6 33 be 35 09 90 3d ff a7 f9 3d
       0.009465992 -0.17574485 0.07033006 0.12190246
000130 a4 2b 8e 3d 52 dd 36 bd e0 1f 55 3e 0b e6 d9 bd
       0.069419175 -0.04464466 0.2081294 -0.1063958
000140 20 8b ec 3d b9 e5 32 be 6f b5 a1 3d 7c ef a4 3d
       0.115499735 -0.17470445 0.07895934 0.080534905
000150 3f 86 9d bd 28 f2 a3 bd a0 8d b8 3d 83 5b 70 3e
       -0.07691621 -0.08005172 0.09011388 0.23472409
000160 16 b7 f0 3d 69 f0 7d be 3e 50 a3 3d 3f df 00 bd
       0.11753671 -0.2479874 0.07974289 -0.031462904
000170 8b 71 67 be 7c 09 fd bb ae 0f 60 3d 9b 3a 23 3e
       -0.22601907 -0.007722078 0.054702453 0.15940325
000180 f1 84 fa 3c 68 88 15 3d 81 54 a2 3c 75 5d 71 3e
       0.03058097 0.03650704 0.019815685 0.23570807
000190 4e e0 9d 3d 21 38 3c be e9 a1 09 bd a6 dc 76 3e
       0.07708798 -0.18380786 -0.033601675 0.24107608
0001a0 97 82 c9 3d b1 a1 07 be df da 92 be 5d c8 a7 3d
       0.09839361 -0.13245274 -0.2868261 0.08192513
0001b0 2f cf 44 3d cc 4d 5e be 47 2e 09 3e ea 73 87 3e
       0.04804915 -0.21709365 0.1339656 0.26455623
0001c0 e7 7b 8b bd 14 21 77 3e e3 f2 f5 3d 2c 10 84 3d
       -0.06810742 0.24133712 0.120092176 0.06448397
0001d0 ef 72 3d bd c6 72 1d 3e e7 ef b6 3b 22 d3 66 be
       -0.046252187 0.15375814 0.005582798 -0.22541478
0001e0 84 22 12 3e 3e ca a7 bc 71 24 96 bd d9 23 88 bd
       0.14270979 -0.020482179 -0.073311694 -0.066474624
0001f0 cd 25 df 3c 55 87 8b 3d 13 d5 5e 3c 4a 19 a3 be
       0.027239705 0.06812922 0.013600606 -0.31855232

gat2.lin_r.weight f4 [128, 32]
000000 82 db 72 3d 1e 67 35 3e f8 8c b3 3b 2f 3b 29 3e
       0.05929137 0.17715117 0.0054794513 0.16526483
000010 97 db 34 3e 90 da dd 3d 90 49 5c 3e e2 aa 80 3d
       0.17661892 0.10832703 0.21512437 0.06282593
000020 9d 77 b9 bd ba f9 3c 3d fd 31 1a 3d 52 c2 42 3e
       -0.090560175 0.046136595 0.03764533 0.1901944
000030 7a 25 4f be 0e df 02 be da aa 2c bd da 82 d3 bd
       -0.2022914 -0.12780401 -0.042155124 -0.10327692
000040 ae b8 bb ba 03 d6 94 be 86 49 e7 bc 6d 58 bf 3d
       -0.0014322007 -0.29069528 -0.0282333 0.09343038
000050 28 c1 7f bd e7 72 7a be 43 54 57 3e 2b 05 1e 3e
       -0.062440068 -0.24457894 0.21028237 0.15431659
000060 be e7 5a be 2f 40 3f 3e 9a b4 68 be 5f 32 d8 3c
       -0.21377465 0.18676828 -0.22725144 0.026391206
000070 f0 49 1b be ec d8 13 bd 0a 58 c1 3d c6 ec 73 be
       -0.15164924 -0.036095545 0.0944062 -0.2382079
000080 9f 75 32 3e ec f6 52 be 7b bf b9 bc 94 89 eb 3d
       0.17427681 -0.20602006 -0.022674313 0.1150085
000090 01 13 c5 3d e4 9d 1a be 16 7a 77 be d1 bc 2b 3e
       0.09622765 -0.15099293 -0.24167666 0.16771246
0000a0 0a c3 83 bd 1a ea c4 3c 35 63 34 be 75 21 58 3e
       -0.06433685 0.02403741 -0.1761597 0.21106513
0000b0 8e 62 8b be 9c 1f fd 3d 17 a3 1b be 2e a0 46 3e
       -0.2722363 0.12359545 -0.15198933 0.19397041
0000c0 e9 80 de bc 5d e6 cd bc 53 a7 20 be b8 2e 09 3e
       -0.027161079 -0.02513426 -0.15688829 0.13396728
0000d0 52 84 0b be 41 d8 f6 bd 04 de 11 3e dc b7 06 bd
       -0.13624695 -0.12052966 0.14244848 -0.032890186
0000e0 90 ed 73 3e 44 58 a0 bd 14 40 83 bd b6 97 ba 3c
       0.23821092 -0.07829335 -0.06408706 0.02277742
0000f0 51 cf 12 3e c6 8e 88 3e 6c ce 90 3e d6 b2 e5 3d
       0.14336897 0.26671427 0.28282487 0.11215751
000100 41 0b 21 be 82 b8 38 3e f6 61 95 3e 81 57 91 be
       -0.1572695 0.18039134 0.291763 -0.28387073
000110 07 ac d8 bd 1c 1c cd bd 96 6d 8c 3e d5 18 80 3d
       -0.105796866 -0.10015127 0.27427357 0.06254736
000120 8f e9 48 3d a3 59 83 3d 2c dd 1c 3e 60 d6 51 be
       0.049050864 0.06413581 0.15318745 -0.20491934
000130 43 38 71 3b 1e 7c bb 3d b9 f8 5c be 30 3f d5 bd
       0.0036807216 0.09154533 -0.21579255 -0.10412443
000140 4b a3 31 3d 54 d7 b1 3e 1f 88 2e 3c a7 3c eb 3d
       0.04336862 0.34734595 0.010652571 0.11486178
000150 12 a3 8f 3d d4 72 07 be 4d 5e 88 bc 46 60 34 3e
       0.07013525 -0.13227397 -0.016646529 0.1761485
000160 73 e1 cf 3c f6 04 7d 3d 9c 0d 4a bd ef a4 15 b8
       0.025376057 0.06177231 -0.049329385 -3.5677975e-05
000170 d3 19 1d 3e 5a c6 24 bd 42 46 2a be 08 ef 16 3e
       0.15341882 -0.040228225 -0.16628364 0.1473962
000180 d2 cf 34 3e 74 aa 3b be 1c 5f a3 3e d1 c7 44 be
       0.17657402 -0.18326741 0.319085 -0.19216849
000190 95 ae 53 3d a9 22 a3 3c 37 38 50 3e 8e 30 ba 3d
       0.051680166 0.019913988 0.20333944 0.09091292
0001a0 77 a2 60 3c 2a d1 09 3e 81 5d 20 3d c6 74 d5 bd
       0.01371061 0.13458696 0.039151672 -0.104226634
0001b0 16 7a 40 be 14 6d 7c 3e 34 73 d4 3c 35 67 0e be
       -0.18796572 0.24650985 0.02593384 -0.13906558
0001c0 73 bd a9 bd ce 12 91 3e 1b ab 41 3e ba cf 27 bd
       -0.08288088 0.2833466 0.18912928 -0.040969588
0001d0 a1 d5 d9 bd 68 98 36 3d 39 47 42 3e 16 d2 09 be
       -0.106364496 0.04457894 0.18972482 -0.13459048
0001e0 90 a4 bd 3d 1e 67 33 3e 5e 04 6c bd b6 fc 30 be
       0.092599034 0.17519805 -0.057621352 -0.17283902
0001f0 3d 5e 36 3e 3b b7 1d be 23 9e fc 3d 85 26 1d 3e
       0.17809387 -0.15401928 0.1233485 0.15346725
000200 f5 0f a7 3c ec 89 85 3c cf 33 e9 bd cc 79 d0 3d
       0.020393351 0.016301118 -0.11386835 0.10179481
000210 ab 36 d7 ba 27 e1 2b 3b 55 27 60 be 3f 35 05 bd
       -0.001641949 0.002622673 -0.21890004 -0.032521483
000220 67 3c fb bd da 5b e6 be 44 2d a0 be f0 ab 54 3e
       -0.1226738 -0.44991952 -0.31284535 0.20768714
000230 4e bd 03 3d 37 20 e2 3d b1 ca 31 3e 35 04 35 3e
       0.032162957 0.11041301 0.17362477 0.17677386
000240 9a dd 88 3c 37 6d f0 bd 7c 6f aa be 37 f1 14 3d
       0.01670723 -0.11739581 -0.3328818 0.036362853
000250 48 9d 74 3d e7 47 c6 bd bf fe 63 3e be 8f 33 be
       0.059720308 -0.09681683 0.22265147 -0.17535302
000260 0d 11 42 be b2 52 74 3d d4 82 8f be e5 2e 1e 3e
       -0.18951817 0.059649177 -0.280295 0.15447576
000270 29 d7 1b be 87 ce fc 3c 1f 3c a5 bc 30 05 e4 be
       -0.15218796 0.030860199 -0.02017027 -0.44535208
000280 82 64 b2 3e 4a 59 be be c3 2c 17 3e da 08 b5 3d
       0.34842306 -0.37177497 0.14763169 0.08839579
000290 75 81 d6 be cf c8 03 bf 8e ad 85 3d 2a 70 65 3e
       -0.41895643 -0.51478285 0.065272436 0.22406068
0002a0 ff 89 c2 be fb 19 a7 be 1d ba cc bd 69 26 cb 3e
       -0.37995908 -0.3263701 -0.09996436 0.39677742
0002b0 2f 50 cb bd 54 a7 de 3d 62 8c 79 be b2 c3 aa 3a
       -0.09927403 0.10871759 -0.24369958 0.0013028292
0002c0 09 90 b2 bd cf 61 b9 bd 70 86 98 bd f1 9f 58 3d
       -0.08718879 -0.09051859 -0.07447517 0.052886907
0002d0 3f 14 93 be 72 87 98 3b 76 62 d7 bd 7e 0a 84 3d
       -0.28726384 0.004654818 -0.10516827 0.06447314
0002e0 a3 9f 58 bd cc ed b3 be 70 99 d9 bd 6f d0 2d 3d
       -0.052886616 -0.35142362 -0.10624969 0.042435106
0002f0 c5 69 70 bd 3b 27 0f 3e 08 48 85 3e 81 45 5a bd
       -0.05869462 0.13979809 0.26031518 -0.05328894
000300 d9 2c 06 3e 95 4c 98 3d ac 28 bd bd e7 93 58 bd
       0.13103046 0.07436482 -0.09236273 -0.052875426
000310 47 c9 0c 3d 69 0c 46 3e 38 21 cf bc 89 2b 95 be
       0.03437164 0.19340672 -0.025284395 -0.29134777
000320 7e 1b bd 3d 1e 6b 3c be d6 1f a6 be 07 25 ba 3c
       0.09233759 -0.18400237 -0.32446164 0.022722734
000330 bc dc 0f be 47 0b b5 3d 56 7d 1b 3d 79 41 db bd
       -0.14049047 0.088400416 0.037961327 -0.10705847
000340 e8 1f 99 bd df ce bb be d3 b1 e4 be 1b 12 f4 3d
       -0.07476789 -0.36681268 -0.4466692 0.11917516
000350 55 0e 59 3d 8c bb cf bc 4a 93 ff 3d c6 67 1a be
       0.052992184 -0.025357984 0.12479265 -0.15078649
000360 3b 7d 31 be 62 84 95 3c 7c 5e 1b be 96 c6 eb 3e
       -0.17332928 0.018251602 -0.15172762 0.46049947
000370 06 46 2b be aa 16 24 be 1a 61 13 be 9e b0 c8 be
       -0.1672593 -0.1602427 -0.1439251 -0.39197248
000380 8f 28 24 3c db 63 1e bd ad c6 4d 3d f6 ff c2 3d
       0.010019436 -0.03866945 0.0502383 0.09521477
000390 be a2 8e 3e ff 53 1f be aa 9e be 3d f6 d6 ba bd
       0.27858537 -0.15559386 0.093076065 -0.09123032
0003a0 99 7a 00 be 55 21 18 be 27 ba 51 be ab fd 84 3d
       -0.12546767 -0.14856465 -0.20481168 0.06493696
0003b0 cc a4 1c be cd 56 08 3e 8f 3e 28 bd 1d 4d 46 be
       -0.1529724 0.13314362 -0.041075286 -0.19365354
0003c0 5b 56 f9 3c 21 4b 3e be a5 2e 3b be 0f 63 22 3e
       0.030436685 -0.18583347 -0.18279512 0.158581
0003d0 d3 5f 1d 3e 8c 03 d7 bc 0c 85 2b 3d 64 e7 d6 3d
       0.15368585 -0.026246808 0.04187493 0.10493353
0003e0 d5 0b 47 bc e3 49 28 3e e5 81 e3 bd 13 cd 97 bd
       -0.012148817 0.16434436 -0.1110876 -0.07412162
0003f0 66 83 63 be 6c 81 46 be 42 a2 5d 3d f9 5d 2c bd
       -0.22218093 -0.19385308 0.05410982 -0.042081807
