src/falldetector/falldetector/checkpoints/stonegat.pth (torch, 60975 bytes, 29 tensors)

gat1.att f4 [1, 2, 32]
-0.4245905 0.33469224 0.016727861 -0.26530656 0.1053771 0.2911211 0.026537733 0.24373278
0.56023484 -0.29906708 -0.25776237 -0.56022906 -0.014146304 0.6420668 -0.37338537 0.4930873
0.1931348 0.22316372 -0.4115568 0.58531946 -0.6943248 -0.62277216 -0.7080931 0.2896978
0.21183391 -0.24279177 0.17672874 -0.3232818 -0.29527694 0.42227536 -0.42548785 -0.37379462
0.2082885 -0.31474093 0.42256412 0.30964735 -0.13601407 -0.3609705 0.56933767 -0.49023414
0.13600923 0.51532775 0.19260643 0.3012182 0.30448434 -0.08250997 -0.59466606 0.17142709
-0.4239968 0.40734547 -0.32127625 0.4201058 -0.75977075 -0.07781666 -0.6252755 -0.58664244
-0.09201771 -0.35075998 0.4422014 -0.09357023 0.6348101 0.1931818 0.16811544 0.6103875
00000000: ed63 d9be c85c ab3e de08 893c 43d6 87be
00000010: f3cf d73d d30d 953e a965 d93c 1695 793e
00000020: 8d6b 0f3f 521f 99be 6ef9 83be 2c6b 0fbf
00000030: e6c5 67bc 7d5e 243f 5e2c bfbe f075 fc3e
00000040: 21c5 453e 0885 643e 93b7 d2be 7fd7 153f
00000050: 45bf 31bf ff6d 1fbf 9745 35bf 4553 943e
00000060: fdea 583e 689e 78be 61f8 343e 3185 a5be
00000070: 8a2e 97be 7a34 d83e 8bd9 d9be 0262 bfbe
00000080: 9549 553e b925 a1be 535a d83e 198a 9e3e
00000090: 4647 0bbe 20d1 b8be 1dc0 113f f8ff fabe
000000a0: 0146 0b3e 85ec 033f 9f3a 453e 4639 9a3e
000000b0: 5fe5 9b3e fdfa a8bd 093c 18bf 958a 2f3e
000000c0: 1c16 d9be 968f d03e 527e a4be 1b18 d73e
000000d0: 5680 42bf 575e 9fbd 0e12 20bf 332e 16bf
000000e0: c873 bcbd d096 b3be 3968 e23e c0a1 bfbd
000000f0: ea82 223f 73d1 453e 7426 2c3e 5b42 1c3f

gat1.bias f4 [32]
0.001176006 0.21975066 -0.05949045 -0.048883405 -0.11929324 0.10288281 0.058242105 0.107284546
-0.061587267 -0.04432656 -0.02393774 0.045719523 -0.15612681 0.0061037135 0.0047168313 0.07486322
-0.02991427 0.02633126 0.015140309 -0.018565878 0.012101092 -0.04996174 0.060354088 -0.15908296
0.044959974 0.03378534 -0.10039432 -0.11446264 -0.054915942 -0.002302914 -0.18024932 0.04091214
00000000: 3724 9a3a 5106 613e 42ac 73bd f739 48bd
00000010: 0450 f4bd 39b4 d23d 468f 6e3d 00b8 db3d
00000020: ee42 7cbd c48f 35bd 1419 c4bc 6544 3b3d
00000030: b5df 1fbe a901 c83b a68f 9a3b e351 993d
00000040: c50e f5bc a8b4 d73c 0f0f 783c 7817 98bc
00000050: a943 463c aea4 4cbd d935 773d a5e6 22be
00000060: f327 383d 7f62 0a3d 8a9b cdbd 636b eabd
00000070: 8aef 60bd 7cec 16bb 4793 38be 7d93 273d

gat1.lin_l.weight f4 [64, 3]
-0.35644922 0.18407294 -0.059126493 -0.12506373 0.11464022 -0.05036207 0.17683806 0.30086362
-0.30285835 -0.08621568 -0.10557831 0.027784452 0.09146004 0.065502614 -0.07513026 0.2670303
-0.16652323 0.1130045 -0.03241134 0.009259366 0.16603112 0.48190382 -0.0972756 0.09946871
0.25168034 0.1696111 -0.09112691 0.008855384 -0.30248734 -0.14054905 -0.019459317 0.008323515
-0.019963859 -0.5411326 -0.29200324 0.10201 -0.09539578 0.26587367 -0.22061919 0.42958158
-0.14660263 0.061863806 0.080231525 -0.2975881 -0.20317785 0.20804407 0.15609406 -0.09934391
-0.1763933 0.3286924 0.06945546 -0.18639636 0.13081926 0.14749846 -0.34102616 0.18506803
-0.30621353 0.151652 0.12014287 0.05160971 0.0021898001 -0.30933598 -0.034823824 -0.21416555
-0.19973584 0.06289564 -0.34761804 -0.4653571 -0.006036841 0.0012491957 0.00081642333 0.041403804
0.2918791 0.20826924 -0.17743713 -0.32200098 0.11994109 0.1551586 0.35258055 0.08293168
-0.104204915 -0.041794907 -0.1236138 0.15485246 -0.07350537 -0.25118828 0.2731364 0.11223375
0.30007747 0.10780973 -0.059931368 0.24515992 -0.18431257 -0.08328454 0.26254594 0.13455014
0.22366546 -0.04410604 0.34465566 -0.26341102 -0.16179916 0.15295976 0.015024939 -0.2275866
0.18795133 0.050158333 -0.19568662 -0.09479437 -0.1409934 0.04205731 0.29489455 0.070863634
-0.0008738173 -0.30750784 0.42903793 0.07706501 0.2881467 0.13524446 -0.28096426 -0.1207927
0.034066293 -0.102041654 -0.18924403 -0.10637324 0.16302313 0.2775263 0.12139191 -0.10980185
0.4533018 0.2897243 -0.22222517 0.14479527 0.082428694 -0.0436088 0.104775764 0.07400724
-0.15897776 -0.14892206 0.049492203 -0.26627368 -0.4761241 -0.38967058 0.046013385 0.27312052
0.19646992 0.16607693 -0.23632456 0.24022652 -0.23361309 -0.27857473 0.25322735 0.23122098
-0.2000421 0.061428003 -0.35202837 0.1846086 -0.4318775 -0.1473556 -0.38273925 -0.060682252
0.4018634 0.123214155 0.117317885 -0.43419954 -0.25794894 -0.4108442 -0.025037406 0.12743303
0.19118404 0.089339726 0.031923305 -0.30324918 0.19395694 0.14260522 0.41966262 0.011987509
0.26785624 -0.18650344 0.16131078 0.25472438 -0.10480378 0.07559336 0.5797744 -0.13000518
-0.27238598 -0.22397141 0.16392775 -0.11475025 0.10456203 0.25725764 -0.27965388 0.04687675
00000000: 8380 b6be 9e7d 3c3e 9f2e 72bd b510 00be
00000010: 7ec8 ea3d 7548 4ebd 0915 353e cc0a 9a3e
00000020: 4010 9bbe d991 b0bd 7139 d8bd 389c e33c
00000030: 674f bb3d 3c26 863d e5dd 99bd 32b8 883e
00000040: 1185 2abe e76e e73d c1c1 04bd 99b4 173c
00000050: 1004 2a3e 19bc f63e 6e38 c7bd 40b6 cb3d
00000060: 3fdc 803e 88ae 2d3e bfa0 babd 2c16 113c
00000070: 9fdf 9abe 17ec 0fbe 2569 9fbc 5a5f 083c
00000080: 3f8b a3bc ab87 0abf 7381 95be 9eea d03d
00000090: dd5e c3bd 9820 883e ffe9 61be 1ef2 db3e
000000a0: 001f 16be e764 7d3d 6d50 a43d 785d 98be
000000b0: db0d 50be 8109 553e 1fd7 1f3e d274 cbbd
000000c0: 72a0 34be 5f4a a83e aa3e 8e3d b0de 3ebe
000000d0: 7cf5 053e d609 173e fb9a aebe 7982 3d3e
000000e0: 05c8 9cbe a94a 1b3e 770d f63d b464 533d
000000f0: c082 0f3b 4961 9ebe 6da3 0ebd 374e 5bbe
00000100: 8d87 4cbe 6ecf 803d fefa b1be 4943 eebe
00000110: b1d0 c5bb 0dbc a33a 3e05 563a 0997 293d
00000120: 2d71 953e 8844 553e 14b2 35be 50dd a4be
00000130: ada3 f53d e5e1 1e3e 7085 b43e 16d8 a93d
00000140: 6369 d5bd 2331 2bbd 3b29 fdbd a591 1e3e
00000150: fc89 96bd c09b 80be 89d8 8b3e cfda e53d
00000160: c1a3 993e 59cb dc3d 987a 75bd 340b 7b3e
00000170: 6fbc 3cbe 1691 aabd 6c6c 863e 83c7 093e
00000180: 8f08 653e 89a8 34bd b576 b03e cfdd 86be
00000190: aeae 25be 7ca1 1c3e 292b 763c 760c 69be
000001a0: 5076 403e d372 4d3d 1362 48be 8d23 c2bd
000001b0: 9360 10be 4944 2c3d 6bfc 963e f420 913d
000001c0: e310 65ba ab71 9dbe dcaa db3e 43d4 9d3d
000001d0: f787 933e 867d 0a3e 8cda 8fbe 2a62 f7bd
000001e0: 1989 0b3d 37fb d0bd 30c9 41be 37da d9bd
000001f0: 89ef 263e ed17 8e3e 529c f83d cbdf e0bd
00000200: 2c17 e83e be56 943e ff8e 63be 3645 143e
00000210: 60d0 a83d 249f 32bd ad94 d63d 1c91 973d
00000220: 11cb 22be 067f 18be 56b8 4a3d 0655 88be
00000230: 8ac6 f3be e782 c7be 8878 3c3d 74d6 8b3e
00000240: 692f 493e 1210 2a3e 11ff 71be f1fd 753e
00000250: 4538 6fbe 59a1 8ebe 04a7 813e 31c5 6c3e
00000260: d6d7 4cbe ee9b 7b3d 103d b4be 090a 3d3e
00000270: 0c1f ddbe 63e4 16be 66f6 c3be f48d 78bd
00000280: 0ac1 cd3e b457 fc3d 5c44 f03d 674f debe
00000290: e211 84be 2c5a d2be 3f1b cdbc ce7d 023e
000002a0: c0c5 433e bff7 b63d 03c2 023d 7a43 9bbe
000002b0: a69c 463e 1a07 123e 05de d63e 4267 443c
000002c0: 7424 893e c2fa 3ebe a72e 253e 3c6b 823e
000002d0: 5da3 d6bd b1d0 9a3d 186c 143f 1420 05be
000002e0: 2d76 8bbe c358 65be addc 273e 2e02 ebbd
000002f0: 9e24 d63d 46b7 833e cb2e 8fbe d601 403d

gat1.lin_l.bias f4 [64]
0.32773387 0.8528624 -0.07703701 -0.12999167 0.056195024 0.06664373 -0.4219472 0.27451208
-0.26354378 -0.1508776 -0.10104412 0.6213541 0.23273401 -0.61477244 -0.11293858 0.089180954
0.09116986 -0.48054716 -0.027960632 0.39080885 -0.52586573 0.48082483 0.005066503 -0.27945304
-0.07949427 0.16534342 -0.51697636 0.41664505 0.22039656 -0.22576946 -0.7487083 -0.064557105
-0.48583102 0.19267167 0.2410629 0.037384804 0.103095904 -0.21520732 -0.2961894 -0.19421935
0.09500199 -0.43166667 0.46938822 -0.3426017 -0.2857429 0.5088884 -0.08342282 -0.07511107
-0.42856252 -0.45600787 0.37321365 -0.52597696 0.036096547 -0.3939158 -0.16846728 -0.39106622
0.41749543 -0.544037 -0.42253673 -0.1257507 0.5053789 -0.41602945 -0.16417944 0.26984477
00000000: bccc a73e 3155 5a3f 94c5 9dbd 891c 05be
00000010: c12c 663d 827c 883d 7709 d8be d98c 8c3e
00000020: 36ef 86be a87f 1abe 38f0 cebd 1011 1f3f
00000030: d351 6e3e ba61 1dbf 584c e7bd 81a4 b63d
00000040: 43b7 ba3d 470a f6be b20d e5bc 1918 c83e
00000050: 239f 06bf ac2e f63e e804 a63b 7814 8fbe
00000060: e4cd a2bd c94f 293e 9058 04bf 8052 d53e
00000070: a3af 613e 1c30 67be 59ab 3fbf 8436 84bd
00000080: d8be f8be b94b 453e 31d9 763e cf20 193d
00000090: f223 d33d 4f5f 5cbe 23a6 97be 70e1 46be
000000a0: 6790 c23d 6a03 ddbe a753 f03e 7d69 afbe
000000b0: e54c 92be 8346 023f 95d9 aabd d5d3 99bd
000000c0: 8c6c dbbe dd79 e9be dc15 bf3e 6da6 06bf
000000d0: f9d9 133d 55af c9be b082 2cbe d539 c8be
000000e0: f6c1 d53e 0246 0bbf bc56 d8be cbc4 00be
000000f0: 8360 013f d001 d5be a81e 28be 1829 8a3e

gat1.lin_r.weight f4 [64, 3]
-0.104165524 -0.11362213 0.17313921 0.14798301 0.020281391 -0.00019673762 -0.09140365 -0.2909793
-0.20638724 0.2809899 0.08643073 -0.2973499 0.11524071 -0.10408829 0.022569511 -0.10182458
-0.4833315 -0.11203475 0.12967335 -0.21534306 -0.0060168966 -0.15502942 0.06032034 0.18448175
-0.13027467 -0.28244066 0.13054405 0.15861627 -0.08952719 -0.085945405 -0.13083626 -0.21021116
0.3292463 0.18263097 0.013273509 0.29400995 -0.1154788 0.0018914887 -0.26406166 -0.02728631
-0.4175964 -0.053544514 0.11550176 0.17571068 -0.008369438 0.09812096 0.13684085 0.030966952
-0.15518098 -0.17658262 -0.23299196 0.08920285 0.053401716 -0.07741318 0.3411465 0.41284776
-0.1709545 0.17330536 -0.15004392 0.184868 -0.008254376 0.18537018 -0.13412553 0.20497529
0.25349393 0.29613942 -0.03742278 0.08573538 0.12775135 0.29754552 0.052166015 -0.03972304
-0.0010622238 -0.1260801 -0.09933454 0.11648824 -0.059120636 -0.29000717 0.17703907 -0.010922029
0.051253606 -0.0009428078 0.16670635 0.09075804 -0.40869287 0.0927749 -0.16440997 0.09325315
0.106057666 0.162045 0.08178678 0.18447243 0.113965094 0.30580297 -0.097815976 0.18626742
-0.44465736 0.26413882 0.09064198 0.39471406 -0.17324243 0.20126162 -0.17132284 -0.16956799
-0.23567885 0.09775207 0.032717288 -0.3300877 -0.109956786 -0.037564337 0.29008242 -0.13492826
-0.040254354 0.19105819 -0.18433598 -0.36702794 0.19765177 -0.0009729118 -0.39680016 0.15534534
0.06871066 0.34071004 0.028888894 0.0046967245 0.16717316 -0.17823325 -0.12071922 0.22223403
0.2421619 -0.37443444 -0.040387537 -0.29477695 0.4007141 0.32974848 0.0109732235 0.074484035
0.15428859 0.12444577 0.31579313 -0.07649628 0.42400786 -0.23736274 -0.15376228 -0.16374822
-0.32796055 -0.30359566 -0.06205362 0.23336129 0.14232008 0.1317079 0.19327082 0.1760199
0.26341584 0.16529736 0.101407796 0.009791763 0.35426667 0.3575503 -0.149112 -0.16324402
-0.2446419 0.19051212 0.10096632 0.05930889 -0.17818408 -0.15224391 -0.34203002 0.042775646
0.2618434 0.35837796 0.52258986 -0.39371186 -0.2309117 0.13303892 0.20265114 -0.03513714
-0.3030383 0.21408355 -0.14645864 -0.091294914 0.12871419 0.047691327 -0.106201895 -0.1488275
0.20639613 0.23337854 0.34127504 -0.11939866 0.03457824 -0.25068378 -0.06362801 -0.23367023
00000000: bc54 d5bd b8b2 e8bd 684b 313e dc88 173e
00000010: 2925 a63c 5a4b 4eb9 d631 bbbd 3dfb 94be
00000020: 2d57 53be e8dd 8f3e 9802 b13d 3f3e 98be
00000030: 5203 ec3d 3e2c d5bd b2e3 b83c 6889 d0bd
00000040: 3a77 f7be 7a72 e5bd 17c9 043e e482 5cbe
00000050: 6329 c5bb 08c0 1ebe 7612 773d c9e8 3c3e
00000060: b966 05be 109c 90be 57ad 053e 4e6c 223e
00000070: 085a b7bd 2504 b0bd f1f9 05be 9841 57be
00000080: f992 a83e 9d03 3b3e 2279 593c 7988 963e
00000090: 2680 ecbd d4eb f73a 1733 87be 8a87 dfbc
000000a0: 32cf d5be 7e51 5bbd 308c ec3d 80ed 333e
000000b0: f81f 09bc a4f3 c83d 0220 0c3e 68ae fd3c
000000c0: c3e7 1ebe 13d2 34be 7295 6ebe fcaf b63d
000000d0: c2bb 5a3d cd8a 9ebd c1aa ae3e c860 d33e
000000e0: b20e 2fbe f676 313e 1da5 19be 094e 3d3e
000000f0: 5d3d 07bc aed1 3d3e 3458 09be 0be5 513e
00000100: f5c9 813e 969f 973e a148 19bd 0896 af3d
00000110: 40d1 023e e357 983e 08ac 553d a0b4 22bd
00000120: 513a 8bba 241b 01be e86f cbbd 6391 ee3d
00000130: 7b28 72bd d27b 94be bb49 353e 4ff2 32bc
00000140: 4def 513d c326 77ba 12b5 2a3e 5adf b93d
00000150: 3140 d1be c400 be3d 165b 28be 82fb be3d
00000160: c334 d93d 20ef 253e d47f a73d 57e6 3c3e
00000170: 8866 e93d 3592 9c3e be53 c8bd e3bc 3e3e
00000180: 21aa e3be 343d 873e 81a2 b93d f617 ca3e
00000190: 7766 31be 8717 4e3e 416f 2fbe 3ba3 2dbe
000001a0: cc55 71be 3d32 c83d 9002 063d 4101 a9be
000001b0: 0631 e1bd 10dd 19bd af85 943e a22a 0abe
000001c0: c0e1 24bd c2a4 433e 92c2 3cbe 16eb bbbe
000001d0: 3a65 4a3e 010b 7fba 6429 cbbe d912 1f3e
000001e0: 2db8 8c3d 8c71 ae3e 67a8 ec3c fbe6 993b
000001f0: 712f 2b3e c782 36be a33b f7bd 5191 633e
00000200: 4af9 773e dfb5 bfbe 676d 25bd 01ed 96be
00000210: 662a cd3e cbd4 a83e 09c9 333c 168b 983d
00000220: d4fd 1d3e 6ddd fe3d a3af a13e 15aa 9cbd
00000230: 8f17 d93e 380f 73be dc73 1dbe 9dad 27be
00000240: 72ea a7be e470 9bbe f02b 7ebd 43f6 6e3e
00000250: 5bbc 113e 70de 063e c9e8 453e 903e 343e
00000260: 71de 863e b643 293e e4ae cf3d a16d 203c
00000270: 7162 b53e d510 b73e d1b0 18be 7129 27be
00000280: 6883 7abe 9c15 433e 6ec7 ce3d e1ed 723d
00000290: e375 36be d4e5 1bbe 8f1e afbe 8435 2f3d
000002a0: 5710 863e 517d b73e 73c8 053f 9a94 c9be
000002b0: 1e74 6cbe 5b3b 083e c883 4f3e f6eb 0fbd
000002c0: d627 9bbe b838 5b3e 41f9 15be d4f8 babd
000002d0: a7cd 033e fb57 433d 6180 d9bd 3c66 18be
000002e0: 8259 533e c9fa 6e3e 9abb ae3e 4987 f4bd
000002f0: eaa1 0d3d a059 80be 674f 82bd 4047 6fbe

gat1.lin_r.bias f4 [64]
0.15463327 -0.25180122 -0.6232606 -0.568261 0.4110798 0.23025125 -0.28433657 -0.1473729
0.14774548 0.15357815 0.032307018 0.70582485 0.25259912 -0.25192565 -0.34983832 -0.45632008
-0.12494505 0.53933257 0.27992004 0.38392013 0.5108589 0.114584334 -0.08807335 0.39760408
0.22800782 -0.25441286 -0.42334408 0.32113922 -0.2195468 -0.37180844 -0.27305892 -0.51247704
0.3837521 0.3559152 -0.07681836 -0.2705775 0.2547127 0.1293416 0.08369196 0.28797206
-0.37687603 -0.3662032 -0.0006347965 -0.16406913 -0.1025176 0.494353 -0.090117164 0.35692555
-0.5763616 0.15166976 0.05056484 0.54392 0.12040143 -0.23428202 -0.57505035 -0.43549544
0.31197405 0.13528538 0.6009878 0.54458135 0.21956088 0.39478764 0.17668782 0.47081622
00000000: 2f58 1e3e 17ec 80be 028e 1fbf 8e79 11bf
00000010: 0d79 d23e fcc6 6b3e 9094 91be ece8 16be
00000020: 974a 173e 9743 1d3e 5d54 043d f0b0 343f
00000030: ac54 813e 66fc 80be 021e b3be c9a2 e9be
00000040: 31e3 ffbd b311 0a3f ae51 8f3e 2e91 c43e
00000050: a6c7 023f 31ab ea3d cd5f b4bd c392 cb3e
00000060: e27a 693e 6742 82be 8ec0 d8be 5c6c a43e
00000070: e0d0 60be ad5d bebe 61ce 8bbe b231 03bf
00000080: 287b c43e 843a b63e f252 9dbd 2289 8abe
00000090: b469 823e 2072 043e b166 ab3d 1371 933e
000000a0: e5f5 c0be fc7e bbbe 7968 26ba bd01 28be
000000b0: bff4 d1bd d61b fd3e 598f b8bd f2be b63e
000000c0: 6f8c 13bf 514f 1b3e 141d 4f3d 573e 0b3f
000000d0: 0695 f63d a0e7 6fbe 8036 13bf 42f9 debe
000000e0: 10bb 9f3e 4088 0a3e 56da 193f af69 0b3f
000000f0: 91d4 603e 9b21 ca3e a7ed 343e d30e f13e

gat1.lin_edge.weight f4 [64, 3]
-0.049987234 0.3387596 -0.124006644 -0.36607864 -0.04411983 0.15173034 -0.032117467 0.17131884
-0.027088178 0.3667666 0.09230908 -0.086863786 -0.30844846 0.2901267 -0.015218733 0.11503337
-0.14266942 -0.18683818 0.15463467 -0.04403434 -0.07675159 -0.035283532 0.3129749 -0.10517775
-0.07296795 -0.19934133 -0.036689896 -0.04868578 -0.15456365 0.16375658 -0.04981636 0.09293351
0.025457809 0.36141387 0.09980737 -0.28018185 0.2713088 -0.20903094 0.083741695 0.18754144
-0.37070987 0.1091138 0.526469 0.2367414 -0.022683866 0.06275304 -0.24535105 0.09727015
-0.20574418 0.2974378 0.21819368 -0.54601884 0.14032346 -0.18394639 0.103828974 -0.079695314
0.3448068 -0.27951398 -0.050183255 0.035023816 0.9064536 0.064712115 -0.26550338 0.41685295
-0.103476204 0.15396844 0.54424816 0.2823421 -0.30079028 -0.1897076 0.3223626 -0.111343734
-0.07737679 0.051297195 0.1756784 0.5842366 -0.086848065 -0.004031235 -0.45207796 -0.19865455
-0.3466368 0.46199068 0.119723365 -0.15502487 0.19460282 0.23020047 -0.1553853 0.11958892
-0.42140314 0.08348967 0.41795552 0.18661493 -0.23159702 -0.43107757 -0.045331333 0.19939801
0.40372443 0.24727413 -0.21797977 -0.4610577 0.29640102 0.27961218 0.54404914 0.29126635
-0.35615054 0.78411984 0.28273487 -0.025389835 -0.6085807 -0.03712193 0.42977798 -0.361267
0.09861125 0.47893608 0.29688162 -0.24177894 0.41605812 -0.27030355 0.08398651 0.34169465
0.47495952 0.26582518 -0.43011668 0.38060638 0.093613826 -0.54504603 0.4141108 0.09481044
-0.27570626 0.61426246 0.37025076 0.0057928017 0.2549171 -0.35643876 0.26207498 -0.23654473
-0.1932455 0.10331718 -0.11535912 -0.073489904 0.15131207 0.3155972 0.004347566 -0.05802516
-0.29903635 0.08511574 0.059348807 0.58060765 0.2776836 -0.31645665 -0.45421204 0.22569467
0.5211199 0.48338813 -0.027075483 -0.22275512 -0.12655431 0.10618159 0.38200504 0.28857958
-0.0069508795 -0.03727823 -0.24225634 0.21499555 0.05094905 -0.3281892 0.0685499 0.37106067
-0.3403844 0.32496092 0.123377606 -0.5937224 -0.08553478 -0.18310986 0.58046573 0.10130461
0.05039502 -0.38632375 0.21206972 0.5766769 0.40237895 -0.12185065 -0.22421157 -0.07966794
-0.47357753 0.32082412 0.16706009 -0.0075654346 0.019075993 0.43628183 0.03348968 -0.36411786
00000000: 6abf 4cbd e671 ad3e 32f7 fdbd a96e bbbe
00000010: ffb6 34bd 335f 1b3e 9b8d 03bd 356e 2f3e
00000020: 07e8 ddbc d5c8 bb3e 8b0c bd3d a4e5 b1bd
00000030: f5ec 9dbe 7d8b 943e fe57 79bc 9e96 eb3d
00000040: ef17 12be 8252 3fbe 8d58 1e3e 5a5d 34bd
00000050: f02f 9dbd 7785 10bd 3f3e a03e 6f67 d7bd
00000060: 3870 95bd 2220 4cbe 2548 16bd be6a 47bd
00000070: ef45 1ebe ceaf 273e 3d0c 4cbd ed53 be3d
00000080: e58c d03c 3d0b b93e ce67 cc3d ff73 8fbe
00000090: fde8 8a3e 350c 56be c480 ab3d dd0a 403e
000000a0: afcd bdbe 0e77 df3d acc6 063f 566c 723e
000000b0: 84d3 b9bc aa84 803d 4e3d 7bbe 9335 c73d
000000c0: 9aae 52be c449 983e 2a6e 5f3e e4c7 0bbf
000000d0: f4b0 0f3e 715c 3cbe 49a4 d43d 4c37 a3bd
000000e0: 848a b03e 751c 8fbe f58c 4dbd 2275 0f3d
000000f0: 580d 683f c987 843d 0ff0 87be c06d d53e
00000100: 55eb d3bd e7a9 1d3e d953 0b3f 258f 903e
00000110: 2f01 9abe b642 42be b60c a53e 2f08 e4bd
00000120: b977 9ebd 021d 523d 0ae5 333e 8890 153f
00000130: 66dd b1bd 7318 84bb c376 e7be 196c 4bbe
00000140: 617a b1be 0b8a ec3e 8631 f53d d7be 1ebe
00000150: f645 473e acb9 6b3e 531d 1fbe 09eb f43d
00000160: 27c2 d7be a2fc aa3d 44fe d53e fc17 3f3e
00000170: c527 6dbe 33b6 dcbe 59ad 39bd fe2e 4c3e
00000180: f8b4 ce3e 6e35 7d3e 1736 5fbe c10f ecbe
00000190: e0c1 973e 5429 8f3e ce46 0b3f dd20 953e
000001a0: 5d59 b6be 14bc 483f a0c2 903e 58fe cfbc
000001b0: f2cb 1bbf 2a0d 18bd dc0b dc3e fdf7 b8be
000001c0: b2f4 c93d 1c37 f53e de00 983e e694 77be
000001d0: 9205 d53e 3a65 8abe 1f01 ac3d 9af2 ae3e
000001e0: e52d f33e 3d1a 883e 4138 dcbe d7de c23e
000001f0: 9bb8 bf3d 2388 0bbf 5506 d43e fa2b c23d
00000200: 5f29 8dbe 4e40 1d3f 8291 bd3e 8bd1 bd3b
00000210: 7e84 823e 247f b6be b12e 863e c838 72be
00000220: 26e2 45be f597 d33d 6741 ecbd e081 96bd
00000230: 8df1 1a3e f595 a13e 0776 8e3b caab 6dbd
00000240: 4b1b 99be 2951 ae3d bc17 733d b4a2 143f
00000250: 8b2c 8e3e 9b06 a2be 7b8e e8be 811c 673e
00000260: 1d68 053f a67e f73e 67cd ddbc eb19 64be
00000270: 7497 01be bc75 d93d 2a96 c33e b4c0 933e
00000280: 34c4 e3bb 0fb1 18bd 0c12 78be cb27 5c3e
00000290: f3af 503d 6a08 a8be e463 8c3d aafb bd3e
000002a0: dd46 aebe 4761 a63e 66ad fc3d 31fe 17bf
000002b0: dc2c afbd 2781 3bbe 6799 143f cb78 cf3d
000002c0: 026b 4e3d 3acc c5be ce28 593e 19a1 133f
000002d0: 9d04 ce3e d58c f9bd b897 65be f228 a3bd
000002e0: c178 f2be 0f43 a43e cd11 2b3e 77e7 f7bb
000002f0: 4245 9c3c 5560 df3e 7a2c 093d a86d babe

bn1.weight f4 [32]
1.0924449 1.2320303 1.046509 0.9596041 0.91016984 0.9579195 1.0294045 1.147358
1.1212679 0.97442627 1.0063217 0.96116394 1.0154545 0.9716516 0.94826317 0.98719907
1.0217437 0.88704526 1.0162934 0.9972658 0.9674106 1.0180959 0.8838674 1.0960873
1.0778084 1.0789227 0.9685699 0.95462525 1.0676817 1.1587484 1.1455852 1.0197262
00000000: 3cd5 8b3f 2bb3 9d3f 02f4 853f 9da8 753f
00000010: e400 693f 363a 753f 87c3 833f a0dc 923f
00000020: b585 8f3f 0074 793f 26cf 803f d70e 763f
00000030: 6afa 813f 29be 783f 60c1 723f 14b9 7c3f
00000040: 7fc8 823f 6615 633f e715 823f d04c 7f3f
00000050: 39a8 773f f750 823f 2245 623f 974c 8c3f
00000060: a0f5 893f 241a 8a3f 32f4 773f 5262 743f
00000070: cba9 883f de51 943f 89a2 923f 6386 823f

bn1.bias f4 [32]
-0.021135988 -0.092172004 -0.2631294 -0.13206623 -0.19977166 0.05529517 -0.07284629 0.067957096
-0.21183461 0.06350354 0.014648086 0.0052971644 -0.011063552 0.048167016 -0.13846883 -0.08056108
-0.2499287 -0.17978257 -0.20910525 0.10367484 0.0376271 -0.111941814 0.03473452 -0.07682134
-0.19612047 -0.03401649 0.0132371485 0.02534353 0.13767098 -0.1385584 0.05287739 0.078067735
00000000: 6125 adbc adc4 bcbd e6b8 86be 5f3c 07be
00000010: f190 4cbe 307d 623d 7030 95bd 172d 8b3d
00000020: 2ceb 58be 250e 823d 87fe 6f3c d693 ad3b
00000030: e743 35bc c74a 453d c6ca 0dbe 35fd a4bd
00000040: 4fed 7fbe ec18 38be b01f 56be 7953 d43d
00000050: e01e 1a3d c041 e5bd c945 0e3d 8254 9dbd
00000060: ced3 48be e054 0bbd a0e0 583c 3c9d cf3c
00000070: 9ff9 0c3e 41e2 0dbe f695 583d fae1 9f3d

bn1.running_mean f4 [32]
0.045869656 0.7190099 0.020220112 -0.18057254 0.06300218 -0.032844897 -0.04388496 0.1597508
-0.20690803 -0.31225547 0.3360577 0.16062158 -0.18969592 -0.06379581 -0.44666064 0.1624105
-0.18013251 -0.510004 0.046861887 -0.0005736921 -0.54541457 0.06606673 -0.31732127 -0.4909966
0.27935398 -0.07383759 -0.37182534 0.16992112 0.59803027 -0.37449715 -0.6284799 0.23585474
00000000: d2e1 3b3d 0811 383f a6a4 a53c 02e8 38be
00000010: 4907 813d 5f88 06bd b7c0 33bd b795 233e
00000020: b3df 53be f3df 9fbe c10f ac3e fc79 243e
00000030: a63f 42be 61a7 82bd b4b0 e4be f04e 263e
00000040: a874 38be 9f8f 02bf 40f2 3f3d d363 16ba
00000050: 4aa0 0bbf fe4d 873d ef77 a2be e863 fbbe
00000060: 7c07 8f3e 2a38 97bd e45f bebe cdff 2d3e
00000070: 8318 193f 17be bfbe 0fe4 20bf e883 713e

bn1.running_var f4 [32]
0.002117823 0.0015961787 0.000418049 0.0023024627 0.0012139732 0.0025154217 0.0073786303 0.00809702
0.0012064187 0.00054073345 0.0027559604 0.004681163 0.0008396879 0.005400541 0.018674321 0.0019742846
0.0042437855 0.0007330353 0.0047586313 0.0022476087 0.013456467 0.0026024352 0.022653995 0.0017553029
0.0034429173 0.007997683 0.009081513 0.002483504 0.0077022663 0.00037799406 0.00032492445 0.0012332717
00000000: 2dcb 0a3b df36 d13a 962d db39 eae4 163b
00000010: 2e1e 9f3a c6d9 243b 70c8 f13b 5da9 043c
00000020: b220 9e3a 02c0 0d3a 589d 343b 7164 993b
00000030: 801e 5c3a 05f7 b03b e4fa 983c 0063 013b
00000040: 740f 8b3b 2b29 403a 4bee 9b3b 9e4c 133b
00000050: 8378 5c3c 9e8d 2a3b df94 b93c 3112 e63a
00000060: 91a2 613b b708 033c a0ca 143c 48c2 223b
00000070: 4b63 fc3b 812d c639 9f5a aa39 bba5 a13a

gat2.att f4 [1, 2, 64]
-0.16627324 -0.28316376 0.3407433 0.14022414 0.36800402 0.020778436 0.0868897 -0.47537062
-0.27746227 -0.2588873 0.34860948 -0.29837087 0.479098 -0.08900891 -0.18736297 0.03299171
0.42613083 0.2896739 0.17743476 0.12572052 -0.0389069 -0.2347333 -0.06228751 0.34764677
0.37505388 0.19427876 -0.170645 0.25002924 -0.17137589 0.095799394 0.18880947 0.2990093
-0.21280845 -0.40549073 0.33170748 0.10946051 -0.13847567 0.19837478 -0.17179567 -0.1833145
-0.024843033 0.17239232 -0.3625463 0.31944102 -0.33035874 0.23056498 0.48216653 -0.21071687
0.59651834 0.16304277 -0.3210548 -0.38625357 -0.25006166 -0.06831506 0.20135292 0.58631426
0.1551507 0.0818334 -0.17408201 0.35295796 -0.33688447 -0.37390906 0.22216846 0.1614255
-0.22239706 0.46158805 0.24696255 0.49129137 -0.15141673 -0.17516553 -0.078701906 -0.06435609
0.17185575 -0.2521816 -0.35040507 -0.39217097 0.2337109 0.3253124 -0.32449692 0.4055445
0.20645222 -0.18933709 -0.28533402 -0.31337357 -0.16774693 0.24592394 -0.21950352 0.4525099
0.13726185 0.34305805 -0.46995357 0.378413 -0.10279242 0.11054685 0.19540356 0.13012306
0.0985742 0.13093698 0.0005218267 -0.16892457 0.14729309 -0.0147070605 0.2730058 0.22446854
-0.21976781 -0.4166334 -0.11295477 -0.06302567 -0.089239106 -0.16231458 0.23498997 0.21170238
0.32647723 -0.17808904 0.2901658 -0.24612433 -0.53573066 -0.26929268 0.2428505 -0.25237942
-0.369047 -0.2874326 -0.31041345 0.06604688 -0.41264302 0.35864863 -0.3049829 0.011230108
00000000: 8843 2abe d7fa 90be e875 ae3e eb96 0f3e
00000010: 066b bc3e 8a37 aa3c 3af3 b13d c763 f3be
00000020: 890f 8ebe e08c 84be f17c b23e 11c4 98be
00000030: 554c f53e 4e4a b6bd 14dc 3fbe 5122 073d
00000040: d22d da3e 2350 943e 75b1 353e e1bc 003e
00000050: d75c 1fbd ed5d 70be 3021 7fbd c2fe b13e
00000060: 1007 c03e 03f1 463e 90bd 2ebe d503 803e
00000070: 297d 2fbe 7932 c43d 4557 413e bf17 993e
00000080: 75ea 59be 7b9c cfbe 90d5 a93e d52c e03d
00000090: 91cc 0dbe c222 4b3e 34eb 2fbe ccb6 3bbe
000000a0: 9e83 cbbc 9d87 303e ab9f b9be c68d a33e
000000b0: c824 a9be 3a19 6c3e 88de f63e 2ac6 57be
000000c0: 6db5 183f aff4 263e 4b61 a4be 07c3 c5be
000000d0: 1508 80be c4e8 8bbd 762f 4e3e b118 163f
000000e0: d3df 1e3e 4598 a73d 8e42 32be e8b6 b43e
000000f0: 1f7c acbe 0271 bfbe 2180 633e ba4c 253e
00000100: 0ebc 63be 4555 ec3e c0e3 7c3e 8b8a fb3e
00000110: fd0c 1bbe 985e 33be 772e a1bd 20cd 83bd
00000120: f4fa 2f3e f21d 81be 4b68 b3be a2ca c8be
00000130: e951 6f3e 598f a63e 7624 a6be 87a3 cf3e
00000140: 3668 533e 95e1 41be 4d17 92be 8072 a0be
00000150: dac5 2bbe 7cd3 7b3e 88c5 60be 61af e73e
00000160: 5f8e 0c3e 4ea5 af3e c19d f0be 59bf c13e
00000170: d584 d2bd 6366 e23d df17 483e fb3e 053e
00000180: 45e1 c93d 5814 063e 32cb 083a 90fa 2cbe
00000190: 00d4 163e e2f5 70bc 6bc7 8b3e 15db 653e
000001a0: d00a 61be f950 d5be d554 e7bd 9a13 81bd
000001b0: fec2 b6bd cb35 26be 36a1 703e 82c8 583e
000001c0: 0628 a73e f95c 36be 9d90 943e 0408 7cbe
000001d0: a525 09bf bbe0 89be cdad 783e e037 81be
000001e0: baf3 bcbe 5e2a 93be 83ee 9ebe 9643 873d
000001f0: f245 d3be cba0 b73e b826 9cbe 7dfe 373c

gat2.bias f4 [64]
0.047765307 -0.02076024 -0.0036029697 0.04180233 -0.0084867645 -0.06638542 -0.031607337 0.012912329
0.0023651922 -0.0074767256 -0.024808163 -0.008254373 0.0065702912 -0.02042277 -0.031181691 -0.039281297
0.02396055 0.057567988 0.0094770435 0.072387 0.04553526 -0.05946347 -0.00058871665 0.03091295
-0.025576258 0.08164586 -0.009257342 0.0073812245 -0.033643972 0.042748913 0.007458103 -0.02668158
0.016625851 -0.023236703 0.0052190707 -0.013836623 -0.03257471 -0.02602692 0.045845214 -0.009986452
-0.02367083 -0.00527469 0.020830113 -0.017980462 -0.024337856 -0.023551527 -0.025294391 -0.025370382
0.004639724 0.015348825 0.00119105 0.003322974 -0.00076173805 0.004145038 -0.019478746 -0.015458427
-0.028615003 0.006438194 0.008084122 -0.0043268497 0.006450414 0.020959778 0.022089496 0.0064016776
00000000: 8ea5 433d 6111 aabc cd1f 6cbb ec38 2b3d
00000010: 120c 0bbc 14f5 87bd b276 01bd 3c8e 533c
00000020: 5701 1b3b 52ff f4bb 7d3a cbbc 5a3d 07bc
00000030: 994b d73b a74d a7bc bf70 ffbc 6de5 20bd
00000040: ea48 c43c 69cc 6b3d 9a45 1b3c a33f 943d
00000050: 2e83 3a3d f88f 73bd 1b54 1aba 283d fd3c
00000060: 4d85 d1bc f235 a73d 1bac 17bc 33de f13b
00000070: 43ce 09bd 7c19 2f3d 1a63 f43b 5493 dabc
00000080: f032 883c e65a bebc bd04 ab3b 01b3 62bc
00000090: 0f6d 05bd 6836 d5bc 31c8 3b3d 379e 23bc
000000a0: 54e9 c1bc 4fd7 acbb eaa3 aa3c c34b 93bc
000000b0: 2f60 c7bc 22ef c0bc 2f36 cfbc 8cd5 cfbc
000000c0: d308 983b a379 7b3c 021d 9c3a 41c6 593b
000000d0: 60af 47ba 19d3 873b e491 9fbc 5845 7dbc
000000e0: 036a eabc 7cf7 d23b 4473 043c 3fc8 8dbb
000000f0: ff5d d33b d7b3 ab3c 08f5 b43c 2ac5 d13b

gat2.lin_l.weight f4 [128, 32]
0.12702024 -0.12068337 -0.14324613 -0.11934667 -0.068377815 0.08064536 0.108623475 0.025181055
-0.2142626 -0.1577783 0.08376735 0.11129661 0.21719007 -0.21472707 -0.07993817 -0.041040167
0.18756716 -0.13486543 0.06606017 -0.045153785 0.06664474 -0.09526776 0.062881425 -0.001560306
0.07893903 -0.05356474 0.08117859 0.1624696 -0.019251823 0.18873869 0.031011024 0.12993824
0.049412414 -0.079091206 -0.12565924 0.12950388 0.039861217 -0.1262325 0.1095623 -0.054685507
-0.21369272 -0.058974113 -0.07221668 0.18359104 0.20860004 -0.14603904 -0.019278526 0.06996061
-0.24830492 -0.17686477 -0.14815912 0.21551266 0.13497013 0.073726244 -0.07470779 -0.055009395
-0.0895779 0.08505697 0.0027707994 -0.1151849 -0.054606866 -0.11548586 -0.22182456 0.025046082
-0.23657075 -0.19651818 0.149155 -0.13590115 -0.0023646075 0.1257238 0.029577306 0.008586425
0.28371805 0.107842915 0.036361385 -0.21536177 0.10005112 0.092355125 -0.012684818 0.020235347
-0.043769445 0.060079936 0.067675635 -0.015517384 -0.07420335 -0.1396901 0.257727 -0.17338455
0.08998708 0.05355094 0.11037798 -0.007867835 -0.18711378 -0.13164276 0.07890342 -0.2553856
-0.0908419 0.15006271 0.12457123 -0.14104676 0.016112471 0.0712502 -0.002735615 -0.18851236
-0.09374275 -0.12921982 -0.17262615 -0.053185545 0.06271162 -0.24819328 0.01655898 0.22025925
0.06082707 -0.12237668 0.16439995 0.02926036 0.118980825 -0.14492537 -0.26110375 0.00553275
-0.08446245 -0.021774586 -0.08607491 -0.18367592 -0.10205704 0.1306564 -0.15127102 -0.07714341
-0.0005511944 -0.1478365 -0.06535805 -0.10757414 -0.14759085 0.02459662 -0.019896412 0.0007810955
0.14986485 -0.2551877 0.10109666 -0.2001453 0.07558664 -0.11708109 -0.08827993 0.18610263
0.3032097 -0.038335387 -0.08635857 -0.12468235 0.0971007 0.18562552 -0.19487305 -0.16690692
0.21131334 0.112267375 -0.033448823 -0.04531644 0.115215376 0.14713399 0.0019430161 -0.26226845
-0.032653157 -0.10854481 0.18658577 0.09637507 0.1227081 0.1079199 -0.21124713 -0.09831139
-0.018003764 -0.13391311 -0.07115245 -0.17990734 0.2103418 0.02453644 -0.13059594 -0.12868032
-0.011055837 0.032195505 0.21885638 -0.008875703 -0.09678066 -0.037354767 -0.00049791095 0.046458814
0.035027467 -0.13082142 -0.005969621 -0.25033754 -0.12036661 0.17406857 0.031245284 0.037040614
0.04088264 -0.030355163 0.19788027 0.1884387 -0.090704754 0.15485911 0.021161348 0.22979784
0.20030726 -0.19332579 0.07396349 0.14867476 -0.00591119 -0.053035855 0.09924794 -0.23694365
-0.028360493 -0.13406716 0.08756292 0.22607686 -0.10008323 -0.15855365 -0.12880665 -0.03174628
0.024262251 -0.09264259 0.118240565 -0.18662348 0.067812584 0.19727549 0.03265025 0.14820673
0.1912799 0.2184848 0.10107034 -0.036604095 -0.083806306 -0.26791388 -0.13056399 -0.2868783
-0.21675901 -0.22637501 0.25045183 0.11196816 0.14803371 -0.072710566 -0.1995722 0.24348754
0.18923357 -0.08098524 -0.040628042 0.06827928 0.113058835 0.06763514 -0.10987307 -0.07354734
0.11179928 0.06041011 -0.09608582 -0.022109123 -0.061120152 0.05566592 -0.0011892272 0.11524159
00000000: 9811 023e d828 f7bd 1daf 12be 076c f4bd
00000010: ab09 8cbd 6529 a53d fc75 de3d 8048 ce3c
00000020: a867 5bbe a290 21be 378e ab3d 7aef e33d
00000030: 1367 5e3e 6ae1 5bbe a0b6 a3bd bc19 28bd
00000040: 9b11 403e 2a1a 0abe 8e4a 873d 2df3 38bd
00000050: 0a7d 883d be1b c3bd fac7 803d 2e83 ccba
00000060: c9aa a13d b366 5bbd f640 a63d 6e5e 263e
00000070: 00b6 9dbc b744 413e d50a fe3c 880e 053e
00000080: ac64 4a3d 92fa a1bd d1ac 00be aa9c 043e
00000090: 8445 233d 1843 01be 3362 e03d e9fd 5fbd
000000a0: 44d2 5abe d78e 71bd 57e6 93bd 4aff 3b3e
000000b0: 409b 553e 428b 15be 00ee 9dbc 8247 8f3d
000000c0: a543 7ebe 0a1c 35be 06b7 17be 5aaf 5c3e
000000d0: 9c35 0a3e c9fd 963d 6600 99bd 8851 61bd
000000e0: 9e74 b7bd 5932 ae3d 4d96 353b 10e6 ebbd
000000f0: 73ab 5fbd da83 ecbd fa25 63be 712d cd3c
00000100: 9a3f 72be 103c 49be 17bc 183e ac29 0bbe
00000110: 88f7 1abb bdbd 003e 1b4c f23c 14ae 0c3c
00000120: 7e43 913e bfdc dc3d adef 143d cc87 5cbe
00000130: 9ae7 cc3d af24 bd3d fcd3 4fbc 99c4 a53c
00000140: 9747 33bd 6116 763d 8699 8a3d a03c 7ebc
00000150: edf7 97bd ec0a 0fbe cbf4 833e b88b 31be
00000160: 254b b83d 3b58 5b3d da0d e23d 18e8 00bc
00000170: c19a 3fbe 5ccd 06be 1e98 a13d e7c1 82be
00000180: 510b babd 0aaa 193e 331f ff3d 906e 10be
00000190: 4dfe 833c a0eb 913d 0148 33bb 6209 41be
000001a0: 33fc bfbd 3352 04be e9c4 30be 16d9 59bd
000001b0: f36e 803d 6126 7ebe b3a6 873c a48b 613e
000001c0: ce25 793d a0a0 fabd 7658 283e 6cb3 ef3c
000001d0: 38ac f33d 5167 14be 64af 85be 124c b53b
000001e0: a6fa acbd 9e60 b2bc 0b48 b0bd 8a15 3cbe
000001f0: 4803 d1bd cbca 053e cae6 1abe 5dfd 9dbd
00000200: 087e 10ba 7462 17be 71da 85bd d54f dcbd
00000210: 0e22 17be da7e c93c cdfd a2bc 6fc2 4c3a
00000220: 2c76 193e f6a7 82be c40b cf3d e4f2 4cbe
00000230: 2bcd 9a3d 36c8 efbd 1ccc b4bd b091 3e3e
00000240: 4d3e 9b3e 9105 1dbd c3dc b0bd 7659 ffbd
00000250: bbdc c63d 9e14 3e3e cd8c 47be a6e9 2abe
00000260: 8662 583e 70ec e53d a201 09bd bb9d 39bd
00000270: 0af6 eb3d 4baa 163e cdac fe3a 0d48 86be
00000280: 51bf 05bd be4c debd 5710 3f3e 4b60 c53d
00000290: 624e fb3d 1c05 dd3d 2b51 58be 7b57 c9bd
000002a0: a17c 93bc 8520 09be 60b8 91bd a139 38be
000002b0: d763 573e a500 c93c f1ba 05be c6c4 03be
000002c0: 8b23 35bc 6fdf 033d e31b 603e 666b 11bc
000002d0: f034 c6bd 5001 19bd 3d86 02ba 994b 3e3d
000002e0: f678 0f3d 0df6 05be cf9c c3bb 3e2c 80be
000002f0: c582 f6bd 083f 323e 1cf6 ff3c e6b7 173d
00000300: 8e74 273d 64ab f8bc 20a1 4a3e 13f6 403e
00000310: 6ac3 b9bd 6393 1e3e 905a ad3c 2050 6b3e
00000320: 591d 4d3e 32f7 45be 2c7a 973d 323e 183e
00000330: a8b2 c1bb 203c 59bd 8142 cb3d 5ba1 72be
00000340: 4454 e8bc e748 09be 3054 b33d b180 673e
00000350: 70f8 ccbd e35b 22be e4e5 03be 6308 02bd
00000360: a1c1 c63c 66bb bdbd 1c28 f23d 3a1a 3fbe
00000370: 53e1 8a3d 9602 4a3e 45bc 053d 81c3 173e
00000380: e1de 433e 7bba 5f3e f7fd ce3d 2dee 15bd
00000390: a4a2 abbd 022c 89be 91b2 05be b6e1 92be
000003a0: 13f6 5dbe dace 67be 393b 803e 904f e53d
000003b0: 2696 173e 47e9 94bd a85c 4cbe cc54 793e
000003c0: 72c6 413e 97db a5bd 9769 26bd 02d6 8b3d
000003d0: 648b e73d 4b84 8a3d 2205 e1bd fd9f 96bd
000003e0: 05f7 e43d 9770 773d a4c8 c4bd 311e b5bc
000003f0: 2059 7abd f301 643d d8df 9bba c803 ec3d

gat2.lin_l.bias f4 [128]
-0.025634285 0.03951272 -0.2539692 -0.10146564 0.06610772 0.037386533 0.075245865 0.023606101
-0.15896198 0.18958731 -0.039571878 0.13710614 0.08729584 -0.09112551 -0.012900724 -0.08117835
-0.09612371 0.14970525 0.07615735 -0.07650637 0.029338468 0.21948771 0.0040321094 0.04485719
-0.026679816 -0.024333598 -0.083505526 0.07645852 0.079602905 0.107010454 0.04161407 0.06725166
-0.13688894 0.33608937 0.049528375 -0.095660776 0.197901 0.15492797 0.14965293 -0.19915386
-0.012231242 0.0213108 0.10828582 0.18648666 0.08936477 0.03838507 0.16505824 0.16038866
0.15343395 0.09678141 -0.19652113 0.16128878 -0.21229099 -0.05943588 -0.07068075 0.009400179
-0.071806975 -0.14106241 -0.023301663 0.013997571 0.008532264 -0.1512313 -0.048569623 -0.047106776
0.042471524 -0.002491099 0.04577017 0.09488074 0.2722815 -0.062084172 -0.30052385 0.14709279
-0.083917834 0.17539246 -0.057064116 0.16542302 -0.19758016 -0.093200944 0.2721572 0.13431701
0.11955624 -0.06975781 -0.06429605 0.008654339 -0.083882645 -0.20494162 -0.22302586 0.15909372
0.13001193 0.045968793 0.20707743 -0.06162947 -0.07270227 -0.022375304 -0.12813045 0.09365296
-0.086654685 0.102715634 -0.04248688 0.19754195 -0.09679846 -0.17457123 0.010962449 -0.12239101
-0.15308776 0.23020451 0.009839753 -0.31468514 -0.15138315 0.17674378 -0.21556787 -0.043382183
0.13497539 -0.11625282 0.35507363 -0.038251974 0.05070929 -0.043083716 -0.1818421 0.05182498
-0.047292143 -0.05716281 0.36184162 0.0067171743 0.28738886 -0.13145767 -0.12977432 0.13763075
00000000: fefe d1bc 17d8 213d 4008 82be 38cd cfbd
00000010: 7c63 873d 9f22 193d 811a 9a3d 9561 c13c
00000020: eec6 22be 2d23 423e 1f16 22bd 8d65 0c3e
00000030: 29c8 b23d 03a0 babd 8f5d 53bc d640 a6bd
00000040: 82dc c4bd 554c 193e 62f8 9b3d 5faf 9cbd
00000050: 3a57 f03c 63c1 603e c91f 843b 2cbc 373d
00000060: a18f dabc 4157 c7bc f204 abbd 4996 9c3d
00000070: d906 a33d 4c28 db3d 8473 2a3d 3dbb 893d
00000080: 9d2c 0cbe e813 ac3e 44de 4a3d cce9 c3bd
00000090: 8fa6 4a3e 70a5 1e3e 9e3e 193e fdee 4bbe
000000a0: 8c65 48bc fd93 ae3c f5c4 dd3d 5cf6 3e3e
000000b0: e004 b73d aa39 1d3d 0705 293e ed3c 243e
000000c0: ca1d 1d3e 5535 c63d d63c 49be e328 253e
000000d0: cf62 59be 0a73 73bd 12c1 90bd 3503 1a3c
000000e0: 890f 93bd aa72 10be 21e3 bebc 1156 653c
000000f0: e9ca 0b3c 61dc 1abe f1f0 46bd 09f3 40bd
00000100: 9ff6 2d3d b541 23bb 8079 3b3d d550 c23d
00000110: 7b68 8b3e f94b 7ebd 43de 99be 7e9f 163e
00000120: 1ddd abbd 159a 333e 10bc 69bd a764 293e
00000130: 7452 4abe 23e0 bebd 3058 8b3e 668a 093e
00000140: e7d9 f43d 2fdd 8ebd a6ad 83bd eeca 0d3c
00000150: aaca abbd 37dc 51be e460 64be 77e9 223e
00000160: d921 053e c649 3c3d 1b0c 543e 2f6f 7cbd
00000170: ede4 94bd 6a4c b7bc a134 03be 20cd bf3d
00000180: 0378 b1bd 935c d23d b906 2ebd 7048 4a3e
00000190: 453e c6bd cdc2 32be d89b 333c 23a8 fabd
000001a0: 0ac3 1cbe bbba 6b3e ea36 213c 691e a1be
000001b0: 2f04 1bbe 52fc 343e d3bd 5cbe 84b1 31bd
000001c0: fd36 0a3e f515 eebd 36cc b53e 1aae 1cbd
000001d0: 8bb4 4f3d 8d78 30bd d134 3abe 6e46 543d
000001e0: 68b5 41bd 8d23 6abd 4e43 b93e be1b dc3b
000001f0: a224 933e d79c 06be 8fe3 04be 13ef 0c3e

gat2.lin_r.weight f4 [128, 32]
-0.150532 -0.24715763 0.14094631 -0.07169232 -0.16443498 0.08652851 -0.13732716 0.019676488
-0.040596534 0.012534027 -0.046987418 -0.19912335 -0.014703443 -0.04675962 0.013539248 -0.3409497
0.1929446 0.055386674 0.28753808 -0.09120045 -0.106637165 0.034215406 0.1962361 -0.049965914
0.3277114 -0.23567288 0.23219799 -0.15374671 -0.33047494 0.017389545 0.1500479 -0.092351146
0.098924905 -0.339323 0.11245241 -0.07157045 -0.07443502 -0.024435746 0.30183697 0.052824214
0.006858473 -0.21874341 0.15283206 -0.2528168 0.13153923 0.038765147 -0.09814019 0.21371391
0.11148908 -0.1288787 0.15662491 0.089228 -0.0069708684 -0.038914263 -0.0130725475 -0.28631493
0.11975417 -0.07765842 0.12061876 -0.26739705 -0.08319644 -0.10080299 -0.0046904436 0.2150776
-0.30912906 -0.14596395 0.11575305 -0.06067683 -0.11277304 0.07491857 -0.0860476 -0.020387163
0.19683161 -0.113675155 -0.097047925 -0.0029250395 -0.105363876 0.18945207 0.16807812 -0.06966198
-0.08035476 0.2255409 0.11869674 -0.18405895 0.061231613 -0.13395533 0.0021457914 0.107672825
0.021815302 -0.23480687 -0.04175915 -0.39739066 -0.13170011 0.20415951 -0.049720217 0.0675902
-0.20741726 0.23391914 -0.10530058 -0.105758585 -0.019402752 0.014925877 -0.0160912 0.14641489
0.17882934 0.056336135 -0.073187985 0.016115138 -0.0866488 -0.17327915 0.044327706 -0.031871676
0.039723877 -0.12889391 -0.14489426 -0.06745235 0.07287629 0.119585305 0.17515475 0.139922
0.09253645 -0.09987107 -0.13369569 0.16030799 0.09179815 0.1162046 0.11928397 0.025581537
-0.2519626 -0.119253464 0.08298254 -0.12034512 -0.17084412 0.068890184 -0.052025307 -0.10340345
0.29522362 0.2170844 -0.30598792 -0.17911614 -0.21921758 0.24598265 0.29004812 0.083178245
-0.108618535 0.07330928 0.080844365 0.16056019 0.2917704 -0.08717802 -0.090076074 -0.063458174
0.0095619885 -0.33350438 -0.22053254 -0.40786582 -0.19936706 0.15992264 -0.039115313 -0.09804494
-0.09532611 0.02590999 0.13901757 0.010349063 -0.02997751 0.057378978 0.081370205 0.07940499
-0.071423285 0.07695218 0.09601557 -0.14992934 0.22406423 -0.10156539 0.029536385 0.16321613
0.07197074 -0.1039471 -0.04480616 0.11237578 -0.116941705 0.023727166 0.105560005 -0.014312065
0.22140674 0.08768016 -0.013444903 0.14332871 -0.11939589 -0.0035663375 -0.032591887 0.04929483
0.1400583 0.058713146 -0.13677196 -0.17396629 0.17602685 -0.1386156 0.22272016 0.15063955
0.22463505 -0.0949924 -0.19737989 -0.19566357 -0.13174644 0.06853907 -0.10892067 0.14546168
0.19548318 0.05402793 0.07255382 -0.09334988 -0.087622516 0.08586745 -0.013893253 -0.19204646
0.05178343 0.04137589 -0.05918005 -0.21685097 -0.12702547 -0.0064883125 0.059629895 0.1102111
-0.007256989 -0.21969178 -0.05131519 0.0661929 -0.089340724 0.16847458 0.25218615 0.18865357
0.14405702 -0.05155404 0.044545062 0.09462228 0.104101256 0.20651503 -0.028987514 -0.23214227
-0.27896652 -0.047715463 -0.076467104 0.37695828 -0.1263139 -0.27274075 -0.060853872 0.039026998
0.14954533 -0.13092364 0.1935342 0.18137681 0.32531267 -0.22766122 0.0037750385 -0.049189996
00000000: 1025 1abe e416 7dbe 3b54 103e 6cd3 92bd
00000010: a561 28be dc35 b13d 7e9f 0cbe 9630 a13c
00000020: 8d48 26bd 855b 4d3c e175 40bd fee6 4bbe
00000030: b6e6 70bc 0487 3fbd b9d3 5d3c f690 aebe
00000040: 4593 453e 23dd 623d 3138 933e 4dc7 babd
00000050: 9664 dabd 7425 0c3d 1ef2 483e 0fa9 4cbd
00000060: cac9 a73e 3b54 71be 4fc5 6d3e c76f 1dbe
00000070: 0334 a9be 8574 8e3c 28a6 193e 9922 bdbd
00000080: 2499 ca3d bfbb adbe 734d e63d 8793 92bd
00000090: 6371 98bd 792d c8bc 608a 9a3e 345e 583d
000000a0: 0bbd e03b 46fe 5fbe 0280 1c3e 3471 81be
000000b0: 38b2 063e 34c8 1e3d b9fd c8bd d2d7 5a3e
000000c0: 6354 e43d c7f8 03be 4862 203e 2bbd b63d
000000d0: e26b e4bb 9064 1fbd 3d2e 56bc df97 92be
000000e0: ad41 f53d 610b 9fbd f806 f73d 44e8 88be
000000f0: e562 aabd cc71 cebd 4bb2 99bb 4d3d 5c3e
00000100: 2a46 9ebe 9377 15be ef0f ed3d 4588 78bd
00000110: 8df5 e6bd e86e 993d b939 b0bd fb02 a7bc
00000120: 3a8e 493e 85ce e8bd 10c1 c6bd 05b2 3fbb
00000130: 04c9 d7bd b9ff 413e ac1c 2c3e f1aa 8ebd
00000140: 0991 a4bd 32f4 663e 4717 f33d f379 3cbe
00000150: 00ce 7a3d 962b 09be 68a0 0c3b 9283 dc3d
00000160: 01b6 b23c 3671 70be a40b 2bbd ca76 cbbe
00000170: 65dc 06be 310f 513e 6da7 4bbd bb6c 8a3d
00000180: 3165 54be 8088 6f3e d5a7 d7bd f597 d8bd
00000190: 85f2 9ebc aa8b 743c b1d1 83bc c9ed 153e
000001a0: 0a1f 373e b8c0 663d 95e3 95bd e503 843c
000001b0: ed74 b1bd 1770 31be f890 353d e08b 02bd
000001c0: 81b5 223d c4fc 03be 295f 14be 7524 8abd
000001d0: 2a40 953d 24e9 f43d c45b 333e b647 0f3e
000001e0: c083 bd3d 3489 ccbd 86e7 08be c727 243e
000001f0: ab00 bc3d adfc ed3d 274b f43d 5f90 d13c
00000200: 3e01 81be 293b f4bd c0f2 a93d 8177 f6bd
00000210: c3f1 2ebe 4c16 8d3d 7d18 55bd 30c5 d3bd
00000220: 8d27 973e 5f4b 5e3e 73aa 9cbe 396a 37be
00000230: 937a 60be e0e2 7b3e 3081 943e 5b59 aa3d
00000240: 6573 debd 2d23 963d bb91 a53d e469 243e
00000250: ee62 953e 648a b2bd ce79 b8bd 5cf6 81bd
00000260: e3a9 1c3c 16c1 aabe 48d3 61be cad3 d0be
00000270: e126 4cbe c3c2 233e 6137 20bd c9cb c8bd
00000280: 563a c3bd 3041 d43c 9f5a 0e3e 1e8f 293c
00000290: 6593 f5bc 3806 6b3d 6ca5 a63d 159f a23d
000002a0: 5f46 92bd 1b99 9d3d d0a3 c43d 1487 19be
000002b0: 1871 653e 8401 d0bd 4af6 f13c 2122 273e
000002c0: 6565 933d 38e2 d4bd aa86 37bd 4625 e63d
000002d0: 227f efbd 795f c23c d82f d83d 277d 6abc
000002e0: 73b8 623e a891 b33d 0348 5cbc c3c4 123e
000002f0: d585 f4bd 37b9 69bb 127f 05bd 60e9 493d
00000300: 716b 0f3e 327d 703d f30d 0cbe 3824 32be
00000310: 6240 343e 3ff1 0dbe c110 643e 4141 1a3e
00000320: bb06 663e 608b c2bd f41d 4abe 085c 48be
00000330: 8ae8 06be 365e 8c3d cd11 dfbd e8f3 143e
00000340: be2c 483e 644c 5d3d 1997 943d 392e bfbd
00000350: 6f73 b3bd 46db af3d 87a0 63bc d4a7 44be
00000360: dd1a 543d c479 293d c866 72bd 2e0e 5ebe
00000370: f712 02be e99b d4bb 7a3e 743d 5bb6 e13d
00000380: 09cc edbb e2f6 60be e02f 52bd 2590 873d
00000390: 45f8 b6bd 9a84 2c3e 8b1e 813e 672e 413e
000003a0: af83 133e 542a 53bd e274 363d 53c9 c13d
000003b0: 0a33 d53d ad78 533e 3977 edbc b4b6 6dbe
000003c0: b3d4 8ebe 4a71 43bd c99a 9cbd ad00 c13e
000003d0: 6e58 01be ada4 8bbe e941 79bd c6da 1f3d
000003e0: 6922 193e d910 06be d42d 463e d8ba 393e
000003f0: 628f a63e 0620 69be a366 773b 737b 49bd

gat2.lin_r.bias f4 [128]
-0.097226925 0.12801191 -0.09716146 -0.068835795 0.26164404 -0.03005634 -0.07220585 0.016978333
-0.10969401 -0.08444696 -0.33429074 -8.353607e-05 0.32139093 0.10879238 -0.05398582 0.046837308
0.11523447 -0.027635522 -0.14044453 -0.13701789 0.099572375 0.009159628 -0.04820842 -0.10636457
-0.13370803 -0.01907576 -0.1296587 0.10237566 0.04367282 -0.0018779354 0.17335634 0.08432828
0.15978977 0.05196127 -0.110392965 0.016611902 0.07923635 0.0659717 0.07142312 -0.23287806
-0.24383911 0.03465806 -0.049612354 0.11129548 0.28882253 -0.15504378 0.121792465 0.054111667
-0.057130493 0.2815404 -0.21629529 0.15917668 -0.11776115 -0.22829005 -0.048854303 0.10878625
-0.013293406 0.018214533 0.007521689 -0.021023264 -0.022060074 -0.030729441 0.18330789 0.05484576
-0.042941116 0.14092156 -0.0076667904 0.05719238 0.3982876 -0.25235516 -0.26256227 -0.14285383
0.09960746 -0.12842582 0.17717423 0.018044114 -0.13214198 -0.17548668 0.3084025 0.15204036
-0.0610876 -0.10744927 0.17248113 0.08290313 -0.14610495 -0.11984118 -0.2981887 0.100340165
0.103205614 0.14220819 0.122843556 0.1858742 -0.06842423 0.04605213 0.089943 0.023586981
0.1816088 0.14646623 -0.20204078 0.15755787 0.035165116 -0.09276475 0.33176708 -0.117670804
-0.1556017 0.026831077 -0.20632038 -0.16803837 -0.07326153 0.12603736 -0.15196374 -0.110975794
0.00021767197 -0.099189185 0.37563264 -0.18909697 0.05626777 -0.06500049 -0.030585121 -0.012547667
-0.29605713 -0.15164314 0.241265 -0.11050228 0.10416669 0.030954093 0.17721082 0.05984296
00000000: e91e c7bd 8e15 033e 96fc c6bd c8f9 8cbd
00000010: 35f6 853e b738 f6bc a9e0 93bd 2516 8b3c
00000020: 41a7 e0bd 87f2 acbd 2828 abbe 1630 afb8
00000030: 5a8d a43e 8ace de3d 3c20 5dbd 7ad8 3f3d
00000040: 0d00 ec3d e463 e2bc b1d0 0fbe 6b4e 0cbe
00000050: 9aec cb3d 4412 163c 3176 45bd abd5 d9bd
00000060: c2ea 08be c544 9cbc 40c5 04be 54aa d13d
00000070: 45e2 323d 0e25 f6ba 5384 313e 4eb4 ac3d
00000080: ee9f 233e 57d5 543d b515 e2bd af15 883c
00000090: ab46 a23d 2c1c 873d 4946 923d 9677 6ebe
000000a0: f6b0 79be 9cf5 0d3d 5336 4bbd e2ee e33d
000000b0: 8ce0 933e ccc3 1ebe 546e f93d 32a4 5d3d
000000c0: aa01 6abd 1026 903e 837c 5dbe 36ff 223e
000000d0: c22c f1bd dec4 69be 731b 48bd 53cb de3d
000000e0: 96cc 59bc a536 953c 8078 f63b fb38 acbc
000000f0: 54b7 b4bc 4fbc fbbc 10b5 3b3e f3a5 603d
00000100: 06e3 2fbd be4d 103e b339 fbbb 8f42 6a3d
00000110: 5aec cb3e b234 81be 906e 86be 4648 12be
00000120: fffe cb3d 0f82 03be 296d 353e 40d1 933c
00000130: 3a50 07be c8b2 33be efe6 9d3e 78b0 1b3e
00000140: fe36 7abd 5d0e dcbd e59e 303e 1ec9 a93d
00000150: 899c 15be 4b6f f5bd 30ac 98be 257f cd3d
00000160: 775d d33d 069f 113e 6795 fb3d ce55 3e3e
00000170: 0122 8cbd 29a1 3c3d 0934 b83d 7c39 c13c
00000180: a8f7 393e 3efb 153e c7e3 4ebe da56 213e
00000190: 4c09 103d 72fb bdbd 60dd a93e 64fd f0bd
000001a0: 0d56 1fbe d9cc db3c a645 53be 4012 2cbe
000001b0: 240a 96bd f00f 013e 629c 1bbe 4747 e3bd
000001c0: e03e 6439 b323 cbbd ec52 c03e a3a2 41be
000001d0: 0879 663d fa1e 85bd a68d fabc bb94 4dbc
000001e0: cd94 97be 5748 1bbe 2c0e 773e 054f e2bd
000001f0: 5855 d53d 7093 fd3c c176 353e e41d 753d
