src/falldetector/falldetector/checkpoints/stonegat.pt (torch, 60975 bytes, 29 tensors)

gat1.att f4 [1, 2, 32]
000000 1f 93 b7 bd cf 9f f4 3e 5d aa e7 be ec 10 9b 3e
       -0.08963608 0.47778174 -0.45247164 0.30286348
000010 77 59 a4 3e 31 d0 17 3e bb 39 e6 be 12 2c ec be
       0.32099506 0.14825512 -0.4496592 -0.46127373
000020 37 81 c5 be df 60 74 be c4 e9 4f be 14 3b c7 be
       -0.38575146 -0.23865078 -0.20304018 -0.3891226
000030 d3 f2 09 bd cd 66 e4 3e 4e e4 1d bf b0 09 65 3e
       -0.03367884 0.4460968 -0.6167649 0.22366977
000040 63 0b 10 3f 39 71 bf bd 07 96 49 bd ec 13 92 3d
       0.56267375 -0.093477674 -0.049215343 0.07132706
000050 fc 60 b0 be 9f c4 0a 3f 85 1c 5e 3e bf ee 30 bf
       -0.34448993 0.5420627 0.21690567 -0.691143
000060 cb 88 4a 3e 1f 9d b0 be 22 b4 cf 3e 3e 35 0f be
       0.19778745 -0.34494874 0.40567118 -0.13985154
000070 07 f3 a6 3e 6f f9 5c 3e 30 d4 59 3e 23 2d 33 bd
       0.3260729 0.21579526 0.2127235 -0.043744218
000080 06 e7 ff bc e8 e2 0f bf b4 84 72 3e fb 6e 02 3f
       -0.03123809 -0.56205606 0.23683435 0.5095059
000090 42 2a 2c 3d 12 65 b6 3e b8 4b 02 3d 34 31 3e be
       0.042032488 0.35623986 0.031810492 -0.18573457
0000a0 dc 97 a3 3e 47 8b dc 3e 2d 55 28 be 86 83 72 3e
       0.31951797 0.4307501 -0.16438742 0.23682985
0000b0 12 f9 ae 3e 4c 0f 6f 3e 4e e7 8f be 04 81 59 be
       0.341744 0.23345679 -0.2810616 -0.21240622
0000c0 4b 13 32 3e 40 ce 92 3e b6 e3 c1 3d 43 ae 22 bd
       0.17390172 0.2867298 0.094672605 -0.03971697
0000d0 da a1 b7 be e7 74 bf 3e 13 1a 66 bd e6 90 b1 3e
       -0.3586567 0.37393877 -0.05617721 0.3468086
0000e0 c1 01 76 3e de 6e c1 3d 82 27 09 bc 7d 07 02 3c
       0.24024107 0.09444974 -0.008371236 0.007936356
0000f0 ce 28 e1 be 01 64 0e 3e 6c 48 8b be 27 41 7e be
       -0.43976444 0.13905336 -0.2720369 -0.24829541

gat1.bias f4 [32]
000000 19 fb ef bd 32 96 c0 3d ac 5e 2b bb 62 df a2 3d
       -0.11717815 0.094036475 -0.0026148958 0.07952763
000010 08 f5 15 bd 76 d1 1e bd 4d eb 8a bd 9f 82 82 bd
       -0.036610633 -0.038773976 -0.06783161 -0.0637257
000020 c1 e0 24 be 60 32 15 3e d3 48 55 3d 9c 0d ec 3d
       -0.16101362 0.14569998 0.052071404 0.11526033
000030 8b 09 25 be 00 ff 5a 3d a1 c1 1d bd 86 29 d5 bc
       -0.16116922 0.053465843 -0.038514737 -0.026020776
000040 61 ad 25 bd 2f 40 04 3d 2e 98 63 bd 63 18 e8 3c
       -0.04044855 0.032287773 -0.05556505 0.028331941
000050 a5 a7 5b bb 6e cf c9 3d ef 5e ea bc 5d e7 ee 3d
       -0.0033516672 0.09854017 -0.028609721 0.11665223
000060 82 1d 41 3d 36 11 d3 3c 28 d8 7d 3d 85 ea 87 bb
       0.04714728 0.025765043 0.06197372 -0.00414783
000070 ee 57 08 bc 94 f6 36 bd fb f2 c0 bd 5f 0c b8 3d
       -0.008321745 -0.04466875 -0.09421345 0.089867346

gat1.lin_l.weight f4 [64, 3]
000000 7e 33 8f be b9 5b 0a 3e 2f 20 b7 3e 9d 27 c0 bd
       -0.27968973 0.13511552 0.35766742 -0.09382556
000010 c0 e3 90 3e f9 78 0d 3f 98 39 25 be 94 f3 be be
       0.2829876 0.55262715 -0.16135252 -0.3729521
000020 f1 33 6e be 2c 62 e0 3e da 1c 83 3e c4 df 47 be
       -0.23262002 0.438249 0.2560795 -0.19518954
000030 9d ca 2e 3e 33 a0 ef 3e 38 64 c0 bc 72 e2 ac 3e
       0.17069478 0.4680191 -0.023485288 0.33766514
000040 83 25 df 39 02 ab ad 3e 98 59 8a be 9b 9f 81 be
       0.00042561823 0.3391953 -0.2702148 -0.25317082
000050 11 b8 9d be b0 d9 73 be a7 f4 29 be 3c c7 1c be
       -0.30804494 -0.2381351 -0.16597234 -0.15310377
000060 a4 91 63 be e1 9d 6c 3d 9a 8b 0e be 56 f0 95 bd
       -0.22223526 0.057767753 -0.13920441 -0.07321231
000070 62 78 84 bd 78 7f e4 bd b0 7c 5d bd 8d b2 54 be
       -0.06468274 -0.11157125 -0.05407399 -0.20771237
000080 1f 2e 35 bc 10 56 5e be 56 5d 79 be 57 8f 3e 3e
       -0.011058359 -0.21712518 -0.24352011 0.18609367
000090 1f 3a 5a be 0b 83 9b bd 79 4e 04 be 7c 02 55 3e
       -0.21311234 -0.07593354 -0.1292056 0.20801729
0000a0 fc 07 50 3e 1e 20 e1 bd f7 f3 62 be 66 96 63 be
       0.20315546 -0.10992454 -0.22163378 -0.22225341
0000b0 19 56 90 be 1f d2 e9 3e 27 ed a7 bd f8 f4 a6 3d
       -0.28190687 0.45668122 -0.0819953 0.08152193
0000c0 57 0d e7 3e f1 80 ae 3e 71 0e 97 bd 9e 53 95 3e
       0.45127365 0.3408275 -0.07375801 0.29165357
0000d0 50 07 8a 3d 10 a2 38 be 2e 5a 86 3e 09 1c 78 3e
       0.06739676 -0.18030572 0.26240677 0.24229445
0000e0 71 19 4e be 4c 41 d2 3c 36 c2 8a be a0 a4 51 3e
       -0.20126893 0.025665902 -0.27101296 0.20472956
0000f0 4d 06 3d be 7d 83 19 3e d1 ff d7 3e 5c 29 d1 3e
       -0.18459435 0.14991565 0.4218736 0.40851867
000100 3e 06 24 be ce 6c 21 3f 10 db 36 be a8 2a 39 3e
       -0.16018006 0.6305665 -0.17857003 0.18082678
000110 30 4d a5 3c 52 97 09 bf f9 2c e6 3d f5 bb 00 be
       0.020178407 -0.5374652 0.112390466 -0.125717
000120 8e 1e 80 3e 4e 1c d9 bd 14 13 9b 3e d7 71 cb be
       0.2502331 -0.10601102 0.30287993 -0.3973529
000130 9d 12 00 3e 54 10 8c 3d 05 5c 01 3e 00 ae 13 bd
       0.125071 0.06839052 0.12632759 -0.03605461
000140 a9 f1 92 3e 13 cc 92 bd 91 c3 9d 3e 08 ab 90 3d
       0.28699997 -0.0716783 0.30813268 0.070638716
000150 99 1d ba 3e 50 67 44 bd 5e ff b4 3e 65 6c fd bc
       0.36350706 -0.04795009 0.3535108 -0.030935476
000160 81 a8 60 be 6e 37 ab 3e 85 7c d3 bc 58 52 a2 3e
       -0.21939279 0.33440727 -0.025816211 0.31703448
000170 fe 2d e2 3e 61 e7 51 3e 7f f6 68 3e b5 88 9a be
       0.44175714 0.2049842 0.22750281 -0.30182424
000180 0b 85 83 3e 95 e0 de bd d0 b4 24 be ad d4 1d be
       0.2568744 -0.108826794 -0.160846 -0.1541316
000190 22 11 8e be 40 60 66 bd fe ca 59 3e b5 38 37 be
       -0.27747446 -0.056244135 0.21268842 -0.17892726
0001a0 e9 21 e9 bb c6 6a 52 3d 5e 19 61 be a5 20 b6 3d
       -0.007114638 0.05137136 -0.21982333 0.08892945
0001b0 14 f7 83 be d9 7d 16 bd d7 59 e3 3d 50 c4 88 3e
       -0.25774443 -0.03674111 0.1110112 0.26712275
0001c0 1e f9 13 be 15 73 91 bd b7 fb 1c 3e 88 26 8b be
       -0.144505 -0.07102028 0.15330397 -0.27177835
0001d0 9f 2f 37 be 10 ae a9 be 53 4c 46 3e 30 25 02 3e
       -0.1788926 -0.33140612 0.19365053 0.12709498
0001e0 fa 86 e6 bd 4e 0e 1c be 30 79 8e be c4 93 ae be
       -0.112562135 -0.15239832 -0.27826834 -0.3409711
0001f0 0c a7 5c bd 1e 28 8a 3e 2e ee 61 3e f3 4d 32 3e
       -0.053870246 0.26983732 0.22063515 0.17412548
000200 28 4c 70 be 23 e4 72 3e 3d 04 31 3e 14 09 6a be
       -0.23466551 0.2371984 0.17286773 -0.22855026
000210 15 2e a8 be 6c 10 b4 ba 04 53 a5 3e b6 58 ce be
       -0.32847658 -0.0013737804 0.32289898 -0.40302056
000220 db 32 0d be e8 67 93 be cb a8 74 3e f5 12 6a bc
       -0.13788931 -0.28790212 0.23892514 -0.014286746
000230 c0 1d b2 3d 5c 34 81 be aa 5d ec bb a5 ba d6 3d
       0.086970806 -0.2523526 -0.007213314 0.10484818
000240 09 84 5e bc 8c ff 5f be fd 36 02 be 2b 91 10 bd
       -0.013581284 -0.21874827 -0.12716289 -0.035294693
000250 06 97 53 3e 90 71 87 bd 28 80 39 be 16 44 21 3e
       0.2066308 -0.06613457 -0.18115294 0.15748629
000260 74 8c c8 3d 8a 75 2a be e3 db 54 3e b7 96 ef 3d
       0.09792414 -0.166464 0.20787005 0.116986685
000270 0b 42 71 3b 9a 2b d1 bd 6f aa e0 3d 46 04 d9 be
       0.0036813046 -0.102133945 0.10970008 -0.42386073
000280 01 76 12 3e 9b b0 b9 3d 4d 81 c1 be 2d a8 2c 3e
       0.14302827 0.09066888 -0.3779396 0.16861029
000290 ce 7b 13 3e d0 31 42 be 75 6a a0 3c d6 2b 41 3e
       0.14402696 -0.18964314 0.019582013 0.18864378
0002a0 a5 69 9d 3e 3f f9 b3 bd 3c 2b 6e bd 9b 86 2c 3e
       0.30744663 -0.08787774 -0.0581467 0.16848223
0002b0 4c 30 2b 3e d3 d1 e3 bd ec 98 2f 3e a2 d5 39 be
       0.16717643 -0.11124005 0.17148179 -0.181479
0002c0 32 c0 2b bd 58 e3 54 be f4 57 a7 bd db 66 bd 3d
       -0.04193134 -0.2078985 -0.081710726 0.09248134
0002d0 70 8c e1 bd 48 6e 6d be 80 5f 8c be 5f 93 8f 3d
       -0.110131145 -0.231866 -0.2741661 0.07010531
0002e0 25 1a 5b be 65 9a d4 bc e2 79 0f 3e 11 85 6c be
       -0.21396692 -0.025952527 0.14011338 -0.23097636
0002f0 03 0b 9f 3e 6f f1 9d bc 39 c9 1b be 43 de 63 3c
       0.3106309 -0.019280164 -0.15213479 0.013907972

gat1.lin_l.bias f4 [64]
000000 a8 fa 83 3c d5 e4 b4 be c7 2a db bd 43 96 60 3e
       0.016110733 -0.35330835 -0.107015185 0.2193232
000010 c8 91 5a bd d3 49 8f be cd 37 00 3f d6 b5 01 bf
       -0.053361684 -0.2798601 0.50085145 -0.50668085
000020 b1 ff 08 3f f5 0e 9b 3e e1 40 bf 3e 6e 33 43 be
       0.53515154 0.3028485 0.37354186 -0.19062588
000030 a9 88 4d 3e 76 cd 82 bd 37 ce ab 3d a3 2e a9 3d
       0.20071663 -0.06386845 0.08388942 0.082608484
000040 63 10 ef 3e 0c 49 b2 be cc 1c a9 3e 1f 8c b5 3e
       0.4669219 -0.34821355 0.33029783 0.35458466
000050 28 36 cb be 5f d9 49 be 98 fc 06 bf 29 1f a4 3e
       -0.39689755 -0.19711827 -0.5272918 0.32055023
000060 af 6e a4 3d ec 52 10 be 09 f8 67 3e 9e b7 ca be
       0.08028924 -0.14094132 0.22653212 -0.39593214
000070 fa 1a 3f 3e e7 2e 96 3d 2e b9 97 be 1e dc 89 bd
       0.18662634 0.07333165 -0.29633468 -0.06731437
000080 6a 64 e8 be 39 a0 b2 bd 84 00 06 3f 71 7d 9f bc
       -0.4538911 -0.08721966 0.52344537 -0.019468995
000090 66 bc a1 be b8 f6 0e 3f 34 24 a3 be 98 09 32 be
       -0.3158905 0.5584521 -0.31863558 -0.17386472
0000a0 3c c5 27 be b5 ab 8a be bb 8c b1 3e f7 82 4a 3e
       -0.16383833 -0.27084127 0.3467768 0.19776522
0000b0 ff 94 79 be 54 b1 d2 3d c3 bc d3 be d0 bc 00 bf
       -0.24373244 0.10287729 -0.4135495 -0.50288105
0000c0 eb b7 82 b9 4f 98 d4 bd d5 42 bb be d8 9c b4 be
       -0.00024932562 -0.10380613 -0.36574426 -0.35275912
0000d0 6e e6 a2 3e d0 a7 9d 3e 0b 09 c4 3e 66 31 37 3d
       0.3181643 0.30792093 0.3828815 0.044724844
0000e0 67 42 c5 3e 32 d0 f6 3e 57 29 77 3e 92 8b 33 3e
       0.38527223 0.48205715 0.24136864 0.1753371
0000f0 d3 79 ab 3e 31 33 c2 3e fd 85 96 be 06 52 13 3d
       0.33491382 0.3792968 -0.293991 0.035966896

gat1.lin_r.weight f4 [64, 3]
000000 4b d6 62 3e dd af 95 be 0c 23 ae 3d 54 6f 8e 3d
       0.22152059 -0.29235736 0.085027784 0.06954828
000010 fc 5c 95 3e 68 40 13 bc cf 67 94 be ba b0 a2 bc
       0.29172504 -0.008987524 -0.2898545 -0.01985966
000020 e5 a9 8b 3d 12 5c 29 3e 3c ed c0 bd 36 7e 38 be
       0.06819514 0.16539028 -0.09420249 -0.18016896
000030 97 34 58 3e 95 82 d4 3e 2c 18 9b 3e 65 ed 72 be
       0.21113811 0.41505876 0.3029188 -0.23723371
000040 14 ed 44 3d 1b f8 0d be ff dd af 3e 55 e8 1e be
       0.048077658 -0.13864176 0.34349057 -0.15518315
000050 6e ff 9d 3d a1 ad 91 3d b5 34 98 bd 4e 8c 35 be
       0.07714735 0.07113195 -0.07431928 -0.17729303
000060 7e ac 4c 3e 2b 92 b7 3d 58 8f da 3c ab 13 3a be
       0.19987676 0.08963426 0.02667968 -0.18171565
000070 de 46 20 3d 72 78 cd bc 11 d9 b7 bd 4d 43 cf bc
       0.039130084 -0.025081847 -0.08976949 -0.025300646
000080 6b b0 ea bd 80 f8 15 3e d5 21 e6 bd 7d eb 5a bd
       -0.1145943 0.14645576 -0.11236922 -0.053447235
000090 8f 80 19 3e b4 fc 16 bd f9 7e 4e be de e4 1d be
       0.14990447 -0.03686209 -0.20165624 -0.15419337
0000a0 eb 40 a8 3e 85 38 2c 3e 78 fe c1 3e 03 79 ae 3e
       0.32862028 0.16818435 0.37889457 0.340767
0000b0 df 9e 16 be ad 04 97 3e 28 2d 3b be 9d 4e 88 be
       -0.14709042 0.29495755 -0.18278944 -0.26622477
0000c0 f7 51 25 be 43 ed 98 3d 31 30 c7 bd 5c b6 c1 3d
       -0.16144548 0.07467129 -0.09725989 0.094586104
0000d0 f3 90 44 3e 11 4f 84 3e 98 9e 86 3e ac 31 b3 bd
       0.19195919 0.25841573 0.26292872 -0.087497085
0000e0 5a ff b3 bc 55 4b 05 bf 67 a4 92 bd fe 79 3e be
       -0.021972347 -0.5206807 -0.071602635 -0.18601224
0000f0 21 8f 9d be c0 da 5f 3e fd 44 a7 bd ed 28 79 3e
       -0.3077326 0.2186079 -0.08167455 0.24332018
000100 f5 1c e4 bd 60 81 a1 3d 07 e9 35 3c 90 b3 70 be
       -0.111383356 0.078860044 0.011102921 -0.23505998
000110 f1 d0 4d 3d 9e c8 b2 3e 8b a5 21 3e 9d b8 2a bc
       0.05024809 0.34918684 0.15785806 -0.010419992
000120 f4 36 e4 3c 9d 3e bf be 14 0a 81 bd dc bc 80 be
       0.027858235 -0.37352458 -0.063007504 -0.25144088
000130 e3 e1 9a bd 2c 8d 3e be 33 f2 69 3d 8d 1c 67 3b
       -0.07562616 -0.1860854 0.057115745 0.003526482
000140 22 fb e6 bd aa 6d bf 3d ae 86 be be 0d c1 14 3d
       -0.112783685 0.09347089 -0.37212127 0.03631692
000150 93 a1 ae bd 68 c1 0d 3e d5 91 c8 3c e3 8f 42 3d
       -0.085269116 0.1384331 0.0244836 0.047500502
000160 44 8a e4 bc d3 3c a6 bd 58 12 ed 3d 8f d5 4a bd
       -0.027897961 -0.0811707 0.115757644 -0.04952007
000170 60 bb 8e bd a9 8e 7c be 94 19 28 bd d5 eb 94 bc
       -0.06969333 -0.24663796 -0.04104002 -0.01817886
000180 42 af 82 3e b5 aa c5 3d a8 cc cf 3d 9a df d5 3e
       0.25524336 0.096517004 0.10146457 0.41772157
000190 6f c4 bc 3e f7 69 42 bd 06 33 39 be 70 db ae bd
       0.36868617 -0.047464337 -0.1808587 -0.08537948
0001a0 0e 81 a5 be 9d 8f 4b 3e 2e 23 b1 bd 20 7e a7 3c
       -0.32325023 0.19879003 -0.08649288 0.020445883
0001b0 91 1b ec bd da 13 1e bd 43 fe 4f 3e a2 14 07 be
       -0.115286954 -0.03859315 0.20311837 -0.13191465
0001c0 12 7d a6 3e 4f f3 20 3e a5 07 27 be 86 9f 75 be
       0.32517296 0.15717815 -0.1631151 -0.23986635
0001d0 18 70 46 be 9c bb f2 3d 30 72 bc bc 11 1e 9a be
       -0.19378698 0.1185219 -0.023003668 -0.30101064
0001e0 1d 24 db be 31 82 75 be dd 93 6f be 1f 16 89 be
       -0.4280099 -0.23975445 -0.23396249 -0.2677469
0001f0 48 47 35 3e 67 32 24 be af f7 8d bd 50 1a 26 3e
       0.17702973 -0.16034852 -0.069320075 0.16220975
000200 3e 9e 3c be 8a a9 cc bc 81 32 c7 3e 26 de 5a 3e
       -0.1841974 -0.024983186 0.3890572 0.21373805
000210 fa 1f c9 3d 71 ec 8b 3e 6e 45 a0 3e 01 8b e8 bd
       0.09820552 0.27328828 0.3130297 -0.11354638
000220 89 a5 64 3e a6 c2 e8 3d 80 93 9c 3d 71 54 68 be
       0.22328772 0.11365251 0.07645321 -0.22688462
000230 ff d2 de bd 00 5c b3 3e 46 6a 38 be d1 50 2c bd
       -0.10880088 0.35031128 -0.1800929 -0.04206926
000240 ab 6d 33 3e e0 1f 66 be bf 51 33 3e e0 c7 06 be
       0.17522304 -0.22473097 0.17511652 -0.13162184
000250 ed 9e 3b 3e 33 a6 07 bd 5a 8f 7f be 66 7c 49 be
       0.18322344 -0.033117484 -0.24957028 -0.1967636
000260 d0 fa d8 bc ca c7 75 be b0 c7 cf 3c 83 2a bf 3e
       -0.026486784 -0.24001995 0.025363773 0.3733712
000270 8b 50 69 3e 1f ef 64 bd a4 a7 8d 3e 15 bb 07 3e
       0.22784631 -0.055892106 0.27666962 0.1325496
000280 5e d8 74 bd 2c cb 83 3e fd f0 89 3e b7 4c 58 be
       -0.059776656 0.25740945 0.26941672 -0.21123014
000290 40 7e f5 3d 57 b6 3d bd d6 1e 19 3e 57 88 87 3e
       0.11986971 -0.04631647 0.14953169 0.26471207
0002a0 7b 42 1d be 5f f9 99 be 8f dd 09 3e 80 db 22 3e
       -0.15357392 -0.30073068 0.13463424 0.15904045
0002b0 e6 16 4d 3e d9 27 b8 bd 33 6d 02 be 70 ce ce 3c
       0.20028266 -0.08991975 -0.12736969 0.025244921
0002c0 7e 3e 60 be ce ab f4 bd 9b 2c 99 be 0e 02 8c be
       -0.21898839 -0.11946832 -0.29916844 -0.27345318
0002d0 70 f6 be 3d eb 85 a9 bd 0a f1 26 be c3 97 66 3d
       0.09324348 -0.08277496 -0.16302887 0.056297075
0002e0 db c3 cb bd 82 99 9a 3c 37 81 21 be 44 dc 91 be
       -0.09949466 0.018872026 -0.15771948 -0.28488362
0002f0 8c e7 56 3d 92 a7 9a 3d 6d 6b 47 3e d5 cc 99 bb
       0.052466914 0.07551493 0.19474573 -0.0046936073

gat1.lin_r.bias f4 [64]
000000 04 c3 40 3b b1 a6 29 3f 5a 25 21 3f b3 0f 11 3e
       0.0029413113 0.66269976 0.6294762 0.14166145
000010 8a 70 94 3e f2 3e 91 3d f3 dc 5e 3e 3f df da bd
       0.2899211 0.07092084 0.21763973 -0.10687112
000020 ac 34 58 3e 4d fd ef 3e 63 f3 ba 3e a7 3b 91 be
       0.21113843 0.4687294 0.36513814 -0.28365824
000030 fc 0d ae 3e 36 3e b8 bd 8e 53 3b 3f 38 e5 2d be
       0.33995044 -0.08996241 0.7317437 -0.16981971
000040 d2 8e 78 3e df 52 ae 3d bd 3b 1c bf b4 22 b9 3e
       0.24273232 0.085119 -0.61028653 0.3615929
000050 0f 53 db 3e 54 01 01 3f 9e 00 f7 3d 6c 7c a5 3e
       0.42836806 0.5039265 0.120606646 0.3232149
000060 2e 7f d5 3c b0 96 14 3f 81 2d 81 be 64 ac 11 bf
       0.02606162 0.5804243 -0.2523003 -0.5690367
000070 67 d7 ed 3c fd 3c 47 be 18 05 29 3e 62 54 1f bf
       0.029033376 -0.19456859 0.1650585 -0.6223813
000080 0e e5 21 be f6 0b e4 be 49 80 07 3f 27 87 b9 3e
       -0.15810034 -0.44540375 0.5293012 0.36235926
000090 54 3c c2 3e 83 62 c2 3d e5 a7 cd 3e 2c ed 2a bf
       0.37936652 0.09491446 0.40167156 -0.66768146
0000a0 08 4e c9 3d be 6f fb 3e 69 f6 74 be ad 6b 4e 3e
       0.098293364 0.4910869 -0.23922123 0.20158263
0000b0 17 4d e3 be 48 fa 57 3d 53 69 e2 3d fd bb 82 3e
       -0.44394752 0.05272892 0.11055245 0.2553405
0000c0 25 a8 9d 3e 9e f3 af 3e 92 4f 5b be 7a f6 a6 be
       0.30792347 0.34365553 -0.21417072 -0.32609922
0000d0 91 e3 04 bf 1a 44 8d bd bf 07 d3 3e 44 1f e5 3d
       -0.5190974 -0.06897755 0.41216847 0.11187604
0000e0 1b fe 7d 3e 43 2a de 3e ad 27 8a 3e 04 6a cf be
       0.24803965 0.43391618 0.26983395 -0.4051057
0000f0 20 f3 ae 3e fa 7b b2 3d 38 fd ae be 91 51 cf 3e
       0.34169865 0.08715053 -0.34177566 0.40491918

gat1.lin_edge.weight f4 [64, 3]
000000 6a 16 b2 bc 42 75 01 be 57 f9 50 be 85 ec 75 bc
       -0.021739203 -0.12642387 -0.20407616 -0.015010004
000010 8f db 0e be c8 e8 91 3e 62 ee f0 bc 0a 97 9d 3d
       -0.13950942 0.2849791 -0.029410545 0.07694824
000020 53 4c 9b 3e e4 b6 61 3e ea ba e2 3d e0 df 21 3e
       0.30331668 0.22042423 0.11070807 0.15808058
000030 6d 16 3a 3e fc 96 91 3e ec 52 16 3e 39 06 4c bd
       0.18172617 0.28435504 0.1468007 -0.049810622
000040 6a 73 89 3e bf 3a b8 3d 64 2e 7b be 71 61 c9 bd
       0.26845866 0.0899558 -0.24529415 -0.098330386
000050 34 f0 d6 3d 8e 2c a2 be d0 90 c5 3d d2 94 33 3e
       0.10495034 -0.31674618 0.096467614 0.17537239
000060 2f 07 00 3d 85 99 78 3e 3b da da 3d 5d f9 be be
       0.03125685 0.24277313 0.106861554 -0.37299624
000070 d9 16 5c be f9 0b 67 3e 3e 5d f8 3d 6e 87 72 be
       -0.2149309 0.22563161 0.121271595 -0.23684475
000080 c4 76 9e 3e 04 68 8e 3d 4d 3e 68 be 4b 1f 61 3b
       0.30949986 0.06953433 -0.22680016 0.0034350927
000090 4b 85 21 3e 94 d2 03 be cf 7f d6 bc 04 98 d5 bc
       0.15773503 -0.12873298 -0.02618399 -0.026073463
0000a0 dd b5 dc 3e 37 9c e7 3c c5 33 37 3e 2e b6 a0 3d
       0.431075 0.028272731 0.17890842 0.07847248
0000b0 e6 c1 9b bc b1 21 86 bd 40 27 47 3e 5d 24 79 3d
       -0.019013356 -0.06549395 0.19448566 0.060825694
0000c0 c6 3d 20 3e 52 74 f2 bc 59 3b 4f 3e 6f a1 14 be
       0.15648565 -0.029596481 0.20237483 -0.14514707
0000d0 60 c6 0d 3e d0 f8 7c 3e c8 e1 01 3d a5 04 04 be
       0.13845205 0.2470429 0.031709462 -0.12892397
0000e0 cb b2 a0 3e 34 ff c4 3d df 59 78 be 6f c2 b3 3c
       0.31386408 0.09618989 -0.24253033 0.0219433
0000f0 ce 62 33 bf 63 17 82 bd b3 11 8b be 7f 8b 8f 3e
       -0.7007264 -0.06352117 -0.2716194 0.28036115
000100 36 ff 0f be 33 cd 12 3e 88 b7 c8 3e 17 1c c8 be
       -0.14062199 0.1433609 0.39202523 -0.3908393
000110 77 9d 52 3c fa b5 92 3e 2d 1b 22 bd 8a ec d7 bd
       0.012854925 0.28654462 -0.039576698 -0.10543163
000120 e0 17 94 3d c3 7e bb be b4 e6 88 be b6 c3 14 be
       0.07231116 -0.3662015 -0.26738513 -0.14527783
000130 e3 a9 cf bd 07 55 7f be e8 44 72 3e 76 0d 97 be
       -0.10139825 -0.24934779 0.23659098 -0.29502457
000140 c2 c1 24 3e e7 e7 53 be ba 69 3b be a8 74 18 3e
       0.16089538 -0.20693932 -0.1830205 0.14888251
000150 f9 e7 5f 3e 7c 00 89 3d 72 ab 65 3e 5a ec da 3e
       0.21865834 0.066895455 0.22428682 0.42758447
000160 5d 87 a4 be 14 ee 2d be 3e a7 31 3e 1c da ce 3e
       -0.32134524 -0.16985351 0.17348954 0.4040078
000170 7e 86 00 be e0 40 4c be 76 f3 90 3d 68 7e 62 3e
       -0.12551305 -0.19946623 0.070776865 0.22118533
000180 a9 b9 a4 3d 47 ad 1a be 85 7a 2d bd bb 39 cd 3e
       0.08043224 -0.15105163 -0.04235317 0.40083107
000190 fe f4 35 3e da 91 1d be 11 51 00 be e0 53 7c 3e
       0.17769238 -0.15387669 -0.12530924 0.24641371
0001a0 4b 11 ab be f5 19 bf 3c 27 c6 16 3d ae 7b d7 be
       -0.3341163 0.023327807 0.036810067 -0.42086548
0001b0 eb 27 b9 3d 8f d0 21 be 35 99 94 be 6e 87 c5 3d
       0.09040817 -0.15802215 -0.29023138 0.09644972
0001c0 d9 cb 0f be 3c c5 95 be 09 1e 92 be a5 38 a0 3d
       -0.14042605 -0.2925204 -0.2853854 0.07823304
0001d0 3c a4 15 be b1 27 71 bc b9 f5 3c 3e 51 55 7f 3d
       -0.14613432 -0.014718936 0.18453111 0.062337223
0001e0 4f 30 97 be 2a 06 6b be ed a6 32 be 4e 80 c0 be
       -0.29529044 -0.2295157 -0.1744649 -0.3759789
0001f0 e9 36 25 be e2 ac 4f be d9 aa cc 3e e3 f3 7d be
       -0.16134228 -0.20280793 0.39974096 -0.24800067
000200 62 af 01 3e 55 53 63 be 69 eb 5a be 08 b8 e2 3c
       0.1266456 -0.22199757 -0.21378864 0.027675644
000210 84 2f 97 be 5d de 05 3e f4 2e 87 3e 01 a4 10 be
       -0.2952844 0.13073106 0.2640301 -0.14125063
000220 56 51 82 be 05 7a cc be fe 64 d4 bd 17 0a be 3d
       -0.2545268 -0.39936844 -0.10370825 0.09279268
000230 2b 96 16 3e 57 04 36 bb 27 a0 04 bd 4a 45 68 3d
       0.14705722 -0.0027773583 -0.032379296 0.056706704
000240 76 47 37 be 74 dd f0 3d 1d 3b 27 bd 8a b2 2c be
       -0.17898354 0.11760989 -0.04082786 -0.16864982
000250 88 a2 c2 3d f7 d6 6f bd 1d 03 1f 3e 37 e5 eb bc
       0.095036566 -0.058554616 0.15528531 -0.028795822
000260 d0 97 df be f3 dd 45 3e 56 7d 14 39 10 41 4a 3e
       -0.4367051 0.19322948 0.00014161071 0.19751382
000270 58 13 a4 3e 70 2d 91 be c9 e3 62 3e 7a f0 ad bd
       0.32046008 -0.2835498 0.22157206 -0.08493133
000280 e6 a5 9d bb a5 f2 5e be 1f d4 47 3e f4 3f 23 3e
       -0.0048110364 -0.21772249 0.19514512 0.15942365
000290 53 b5 32 3e 74 96 4f be ed af 4f 3e 25 0c 2b be
       0.17451982 -0.20272237 0.20281954 -0.16703852
0002a0 87 3f 8a 3c 06 ba 8e 3e 6b 24 3b be b6 f6 e0 be
       0.016875995 0.278763 -0.18275611 -0.43938226
0002b0 39 37 8a 3d 06 34 a8 bd e8 bd 83 be 34 72 db bd
       0.06748814 -0.08213048 -0.25730824 -0.10715142
0002c0 e0 34 06 bd 5c 45 9b 3d 16 0c a5 3c 49 97 5b bd
       -0.03276527 0.075815886 0.020147365 -0.053611074
0002d0 a6 05 63 3e 36 06 b5 be 8b c6 eb bd a9 e2 3d be
       0.22170123 -0.353563 -0.115124784 -0.18543495
0002e0 92 47 24 3d c3 1f ab be a3 22 40 be c3 58 04 be
       0.040107317 -0.3342267 -0.18763213 -0.12924485
0002f0 63 a2 f8 bd fd 11 3f bc 30 50 62 be ef 34 61 be
       -0.12140348 -0.011662004 -0.22100902 -0.21992849

bn1.weight f4 [32]
000000 ea 82 9f 3f 33 12 9c 3f d1 b5 87 3f bb c4 7a 3f
       1.2461827 1.2193054 1.0602361 0.97956437
000010 fb 34 99 3f 79 cf 81 3f 17 49 81 3f 04 c3 86 3f
       1.1969293 1.0141441 1.010043 1.0528264
000020 06 82 7e 3f 73 14 86 3f 56 91 86 3f ab 7b 62 3f
       0.9941715 1.0474991 1.0513103 0.8846995
000030 23 64 98 3f 0d 52 61 3f a1 8e 6d 3f 7b 58 6e 3f
       1.1905559 0.88015825 0.9279576 0.9310376
000040 2d 18 78 3f c7 38 82 3f 7e 98 81 3f 43 0a 80 3f
       0.9691189 1.0173577 1.0124662 1.0003132
000050 7a 89 8f 3f 79 0a 88 3f 9d 5a 6e 3f 75 bc 86 3f
       1.121383 1.0628196 0.93107015 1.0526263
000060 9d 74 80 3f a6 60 75 3f a5 ca 88 3f 39 f1 8e 3f
       1.0035588 0.958506 1.0686842 1.1167365
000070 fb dc 8a 3f 17 49 71 3f a2 ea 82 3f 8d 4f 71 3f
       1.0848688 0.9425215 1.0227854 0.9426201

bn1.bias f4 [32]
000000 74 d2 87 be 9d 55 a3 bc d1 10 15 3e 05 76 60 be
       -0.2652775 -0.019938285 0.14557196 -0.21920021
000010 9c 4f e2 bd 85 32 0c be 80 6c f6 bd 31 77 6d bd
       -0.110503405 -0.13691147 -0.120324135 -0.057974998
000020 71 f2 3d bd 94 f4 01 3c da 99 68 bc b3 97 d0 3d
       -0.04637379 0.007931847 -0.014196837 0.10185184
000030 32 d5 fc 3d fe 0e a1 bd a2 26 82 bd 2d 17 81 be
       0.12345351 -0.07864188 -0.06355025 -0.25212994
000040 87 75 a8 be 5c 19 3b be 8b 97 b8 3a 57 c3 21 3e
       -0.32902166 -0.18271393 0.0014083249 0.15797172
000050 19 de 43 be 8e f5 5f 3d 0b 93 0a be b1 cb 13 be
       -0.19127692 0.05467754 -0.13532655 -0.14433171
000060 77 c8 dc bc b7 5a 0b be 14 d1 15 3e c5 4f 06 bd
       -0.026951058 -0.13608824 0.14630538 -0.032790918
000070 5d 72 8b 3c d7 56 15 3d fd bd db bc 3c ed 86 be
       0.017022306 0.03645977 -0.026823992 -0.2635287

bn1.running_mean f4 [32]
000000 31 85 7a be 7c 5b 8c 3d 0c eb 9b 3c df 28 5f 3e
       -0.24464871 0.06853387 0.019032978 0.21792935
000010 97 cd f5 bd d3 1e 93 3e 78 c0 8d be 06 53 01 bf
       -0.12002104 0.28734455 -0.27685905 -0.5051731
000020 7e 5b 46 be b2 31 0e 3e 7b 00 a9 3e cd 4c bf 3d
       -0.19370839 0.13886145 0.3300818 0.093408205
000030 75 9b 57 be 95 77 9e bd 10 91 ad be 54 7c 0d be
       -0.21055396 -0.07737652 -0.33899736 -0.13816959
000040 55 1c 5c 3e cf 30 5a be 2b 2f 2b bd 8e fc fd 3d
       0.21495183 -0.21307682 -0.04179303 0.124016866
000050 40 45 24 3e cb 76 eb 3e 9d da 7a bd 8a 51 68 3e
       0.16042042 0.4598907 -0.061243642 0.22687355
000060 44 ac df 3e a8 63 3e 3e 7e 46 d4 3e d0 8b 3b bd
       0.43686116 0.18592703 0.4146003 -0.045787632
000070 df ce 9e 3e 32 a1 81 3e 32 e4 55 bd 6b bc ab ba
       0.31017205 0.25318295 -0.052219577 -0.0013102418

bn1.running_var f4 [32]
000000 4b 4f 5a 3a c3 13 63 3b 98 a6 fa 3b 34 16 35 3b
       0.00083278556 0.003464923 0.007649254 0.0027631642
000010 48 c4 90 3b 85 78 cf 3b a0 83 40 3c d5 a3 70 3b
       0.00441793 0.0063315057 0.011750132 0.0036718745
000020 ba 47 ce 3b 51 8d d0 3a b0 06 8b 3a fe 54 d7 39
       0.0062951716 0.0015911256 0.0010606851 0.0004107132
000030 f9 3f 44 3b d9 19 98 3b 73 1a 18 3b 6d c6 e0 3a
       0.0029945357 0.004641753 0.0023209124 0.0017148979
000040 3f 87 36 3b 9a d8 bb 3a ad b0 26 3b 21 14 96 3a
       0.002785161 0.001433152 0.0025434897 0.0011450091
000050 bb ea 79 3b 27 98 d5 3b bf a4 c1 3b 05 9e e2 3b
       0.0038134295 0.006518382 0.005909532 0.00691581
000060 ae b8 b2 3b 7d cf 24 3b 35 b7 24 3b 9b ce 25 3b
       0.0054541444 0.0025148087 0.0025133614 0.0025300148
000070 03 e9 7f 3b b8 4f 43 3b 8a f0 24 3c a8 f9 7a 3a
       0.0039048798 0.0029802155 0.010067115 0.0009573945

gat2.att f4 [1, 2, 64]
000000 69 f4 df 3d e2 b7 c0 be 34 b4 87 bd c6 7f 7d 3e
       0.109352894 -0.3764029 -0.06626168 0.24755773
000010 2e 91 90 be d8 31 af bd 40 07 50 3e 4a b8 2c 3c
       -0.28235763 -0.08554429 0.20315266 0.010541985
000020 ad 9c 7a 3e 24 ca 0e 3f f6 8d 8e bc 09 d9 2e 3d
       0.2447383 0.5577719 -0.017401677 0.04268745
000030 11 ac 74 3e 3d 21 69 3e 26 4e 68 be b6 e5 84 be
       0.23893763 0.22766586 -0.22686061 -0.25956506
000040 4f 92 4b 3e 33 98 b2 3e ac af 45 3d ba a4 cb 3e
       0.19880031 0.34881744 0.048263237 0.39774114
000050 04 40 bf 3c fe 8e 82 be 67 d9 bd 3d 9f f7 88 3e
       0.023345955 -0.2549972 0.09269982 0.2675142
000060 f2 fd 47 be ae fd ca 3d 7b 75 9c 3e f4 9b 4c be
       -0.19530466 0.09911667 0.3055838 -0.19981366
000070 f2 1d 8a 3e 28 a8 0c be 08 b4 97 be f5 a8 0c 3e
       0.2697597 -0.13736022 -0.2962954 0.13736327
000080 03 e7 64 be 61 de 10 bd 0d 3a 77 3d fc 66 39 3f
       -0.22353749 -0.035368327 0.060358096 0.72422767
000090 62 77 03 3e 2d a9 6d 3e 0c 4d e4 3e ba db 94 3d
       0.1283851 0.23209067 0.44590032 0.07268472
0000a0 97 40 52 be bb 06 cf 3c 41 75 0d be ae 62 8f be
       -0.20532452 0.025271764 -0.1381426 -0.28004974
0000b0 e2 8c 1b be 1f c7 b7 bd 40 b7 e6 3e 97 46 03 3e
       -0.15190461 -0.08973526 0.45061684 0.12819897
0000c0 c8 33 f6 3d d7 d9 d2 3e d2 86 ab be c6 7e 34 3e
       0.12021595 0.41181824 -0.33501297 0.17626485
0000d0 36 f4 8e be 80 d6 31 3d 87 1d 1d 3e eb 16 94 bd
       -0.27920693 0.043417454 0.15343295 -0.07230934
0000e0 b7 c6 13 bf 02 55 21 3d 2f 8a 2c 3e da 32 8e 3d
       -0.5772509 0.03938771 0.16849588 0.06943293
0000f0 2a 5f a3 3e ea dd 8b be b9 af 0b 3e c4 10 76 be
       0.31908542 -0.27317744 0.13641252 -0.24029833
000100 56 1c 8c 3e 61 d8 bb 3e 69 31 33 be 38 ab 2b bd
       0.2736537 0.36688522 -0.17499317 -0.041911334
000110 42 60 9a be b3 97 a0 be 7e 6a f2 3c 23 18 15 3d
       -0.30151564 -0.31365737 0.029591795 0.03639997
000120 54 88 16 3e 19 ab cf bc 52 c4 4f be f0 71 86 be
       0.14700443 -0.02535014 -0.20289734 -0.26258802
000130 e1 7e a3 be f7 03 93 3e b2 21 7a 3e 0a 9e ce bd
       -0.31932738 0.28713962 0.24426916 -0.10088737
000140 68 c7 c7 3e 98 96 9a be 44 7f ce 3d 89 4b e9 3e
       0.39019322 -0.3019302 0.10082868 0.4556544
000150 31 a5 b4 3b 71 c1 16 be f2 12 d9 3d 69 63 9a 3e
       0.0055128564 -0.1472223 0.10599317 0.3015397
000160 21 c9 ea 3e 9a 41 bb be f2 88 cd 3e cd 51 38 be
       0.45856574 -0.36573488 0.40143543 -0.17999955
000170 49 54 83 be c4 77 48 3d c8 b5 81 3e a6 69 de 3b
       -0.25650242 0.048942342 0.25334 0.0067874966
000180 17 37 43 be 8c d8 af ba 51 8d ad bd f9 12 84 be
       -0.19063984 -0.0013415976 -0.084742196 -0.25795725
000190 4b 25 37 be a1 06 0c bd 81 fa 50 be 7b 39 d3 3e
       -0.1788532 -0.03418601 -0.2040806 0.41254792
0001a0 2a a9 9d be c7 26 46 be 69 c3 86 be 4e d4 a3 be
       -0.30793124 -0.1935073 -0.2632096 -0.31997913
0001b0 1f 5c 95 3e 12 d0 06 be 06 9e 2d be db 06 f9 bd
       0.29171845 -0.1316531 -0.16954812 -0.12159511
0001c0 b6 e6 17 3e 05 89 b6 bd 8b b6 f8 3d ca 90 1c be
       0.14834103 -0.08912853 0.12144192 -0.15289608
0001d0 75 f1 82 be 44 8d 3e bd a6 49 fc 3c 4b ad 0a bd
       -0.25574842 -0.04652144 0.030796837 -0.03385667
0001e0 bf 5a 39 bd d0 37 e5 3d b5 e6 f1 bd e6 1b 7a be
       -0.045252558 0.11192286 -0.11811582 -0.24424705
0001f0 b1 cd 0e 3f ca 79 7f 3d 4f f2 e9 3d 76 ee 72 be
       0.5578261 0.062372006 0.1142317 -0.23723778

gat2.bias f4 [64]
000000 05 6c 8e 3b 1e 10 69 3b 63 7f 34 bc 8c ca f3 3c
       0.004346373 0.0035562585 -0.0110166995 0.029759668
000010 d4 4d 02 bd d3 31 49 3c b7 bf e1 bc 52 93 be 3c
       -0.031812504 0.012279945 -0.027557237 0.023263607
000020 04 0b 7c bc 81 10 15 3d 33 b0 27 bc de 9f 6c 3b
       -0.015383486 0.036392692 -0.01023488 0.003610603
000030 1a 5b 37 3d 92 cc 60 3c 61 47 8e bc 59 20 d3 bc
       0.044764616 0.013720648 -0.01736802 -0.02577226
000040 47 b5 b2 3c 32 87 8a 3b b9 f9 be 3a b1 d4 10 3c
       0.021814955 0.0042275423 0.0014570273 0.008839772
000050 86 43 bc bb 54 91 94 bc 0b 08 7a bb 43 1f 18 39
       -0.005745354 -0.018135704 -0.0038151767 0.00014507496
000060 26 58 15 bc d3 2d d6 bb 78 ec f7 bc 19 4e 5e 3c
       -0.0091152545 -0.0065362244 -0.030264124 0.013568425
000070 c5 19 2c bd 6a 5e 84 3c db dd aa bc b5 6b 32 bd
       -0.042016763 0.016158301 -0.020857742 -0.04355975
000080 e0 d6 64 3b 7a 61 be bb dd 07 f9 3b 4f 72 b5 bc
       0.0034918115 -0.00580996 0.0075998143 -0.022149233
000090 79 8d 2b 3c bd 7f 56 bc b9 02 54 bd 9d 17 1c 3d
       0.010470741 -0.013091979 -0.05176041 0.038108457
0000a0 62 94 02 3d 00 41 d4 bc 32 e2 8f bc 53 d0 23 3c
       0.03187979 -0.0259099 -0.017563913 0.009998399
0000b0 1b db 05 3c bc f0 11 3d 2b 69 12 3c 6f 27 8a bc
       0.008169915 0.035629973 0.008936207 -0.016864507
0000c0 87 28 8c bc 07 51 b9 bb fd d9 18 3c ab 1a 9b 3c
       -0.017109169 -0.005655411 0.009329316 0.018933615
0000d0 df c9 07 ba 65 0b 11 bc 2e be 22 3c ab 8e 68 bc
       -0.00051799224 -0.008852814 0.009933038 -0.014194171
0000e0 89 80 6b 3d 8f 5f 08 bc 09 7d ea 3c 48 1a 70 ba
       0.057495628 -0.008323564 0.028624075 -0.00091591896
0000f0 76 52 1a 3d b6 eb a3 b9 87 3b cc bb 62 e6 36 3c
       0.037676297 -0.000312654 -0.006232682 0.011163326

gat2.lin_l.weight f4 [128, 32]
000000 fe 74 21 be 99 25 4f 3d 48 fc 57 3e 65 4a b2 bd
       -0.15767285 0.050572965 0.21092331 -0.08705596
000010 a3 88 89 3e b6 38 d6 3d dc 51 d8 bb ca d1 b4 be
       0.26862058 0.104600355 -0.0066015553 -0.35316306
000020 18 d7 b0 3d ed 30 0e 3e 65 7d d9 3d ae 5b 1f be
       0.08634776 0.13885851 0.1061962 -0.15562317
000030 6a bd 48 be 4d 44 aa bc c3 1d 73 bd 69 67 67 3e
       -0.19603506 -0.020784521 -0.059354555 0.22598042
000040 98 bc 7e bd 88 5a bf bd 69 3a 8f bd 82 ad 84 bd
       -0.062191576 -0.09343439 -0.06993563 -0.064784065
000050 05 97 73 be f8 46 ab 3d 08 1d 6b be 08 b1 19 be
       -0.23788078 0.083631456 -0.22960293 -0.15008938
000060 17 bb 42 3e 99 98 94 be 64 f1 e8 3d 03 41 f8 bc
       0.19016682 -0.29022673 0.113741666 -0.030304438
000070 d6 54 ec bd dd 89 49 3e fa 89 e6 3d 77 3e 15 be
       -0.11539619 0.19681497 0.11256786 -0.1457461
000080 f0 fd f6 3d 5c 62 85 bd d5 95 74 3d d3 dd 57 bd
       0.120601535 -0.06512901 0.059713203 -0.052701782
000090 2c ef 09 be ad 6a f0 bd 3d 3c fe bd 8f db 50 3e
       -0.13470143 -0.11739097 -0.12413833 0.20396255
0000a0 72 5c c9 bd 45 24 92 bc 74 42 86 be 01 71 3f be
       -0.09832086 -0.01783956 -0.26222575 -0.18695451
0000b0 92 3b bc bd 63 cb e4 3d d4 93 36 be 21 33 3e 3c
       -0.0919105 0.111716054 -0.1782983 0.01160887
0000c0 29 1d cd ba 14 6a bd ba a8 1f f5 bd c2 61 cd bd
       -0.0015648949 -0.0014451169 -0.119689286 -0.100284114
0000d0 21 a2 6f 3d 46 71 b0 bc b3 b1 62 3e 8d ff d9 bc
       0.058504228 -0.021538388 0.221381 -0.026611114
0000e0 49 51 67 bd 76 e6 74 3e 80 9b 0a 3d 5b 0a 4d 3d
       -0.056474004 0.23916039 0.033839703 0.050058704
0000f0 7c b5 10 be 49 38 94 3d 8a c1 c5 3d 95 b4 cb bd
       -0.14131731 0.07237298 0.09656055 -0.09946553
000100 1a fd 4b 3e 43 58 48 be a0 6a 4b 3e 9f aa 54 3d
       0.1992077 -0.19564919 0.19864893 0.05192053
000110 ad 32 85 be 9e 0e 2b 3d 81 ab d1 3d d5 dc 1e be
       -0.26015225 0.041761987 0.1023779 -0.15513928
000120 ed 9f 27 3e fa 46 24 be e2 6d 30 3e 51 0e 68 3e
       0.163696 -0.160427 0.17229417 0.22661711
000130 62 d9 99 be d1 d6 ca 3d 50 be 96 3b 61 c2 75 bc
       -0.30048662 0.09904254 0.0046003237 -0.014999957
000140 39 c3 2e bd 36 25 ef 3d 32 08 db 3c 00 77 e2 bd
       -0.042666648 0.11677019 0.026737306 -0.11057854
000150 0f 64 6c bd 49 c8 8d be 82 45 17 3d 01 50 ab bd
       -0.05771261 -0.27691868 0.036931522 -0.08364869
000160 70 63 b7 3d 42 7e 24 3c ec c4 3f bd d4 25 22 be
       0.08954513 0.010039868 -0.04681866 -0.15834743
000170 48 91 74 3e a9 ec 29 3e 3c c7 88 be 5b 20 e3 3d
       0.23883545 0.16594185 -0.26714504 0.11090156
000180 77 25 48 be 94 ec d4 3d 84 e6 15 be de 91 6d 3e
       -0.19545542 0.10396686 -0.14638716 0.23200175
000190 f0 e3 10 3e bb fa 77 3e f7 cd 45 be 00 7f 87 be
       0.14149451 0.2421674 -0.1931685 -0.2646408
0001a0 1d be 0a be 05 94 17 3c 6a 36 9a be 1f 62 0e be
       -0.13549085 0.009251599 -0.3011964 -0.13904618
0001b0 be 09 83 3e 7a 1d ba 3d 47 17 65 be 65 79 16 3e
       0.2559337 0.090876535 -0.22372161 0.14694746
0001c0 c2 c9 a8 bd c1 3a 19 3e 20 06 99 ba a5 4c 61 bb
       -0.08241607 0.14963819 -0.0011674799 -0.003437796
0001d0 22 7f 9c 3d 6a 4a fc bd c8 1d 12 3d 24 b1 c4 3c
       0.07641436 -0.12318881 0.035672933 0.024010248
0001e0 d4 e0 16 be 80 a3 9f 3c 46 b7 25 3c 34 9e 14 be
       -0.14734203 0.019487143 0.010114497 -0.14513475
0001f0 4d 4f 7b 3d b0 8e 2d bd cc de 44 3e d6 db b8 bd
       0.061354924 -0.042372406 0.19225615 -0.090263054
000200 22 7d 3f 3d 3f 95 56 3e 41 24 09 bd 6d ef 28 be
       0.046750195 0.2095537 -0.03348184 -0.16497584
000210 bf 6a 1c 3e 63 16 88 be 41 b8 50 3e 58 ef d9 bd
       0.15275095 -0.2657958 0.20382787 -0.10641354
000220 de 5f 69 3e 61 9d 15 bd 01 f1 90 3d b9 14 86 3e
       0.22790477 -0.03652704 0.07077218 0.26187685
000230 ad 19 8a be 49 d5 92 bb 2c 67 92 bd 41 e5 55 3b
       -0.26972714 -0.004480992 -0.07148585 0.0032637867
000240 a3 fe 76 be 8a 70 28 be fb fc 47 3e 62 7f 00 be
       -0.24120574 -0.1644918 0.19530098 -0.12548593
000250 9a 84 96 bd af 91 16 3d 6e c1 d8 3d d3 c2 09 be
       -0.073495105 0.03676003 0.10583769 -0.13453226
000260 67 e7 cc 3c d6 9f 63 3e 11 a3 db 3d 11 4f 40 3e
       0.025012685 0.22228941 0.10724462 0.18780161
000270 53 c2 0e bd 78 a8 2f 3e ea cf 81 be b4 ec 15 3d
       -0.03485329 0.1715411 -0.25353938 0.03660269
000280 10 ca 06 3e 2c 33 b8 bd cd 90 e1 3d df 15 5a bd
       0.13163018 -0.08994135 0.11013947 -0.053243514
000290 d2 0e 07 be a2 4a e7 3d e8 57 3b 3d 12 60 f4 3d
       -0.13189247 0.11293532 0.04573813 0.119323865
0002a0 47 47 68 bd 4c 46 f4 bd aa fc 05 3e 70 34 43 3d
       -0.0567086 -0.119274706 0.13084665 0.04765743
0002b0 51 58 54 be 25 2a f4 3d ea 1b de 3b 31 8b 62 bd
       -0.20736815 0.11922101 0.00677823 -0.055308525
0002c0 fc bc d3 bd 2b 29 1e 3e 0f 8a 84 be d3 36 ce 3d
       -0.1033878 0.15445392 -0.2588658 0.10069051
0002d0 1b 23 f5 bd 47 33 01 3e f1 24 56 3b 0c 55 32 bd
       -0.119695865 0.12617217 0.0032675827 -0.04353814
0002e0 21 92 4b 3e fe d2 c0 3d 4f 84 37 3e 28 90 9f bd
       0.19879963 0.094152436 0.17921565 -0.077911675
0002f0 15 a2 23 3e b3 41 95 3e 02 4f ad bd a0 a8 34 3c
       0.15979798 0.29151687 -0.08462335 0.011026531
000300 5b ad a4 3d 76 3d 4d be 3c 7c 09 be 30 f0 d7 ba
       0.080408774 -0.20042977 -0.13426298 -0.001647478
000310 71 db c9 3d 70 1c 46 3e 1f ca a2 3c 12 4d c0 3d
       0.09856308 0.19346786 0.01987177 0.093897
000320 04 54 ab 3d f8 26 81 3d 8f b1 a8 3d 6b 6a 06 be
       0.08365634 0.06306261 0.082369916 -0.13126533
000330 2b 70 39 3d af 01 ed 3d 5f f2 4d 3d 9b 1e 27 be
       0.045272987 0.11572587 0.05027997 -0.16320269
000340 8a 9c b7 3d 47 8c 2c bd 96 9f 00 be 6c 55 5e bd
       0.08965404 -0.042125966 -0.12560877 -0.054280683
000350 82 a2 5d bd ce f4 4b be 99 51 3c 3e dc ef 0c 3e
       -0.054110058 -0.19917604 0.18390502 0.13763374
000360 dc 29 bc 3d 1d 37 1e 3e 42 c4 38 be a2 84 ce bc
       0.091876715 0.15450712 -0.18043616 -0.025209729
000370 63 47 40 bd 50 d8 49 be 82 7f e5 3c 8a 17 93 3d
       -0.04694308 -0.19711423 0.028014902 0.07182224
000380 26 ff 64 3e ec dd 22 3c 1c 5c 1a be fe 13 77 3e
       0.22362956 0.009940606 -0.150742 0.2412872
000390 33 f7 36 3d 01 b7 54 3d 43 45 16 be 22 b5 9d be
       0.04466934 0.05193234 -0.14674859 -0.30802256
0003a0 11 a0 f5 bd ee 55 ef 3d 9f f3 4b be 2b ab 7d be
       -0.11993421 0.11686312 -0.19917153 -0.24772327
0003b0 92 21 14 bc 65 c0 90 bd 52 b8 31 be 52 2a 4c 3e
       -0.009041207 -0.07067946 -0.17355469 0.19938019
0003c0 cd dc 09 bc fe 50 fd 3c 99 d8 e6 bd 0b af 9b bd
       -0.008414459 0.03092241 -0.112717815 -0.07601746
0003d0 8d 4b c2 3d bf aa 84 bd 66 63 f0 bc f2 f8 4c 3d
       0.094870664 -0.0647788 -0.029344272 0.0500421
0003e0 15 88 3b 3d f9 00 d5 3d 5b 01 97 bc 16 ac 6d 3d
       0.045784075 0.10400576 -0.018433264 0.058025442
0003f0 f8 bf 51 be d5 5d b0 bd d0 f3 ba bd e8 00 c3 bb
       -0.20483387 -0.08611647 -0.09128535 -0.005951036

gat2.lin_l.bias f4 [128]
000000 20 45 4c 3e b4 44 c9 bc 18 fc 2f bd 0c c2 2a 3e
       0.19948244 -0.024568893 -0.042965025 0.16675586
000010 af 05 a7 3d 82 7f 5b be 39 ce 6c be 8d cc 5e be
       0.08155381 -0.21435359 -0.23125543 -0.21757717
000020 cd 8a 55 3e b1 31 5f 3e 65 6b 0c be 8b d5 f0 bc
       0.2085373 0.217963 -0.13712843 -0.0293987
000030 80 7d e2 bd d6 34 9e 3d 05 f9 83 3b 44 67 f9 bb
       -0.110590935 0.077249214 0.004027488 -0.007611187
000040 e5 8b 80 3e 2e e4 5d bd f2 34 3c bd 9a ce c9 bd
       0.2510673 -0.054172687 -0.04594893 -0.09853859
000050 6f 33 11 3d fe 2f 1f 3e c9 19 42 3e 3d 55 07 3e
       0.03544944 0.15545651 0.18955149 0.1321611
000060 c5 c8 c5 ba 27 7e 9f bd 7a 44 89 3e 4e 90 19 3d
       -0.0015089741 -0.077877335 0.26810056 0.037491135
000070 00 0d a5 3d 55 c5 49 3e 12 40 2c 3e 7d 2b 29 3d
       0.0805912 0.19704182 0.16821316 0.04130124
000080 ed 41 c4 bc 15 32 49 3d 7f e2 52 be 38 e7 83 3e
       -0.023957217 0.049120028 -0.20594214 0.25762343
000090 4f 8e b2 3d 63 4a 06 3d 96 ad 9e 3e 2b 13 d7 bd
       0.087185495 0.032785784 0.3099181 -0.10501703
0000a0 9c 6c ec 3d 36 db c4 bd 4b 1d 1f 3e c0 05 84 3e
       0.11544153 -0.09612124 0.15538518 0.25785637
0000b0 48 d8 91 3d 7e 4a 1b be 4a f0 51 3e 97 3b bc bb
       0.071213305 -0.15165135 0.20501819 -0.0057444084
0000c0 ea fa 48 be 22 8e 4c 3e ca 59 85 3e 1a a2 f9 bc
       -0.19626966 0.19976094 0.26045066 -0.030472804
0000d0 6c 0e d2 3d 29 c3 2d be 62 7d 56 be f0 25 22 be
       0.10256657 -0.16968979 -0.20946267 -0.15834785
0000e0 c4 f9 a0 3e 6b 32 ae 3c f3 3a 2d be 7c e8 4a 3d
       0.31440556 0.021264276 -0.16917019 0.04953812
0000f0 62 08 b6 bd 1d b6 53 3d 78 4f 92 bd 39 92 ab 3d
       -0.08888318 0.05168735 -0.07144064 0.08377499
000100 fc d7 1b bd d9 95 ee 3c be 33 4f 3e 91 6d 24 be
       -0.038047776 0.029124187 0.20234582 -0.16057421
000110 33 39 2d 3e b6 53 72 bd 23 86 da 3a 1a 3a 95 be
       0.16916351 -0.059161864 0.0016672056 -0.2914589
000120 98 d9 7f 3d ee d9 4a bd e3 81 b8 bc c7 33 3a bd
       0.062463373 -0.04952424 -0.022522872 -0.045459535
000130 d9 36 00 3e c4 57 9d 3e bd 81 8b 3d 99 d7 26 bd
       0.12520923 0.30731022 0.06811855 -0.040732954
000140 f3 82 b6 3d 29 58 6f be 3a 90 2a be 88 5a 2f bd
       0.08911695 -0.23373474 -0.1665658 -0.042810947
000150 19 b7 c8 bd 8e f5 f5 bc f4 bc 16 be e2 6b c8 3d
       -0.09800548 -0.030024316 -0.14720517 0.09786202
000160 7e 21 c2 bb 87 0a 19 3e 70 7f c8 bd 3a 5b 90 bc
       -0.0059244027 0.14945422 -0.09789932 -0.017621625
000170 ee 2e ba bd 9f 2e 6d 3d 4c 98 fa 3d 7f f5 37 be
       -0.090909824 0.05790579 0.122360796 -0.17964743
000180 e9 82 85 3e 54 45 13 bb fe 8d ff bc db c4 17 3e
       0.2607644 -0.0022471743 -0.031195637 0.14821188
000190 b4 77 6b be 3c 79 42 bd f2 da 3f 3d 12 6f d8 3d
       -0.22994882 -0.0474789 0.046839662 0.1056806
0001a0 86 e5 af 3d 5d 68 75 be fd 60 f6 3b e2 1d f0 3d
       0.085887 -0.23965593 0.007518886 0.1172445
0001b0 b4 40 c6 3a 17 87 4c be 91 38 c5 3d 8c 13 66 3e
       0.0015125484 -0.19973408 0.0962993 0.22468394
0001c0 88 e9 60 bd 26 7d 9b 3d 37 ae 1f be 07 c6 45 be
       -0.054910213 0.075922295 -0.15593801 -0.19313823
0001d0 88 5f b3 3c ea a0 b9 be 1f 99 b5 bc 9d 1b 59 3c
       0.021896139 -0.3625558 -0.02216774 0.013251212
0001e0 23 d2 72 bd c2 8b a3 3d 67 db 4b be 9f c3 02 3e
       -0.059282433 0.07985641 -0.19907914 0.12769936
0001f0 56 f9 03 3e 70 21 d1 3c b5 f8 f9 bb c9 b4 63 be
       0.12888083 0.02552864 -0.007628525 -0.22236933

gat2.lin_r.weight f4 [128, 32]
000000 6d e7 0a be dd ba 36 bc 1a 09 fb bc de 44 18 bd
       -0.13564844 -0.01115295 -0.030643988 -0.037175052
000010 43 7a 49 bd 35 f3 01 3e 90 d5 19 be 3b 14 17 be
       -0.049188863 0.12690432 -0.15022874 -0.14753811
000020 49 dd c0 3b 63 d6 12 bd bc 6e 39 be 6d df 72 3e
       0.0058857542 -0.035848986 -0.18108648 0.23718043
000030 18 49 e9 bd c7 9c 42 be 11 6e 54 bd c8 e7 11 3e
       -0.11390895 -0.19005118 -0.05186278 0.14248574
000040 a4 24 0a 3d d8 c8 30 bb 7f 0b db 3c 70 20 ee bd
       0.03372635 -0.002697518 0.02673888 -0.11627281
000050 68 77 04 3e c0 91 d6 3d 29 f7 39 3d 37 91 d6 3d
       0.12936175 0.10477018 0.045401726 0.10476916
000060 2d 1b 0f 3e 98 4c 4f 3d 7b 0c fb 3d 7d c3 05 bd
       0.1397521 0.050610155 0.1225824 -0.032657135
000070 40 2f f3 bd 44 72 14 bd 57 6b 05 be 77 97 96 3d
       -0.118742466 -0.036241785 -0.13029228 0.073531084
000080 5a fb 24 3e be 53 16 3e 90 41 91 bd ed e8 40 3d
       0.16111508 0.14680383 -0.07092583 0.047097135
000090 ba 73 9b bd 5e 45 8a 3e c5 c1 75 bd a2 79 90 be
       -0.075904325 0.27006048 -0.059999246 -0.28217798
0000a0 e9 7d 50 3d d0 7c 2a be 82 23 0b 3e 68 52 8b be
       0.050901327 -0.16649175 0.13587764 -0.27211308
0000b0 19 18 7a be 7c 88 2d bc 9b 5a 6f be 62 9e 0f 3e
       -0.24423255 -0.010591622 -0.23374407 0.14025262
0000c0 f7 bb b8 3e 5e 92 bc 3e f2 ea 02 3e 6e 57 c9 bc
       0.36080906 0.3683042 0.12784937 -0.024577823
0000d0 9f 03 70 bd 38 43 f7 bb d3 8e d8 3d e9 98 3e 3d
       -0.058597203 -0.007545855 0.105741166 0.046532545
0000e0 91 f4 86 bc e4 cb fb 3d e3 18 d1 3d 0e b0 ff bd
       -0.01647404 0.122947484 0.10209825 -0.12484752
0000f0 09 7b cb bd 64 16 57 bd a8 0a eb 3d 33 7b 80 3e
       -0.099355765 -0.052511588 0.11476642 0.25093994
000100 20 9a 8c 3e 04 47 7e 3d 0a 96 72 3b 2c 54 c2 bd
       0.27461338 0.062079445 0.00370157 -0.09488711
000110 5f 15 e9 3c 68 d4 82 bd 98 c0 b9 3d b4 80 64 3e
       0.028452573 -0.063881695 0.090699375 0.22314721
000120 82 42 99 3e 85 b2 84 3c da 9f 2c be 05 23 29 3c
       0.29933554 0.016198406 -0.16857854 0.010323291
000130 8a c9 e8 bc bd 1a 96 3e 88 d8 39 be e8 63 c0 3c
       -0.028416414 0.29317275 -0.18149006 0.023485139
000140 7b cd 2b 3e 1e 2b df 3d a8 b6 04 be 95 25 77 3d
       0.16777603 0.10896896 -0.12960303 0.060338575
000150 29 de 2f bd c9 15 58 bd 8e eb c2 3b 48 07 2f 3e
       -0.042936478 -0.05275515 0.0059484905 0.17092621
000160 e7 b8 af bd ae 98 0f 3d 4e e1 af bd 06 3c 43 bd
       -0.08580189 0.035057716 -0.08587895 -0.047664665
000170 72 3c 92 3d 42 50 25 be 7d cd 02 be 36 83 c3 bd
       0.07140435 -0.16143897 -0.127737 -0.09546511
000180 33 97 69 3e d4 52 fd 3d 60 6d 54 be f8 ca b0 3d
       0.22811584 0.12369314 -0.20744848 0.08632463
000190 65 d0 77 3e 67 df 5d bd 73 b6 9b 3d 59 43 c6 3d
       0.2420059 -0.05416813 0.07603159 0.09680814
0001a0 f4 8d e0 3d c4 cf 22 3e 19 25 96 be 3e 75 71 be
       0.109645754 0.15899569 -0.29325178 -0.2357988
0001b0 b6 94 2a 3e 1f db 8f 3d 8c 16 fe 3d c1 08 19 be
       0.16658291 0.07024216 0.12406644 -0.14944746
0001c0 3c c8 1e be 61 d8 06 be f0 c9 aa 3e 03 cf 0b bd
       -0.15506071 -0.1316848 0.3335719 -0.03413297
0001d0 36 3b 5b 3e d3 95 36 be ff 4d 7d 3e e1 87 30 3d
       0.21409306 -0.17830591 0.24736784 0.043098334
0001e0 22 c5 4c 3c 93 53 2b bd d5 06 2e be 4d 54 3c 3e
       0.012498172 -0.04182775 -0.16994794 0.18391533
0001f0 88 1f 29 bd 43 78 85 be ff 4d 15 be 24 64 01 bd
       -0.041289836 -0.26068315 -0.14580534 -0.031589642
000200 20 57 32 3b 9a ce 8e 3e aa 1c a6 3d 92 c7 43 be
       0.0027212575 0.27892 0.08110936 -0.19119099
000210 bc b0 60 3c fe eb 84 bd 19 0a 2a 3d 80 02 44 bd
       0.013714012 -0.064903244 0.041513536 -0.047853947
000220 c2 39 36 be 17 6b af 3d f4 ca 85 bc 83 18 61 3e
       -0.1779547 0.08565348 -0.016332127 0.21982007
000230 bd f5 2e 3d 7a 30 9c 3d b3 dc 92 bd 53 66 53 be
       0.042714823 0.07626434 -0.07171001 -0.20644502
000240 87 21 b3 3d 97 17 b2 3d 77 59 9c bd 3b b9 07 be
       0.08746629 0.08695906 -0.076342516 -0.13254254
000250 bf c5 1c 3d 03 5f 96 3d 98 b9 e9 3c 1b 92 d9 3c
       0.038274523 0.07342341 0.02853088 0.026558926
000260 3f ad 59 be d9 41 a5 3d 19 b9 23 bc 57 49 28 be
       -0.21257494 0.080692 -0.009992861 -0.16434227
000270 c2 e6 09 be b3 f7 d5 3d 2e 46 d8 3d ce e2 43 3d
       -0.13466933 0.104476355 0.10560261 0.04782372
000280 9b b1 09 3e 3e 75 5d bd 70 c5 98 bc 5e 59 ae be
       0.13446657 -0.05406689 -0.018648833 -0.34052557
000290 b5 c5 a8 3d d0 8c b3 be f9 85 39 3e 1b c8 5a 3e
       0.082408346 -0.3506837 0.18117513 0.21365397
0002a0 42 fc 33 3e d0 98 12 3d e1 24 d2 bc 77 a6 78 be
       0.17576697 0.035790265 -0.02565235 -0.24282251
0002b0 1c 96 19 bd f2 fa 23 bd 2e df c3 bc ea 07 37 3d
       -0.03749667 -0.040034242 -0.023910131 0.04468528
0002c0 7a ec e9 bd e3 d9 21 3d 37 95 c6 bd 0b b3 77 be
       -0.114220574 0.039514434 -0.09696429 -0.24189393
0002d0 87 e3 3c be b5 27 98 be 76 6f fc 3d a9 1f fb 3d
       -0.1844617 -0.29717794 0.12325947 0.12261898
0002e0 28 d2 9b be c4 35 59 bc 18 58 08 bb fb 41 59 3d
       -0.30433774 -0.013257448 -0.002080446 0.05304144
0002f0 8b b1 b3 bd 19 30 a1 3c 9a f4 8e bc 43 69 ab 3d
       -0.08774098 0.019676255 -0.01745062 0.083696865
000300 db b0 85 3d 28 64 93 bd 1a 40 38 bc 84 38 91 bd
       0.06527873 -0.07196838 -0.011245752 -0.070908576
000310 3e 4c 12 3e 85 99 99 3e 8d 08 0b be 2e 64 d3 bd
       0.14286897 0.2999994 -0.1357748 -0.10321842
000320 d1 64 b0 be 5e 21 4d 3e 20 f7 2a bc f1 35 0e 3e
       -0.34451917 0.2003226 -0.010434896 0.13887765
000330 3a 1e 0b 3e 40 b3 21 be 6a 17 a7 bd ce 29 c2 3e
       0.1358575 -0.15791035 -0.08158763 0.3792252
000340 48 58 1d be 4b cf a5 3d cb 35 9c 3c 77 e0 ac 3d
       -0.15365708 0.080961786 0.01906862 0.08441251
000350 46 f9 44 3e fd f5 f6 3d a5 fb 6f be a6 03 09 be
       0.19235715 0.12058637 -0.23435839 -0.13380298
000360 10 9e ce bd 6b b4 2d 3e 00 a7 1b 3e be d4 24 3d
       -0.10088742 0.16963355 0.15200424 0.04024195
000370 1c b2 b3 bd 48 7f 38 3e 8c 3d e2 bc 64 78 82 3c
       -0.08774206 0.18017304 -0.027617238 0.015926547
000380 09 4f ab ba 87 40 8f 3c 09 4e 9a 3e bb 11 0a be
       -0.0013069819 0.017486824 0.3013766 -0.13483326
000390 f4 f1 32 3d dd 63 a2 ba 0b 3c b9 3d 83 51 d9 3e
       0.043687776 -0.0012389381 0.090446554 0.42445
0003a0 16 64 8e 3e 0c 33 a2 bd 04 d8 3d 3e 59 15 b4 bd
       0.27810735 -0.07919893 0.18539435 -0.08793134
0003b0 b5 aa 3c 3e c7 57 2c 3e 40 5d 82 bd cd ba 0c be
       0.18424495 0.1683036 -0.06365442 -0.13743134
0003c0 3c a2 1c 3e ed ae 51 bd b7 e1 e4 bd b9 60 e6 bc
       0.15296263 -0.051192213 -0.11175864 -0.028122293
0003d0 30 27 35 be 5e 63 6e be d1 e3 ce bd 26 d6 da bd
       -0.1769073 -0.23280093 -0.10102046 -0.10685377
0003e0 c7 d2 d6 bd da 1f 38 be f1 c4 ab 3e 7f 33 60 be
       -0.10489421 -0.179809 0.33548692 -0.21894644
0003f0 13 b2 8d 3e 20 bb 28 3d 5c 02 58 be a6 bb fd bb
       0.27674922 0.04119408 -0.2109465 -0.0077433167
